pre_data/AmazonCoBuyPhoto_model_128GCN.pt (torch, 449875 bytes, 4 tensors)

layers.0.weight f4 [745, 128]
0	0x3c466da9	0.012111106
1	0xbb100dbe	-0.0021980847
2	0x3da32dac	0.079676956
3	0xbdab835c	-0.08374664
4	0xbd699bc6	-0.057033323
5	0x3d8fc81c	0.0702059
6	0x3caf2c1f	0.021383343
7	0x3d912a14	0.07088104
8	0x3c88773f	0.016658423
9	0xbcfbe178	-0.03074716
10	0x3d148cf1	0.036267225
11	0x3d20406d	0.03912394
12	0xbb28dbdc	-0.0025765812
13	0x3be3a644	0.0069473106
14	0x3d7f24fe	0.062291138
15	0xbd8b182a	-0.06791718
16	0x3d483410	0.048877776
17	0x3d9b1463	0.07572248
18	0xbcfa9dfe	-0.030592915
19	0x3cf24014	0.02957157
20	0xbda01433	-0.07816353
21	0x3d715edb	0.05892835
22	0xbc84758b	-0.01616933
23	0xbc23f64d	-0.010007453
24	0xbcbb2e39	-0.02284919
25	0x3d89a68a	0.06721218
26	0x3d2108b1	0.03931493
27	0x3d647016	0.055770956
28	0x3c35bfb2	0.011093067
29	0x3c385dc6	0.011252826
30	0xbda3c2ca	-0.079961374
31	0x3d8b3ea3	0.067990564
32	0xbd8b1137	-0.06790393
33	0x3cfd2360	0.030900657
34	0xbd8acadd	-0.06776974
35	0x3d3b5c44	0.04574229
36	0x3c716926	0.014734542
37	0xbc61d4a6	-0.0137836095
38	0x3be082de	0.006851538
39	0x3d78c226	0.06073203
40	0xbc04b533	-0.008099842
41	0x3b9c4e98	0.0047701113
42	0x3cfb8035	0.030700782
43	0xbd9b8dd1	-0.07595409
44	0x3c85edf9	0.016348826
45	0x3c66b083	0.01408017
46	0xbd905a83	-0.07048514
47	0xbc92b87f	-0.01791024
48	0xbd4b000d	-0.049560595
49	0xbd09c01a	-0.033630468
50	0xbd8d3a95	-0.06895939
51	0x3d3e3661	0.04643858
52	0xbcc65765	-0.024211595
53	0xbd2da892	-0.04239709
54	0x3d8d8651	0.069103844
55	0x3d131014	0.035904005
56	0x3d477a0c	0.048700377
57	0x3b3b290c	0.0028558401
58	0x3da1d91d	0.07902739
59	0xbd213547	-0.03935745
60	0xbcf05073	-0.029335236
61	0xbd8e8199	-0.069583125
62	0xbd492115	-0.049103815
63	0x3c37e6b8	0.011224441
64	0x3d9d19ef	0.07670962
65	0x3d8bde92	0.06829561
66	0xbccbab35	-0.024861911
67	0x3d879d23	0.06621768
68	0x3d2b4369	0.041812334
69	0xbc14ce94	-0.009082455
70	0x3d14d86e	0.036339216
71	0xbd311a5b	-0.043238025
72	0xbd9f97a0	-0.07792592
73	0x3d4bfece	0.049803548
74	0xbcaad350	-0.020852715
75	0x3b5b3a88	0.0033451635
76	0xbd70d3b4	-0.058795646
77	0x3d8ad3f8	0.06778711
78	0x3d9fe502	0.07807352
79	0x3c918bff	0.01776695
80	0xbda1ce21	-0.07900644
81	0xbcce48a6	-0.025181126
82	0xbd230f57	-0.03980955
83	0xba574895	-0.00082124147
84	0xbbaff56e	-0.0053698337
85	0xbd25f839	-0.040519927
86	0xbc3665e3	-0.01113269
87	0xbcdfec4b	-0.027334353
88	0x3d1b9260	0.03798139
89	0x3c65552e	0.013997359
90	0x3d23cf65	0.03999271
91	0xbc0e5a3e	-0.008688508
92	0xbc8f767e	-0.017512556
93	0x3c2462e5	0.010033344
94	0xbd848c6e	-0.06472097
95	0xbc77dbd5	-0.015128096
96	0xb8c12a6a	-9.2108574e-05
97	0xbd7f74b3	-0.062367152
98	0x3cbc4f2d	0.022986973
99	0x3d365bb2	0.04452104
100	0xbd16a08b	-0.0367742
101	0x3d6c9085	0.057755012
102	0x3d19d681	0.037558082
103	0x399f0ad4	0.0003033491
104	0xbd870005	-0.065918006
105	0xbd23eb14	-0.04001911
106	0xbcceec92	-0.02525929
107	0x3d22a37c	0.039706692
108	0xbd251605	-0.040304203
109	0x3cdff3a9	0.027337866
110	0x3d11fdfd	0.035642613
111	0x3cac4b85	0.021032104
112	0x3d47e0e8	0.04879847
113	0xbbfbc77e	-0.0076836934
114	0xbd9072a9	-0.0705312
115	0x3cfdea49	0.030995505
116	0x3af2c423	0.0018521588
117	0x3d77f626	0.06053748
118	0xbd92a1b4	-0.07159749
119	0x3da09899	0.07841606
120	0xbcdfd2cb	-0.027322194
121	0xbd99ed90	-0.075160146
122	0xba3a8996	-0.0007115839
123	0x3d465bd4	0.048427418
124	0x3c001219	0.007816815
125	0xbd2bb7aa	-0.041923203
126	0x3d35fb74	0.044429258
127	0xbd22d064	-0.039749518
128	0xbd2f4b3c	-0.04279636
129	0x3b60fa05	0.003432871
130	0x3d90bc88	0.070672095
131	0xbdb1060c	-0.086437315
132	0x3cc1c154	0.023651756
133	0xbd13d41c	-0.036090955
134	0xbd9087d4	-0.07057157
135	0x3d072568	0.032994658
136	0x3d585ef9	0.052824948
137	0x3d673c3c	0.05645393
138	0xbca2e852	-0.01988617
139	0xbc989629	-0.01862629
140	0xbd8ee19a	-0.06976624
141	0xbd293afc	-0.041316018
142	0x3ba94942	0.0051662037
143	0xbcc27e52	-0.023741875
144	0xbb9313a9	-0.0044884277
145	0xbda46766	-0.08027534
146	0xbcc095b8	-0.023508891
147	0x3d066431	0.032810394
148	0xbd6967ee	-0.05698388
149	0x3d80227d	0.06256578
150	0xbcbb2ab4	-0.02284751
151	0xbbf5bdfe	-0.0074994555
152	0xbd8c64d6	-0.068551704
153	0x3cc1603d	0.02360546
154	0x3d14d5ef	0.036336835
155	0xbd14582e	-0.036216907
156	0xbd69bc16	-0.05706414
157	0x3d803c47	0.06261497
158	0x3ccc3de5	0.024931857
159	0xbd3c9b04	-0.046046272
160	0xbd912ae6	-0.0708826
161	0xbd69100a	-0.05690006
162	0x3cb0bf71	0.021575661
163	0xbd439b6d	-0.047755647
164	0xbd4ef226	-0.0505239
165	0xbc4223f2	-0.01184939
166	0x3d2f977b	0.042869072
167	0xbd85a6c3	-0.06525948
168	0x3ca5ca70	0.020238131
169	0xbd8b2c88	-0.06795603
170	0xbd84bd59	-0.06481428
171	0xbc38c324	-0.011276994
172	0xbcb8c1df	-0.022553382
173	0x3d02746c	0.03184931
174	0xbd816252	-0.06317581
175	0xbc8cf47d	-0.017206425
176	0x3d8ad11a	0.06778164
177	0xbd95e645	-0.07319311
178	0xbd0acdb1	-0.03388757
179	0xbd211af5	-0.03933235
180	0xbd2644ea	-0.040593065
181	0xbd1ce2b0	-0.038302124
182	0xb959b0f5	-0.00020760654
183	0xbd81e70d	-0.063428976
184	0xbc95d0c8	-0.018288031
185	0xbd520f65	-0.051284213
186	0x3cd49d20	0.02595383
187	0x3d048cc4	0.032360807
188	0xbd55c9de	-0.05219447
189	0xbd191011	-0.037368838
190	0xbd5b61cf	-0.053560074
191	0x3d50ea71	0.05100483
192	0x3d0972e5	0.033556838
193	0xbd4c9a62	-0.04995192
194	0xbb3c3a49	-0.0028721264
195	0x3d316e6a	0.04331819
196	0xbc830d87	-0.015997661
197	0x3d2171d9	0.039415214
198	0x3bebe515	0.0071989396
199	0xbcc8b9b8	-0.02450262
200	0xbccddd0f	-0.025129823
201	0x3b623729	0.0034517741
202	0xbd981f51	-0.07427848
203	0x3d60fe97	0.054930296
204	0x3d0bec74	0.034161046
205	0xbd1fa924	-0.038979664
206	0xbd9beb3e	-0.07613228
207	0x3d47334f	0.048632916
208	0x3d29f066	0.041489027
209	0x3d8bab09	0.06819732
210	0x3d435490	0.047688067
211	0xbd4c92e8	-0.04994479
212	0x3d5f28aa	0.05448214
213	0xbd9c2f63	-0.07626226
214	0xbd94dd87	-0.072688155
215	0xbd1c8f15	-0.03822239
216	0xbc8f967c	-0.017527811
217	0x3d492ad2	0.049113102
218	0xbd7acf74	-0.061233
219	0x3ceb831a	0.028749038
220	0x3d4fff04	0.05078031
221	0xbda26fd6	-0.07931487
222	0x3cdb582e	0.026775446
223	0xbd5f2bb3	-0.054485034
224	0x3d2adb0e	0.041712813
225	0x3d8a9abd	0.06767795
226	0xbcdc6e0d	-0.026907945
227	0xbd77ad5b	-0.06046806
228	0xbd9682ba	-0.07349153
229	0x3d792a1a	0.060831167
230	0xbca19434	-0.01972399
231	0xbbb423d7	-0.0054974365
232	0xbd9a06a7	-0.075208
233	0x3d3b5e87	0.045744445
234	0x3da508e5	0.08058337
235	0x3d4bb64b	0.049734395
236	0xbd8524c9	-0.06501157
237	0x3b6e6bcf	0.0036380177
238	0x3cb53f05	0.022124777
239	0xbd7855d2	-0.06062872
240	0x3c993026	0.018699717
241	0xbd80b81d	-0.06285117
242	0xbd5e4f0a	-0.054274596
243	0xbd36952a	-0.044575848
244	0x3d370c73	0.044689607
245	0xbd5bbf30	-0.053649127
246	0x3da1b0a4	0.0789502
247	0x3ce78a84	0.028264292
248	0xbc702ba4	-0.014658842
249	0x3d089c14	0.033351973
250	0x3c4bf5a5	0.012448703
251	0xbd5bfba6	-0.053706788
252	0xbd989e65	-0.07452086
253	0x3c8a2bdc	0.016866617
254	0xbd113781	-0.035453323
255	0xbcd5b565	-0.026087472

layers.0.bias f4 [128]
0	0x3c0aae1a	0.008464361
1	0x3bb83eaf	0.005622707
2	0xbb21e9ac	-0.002470593
3	0x3c2553b2	0.010090755
4	0xba8223d1	-0.0009928887
5	0x3ba0cc11	0.004907139
6	0xbb1a8a14	-0.0023580836
7	0x3a94b836	0.0011346403
8	0xbb6a7d2d	-0.0035780177
9	0xbb5552d5	-0.0032550592
10	0x3c4ab3ac	0.012371939
11	0x3ca82121	0.02052361
12	0xbb3106bd	-0.0027012073
13	0xbac1f5ae	-0.001479795
14	0x3b3c3309	0.0028716943
15	0xbad05d21	-0.0015896895
16	0x3c3f7be2	0.011687251
17	0xbb3630e5	-0.002780014
18	0xbb69e78d	-0.0035690994
19	0x3b842ef5	0.004033918
20	0xbba144b8	-0.004921522
21	0x3bcac74d	0.0061883093
22	0xbb8e3866	-0.0043402193
23	0x3c295f74	0.010337699
24	0x3a914745	0.0011083862
25	0x3b71a209	0.0036870262
26	0xbb66654e	-0.0035155597
27	0x3b481fe6	0.003053659
28	0x3c6f319c	0.01459923
29	0xbb42288f	-0.0029626226
30	0xbb28ef18	-0.0025777277
31	0x3b0a5e34	0.0021113278
32	0xbb64d63d	-0.0034917735
33	0xbb814123	-0.0039445325
34	0x3c368345	0.0111396955
35	0xbb92d139	-0.0044805077
36	0xbb54cc49	-0.0032470396
37	0x3b95e123	0.0045739575
38	0x3ca68910	0.020329028
39	0x3c561879	0.013067358
40	0xbaa80517	-0.00128189
41	0x3a552381	0.00081305957
42	0x3ae10864	0.0017168638
43	0x3c00bc2f	0.007857366
44	0xbb06d4ae	-0.0020573544
45	0x3bbfb575	0.005850489
46	0x3bcbee1c	0.006223453
47	0x3bfc81b8	0.0077058934
48	0xbb292957	-0.0025811994
49	0xb9691264	-0.00022227463
50	0xbbac4018	-0.005256664
51	0x3b8593d8	0.0040764622
52	0xbb8a576a	-0.0042218463
53	0xbb7ec221	-0.0038873034
54	0xb9fe726f	-0.00048531915
55	0xbb964070	-0.0045853183
56	0xbb23be20	-0.002498515
57	0xbb88687c	-0.004162846
58	0xbb22f770	-0.0024866723
59	0x39055274	0.00012714585
60	0x3ac9e44c	0.0015403121
61	0xbb431dcd	-0.0029772401
62	0xba87b957	-0.0010354918
63	0x3bd49364	0.006487297
64	0xbb90deab	-0.0044210753
65	0xbbc24d75	-0.0059296438
66	0x3a79fe8b	0.0009536526
67	0xbb2bd6df	-0.0026220602
68	0xba976bcd	-0.0011552513
69	0xbb2388ad	-0.0024953291
70	0xbb27fd69	-0.0025633222
71	0xbb7d27d9	-0.0038628487
72	0xbadc6fb0	-0.0016817953
73	0x3b1c907f	0.0023889837
74	0x3c8b1a2b	0.016980251
75	0xbb62bf12	-0.003459875
76	0xba875652	-0.0010325408
77	0xbb39a0b1	-0.002832454
78	0x3a1495c1	0.0005668067
79	0x3bd7aa3f	0.006581574
80	0x388ad719	6.620418e-05
81	0xbbb4c9de	-0.0055172285
82	0xbb329288	-0.0027247984
83	0xbbad64e6	-0.005291569
84	0xbb83af9f	-0.0040187384
85	0xbb83be8e	-0.0040205186
86	0xba858014	-0.0010185265
87	0x3c00dc8c	0.0078650825
88	0x3b85c3c4	0.004082175
89	0xbb19078a	-0.002335044
90	0x3cdf5a72	0.027264807
91	0xbadfffaf	-0.001708975
92	0xbb293de7	-0.002582425
93	0xbbe8b6c6	-0.0071018664
94	0xbb85a248	-0.0040781833
95	0x3c67a31c	0.014138009
96	0xbae1dc34	-0.0017231763
97	0xba0306b3	-0.00049982517
98	0xbafcdebe	-0.0019292457
99	0xbbba0f0d	-0.0056780637
100	0xbb3e2587	-0.0029014067
101	0xbb76614c	-0.0037594615
102	0xbb3aed90	-0.0028522946
103	0x3a2c7751	0.0006579059
104	0x3cdaf67c	0.026728861
105	0xbc63dd04	-0.013907675
106	0x3bccabd7	0.006246071
107	0x3a6006f2	0.0008545957
108	0xbbc7d503	-0.006098391
109	0xbb290bc7	-0.0025794373
110	0xbb3d1d65	-0.0028856632
111	0x3b460994	0.0030218111
112	0xbbac9be6	-0.005267608
113	0xba942ab4	-0.001130423
114	0xbb13b882	-0.0022540395
115	0x3c44c5c9	0.012010046
116	0xb9dd8aa8	-0.00042255712
117	0x3a5396b5	0.00080714683
118	0xbb2cb8a2	-0.0026355167
119	0xbb247145	-0.0025091928
120	0xbae2bd36	-0.0017298821
121	0xbbe20945	-0.0068980777
122	0x3a516e0f	0.00079891173
123	0xbb56d66d	-0.0032781616
124	0xbbb430a2	-0.0054989615
125	0x3c7ec3d8	0.0155496225
126	0x3b4e7807	0.0031504647
127	0xbbc273e8	-0.0059342273

layers.1.weight f4 [128, 128]
0	0xbe01650e	-0.12636206
1	0x3d21d204	0.039506927
2	0x3de3cd37	0.11123126
3	0xbe174648	-0.14772904
4	0x3d89716f	0.06711089
5	0xbd16a100	-0.036774635
6	0xba1b6794	-0.0005928215
7	0xbdc90a3d	-0.09816406
8	0x3c750633	0.014955091
9	0xbe1bc61d	-0.15212293
10	0xbda6b9ad	-0.081408836
11	0xbd9624b7	-0.073312216
12	0xbc2707d9	-0.010194742
13	0xbd92c05c	-0.07165596
14	0xbd899d2a	-0.0671943
15	0x3ddb395b	0.10704299
16	0xbe0ad099	-0.13556136
17	0x3d560338	0.052249163
18	0xbdfa9b3b	-0.12236639
19	0x3ce9af69	0.028526025
20	0x3cb593bf	0.022165177
21	0xbdcc3e58	-0.099728286
22	0x3d2be977	0.041970696
23	0x3cf468eb	0.029835185
24	0x3c348fb0	0.011020586
25	0xbd966bff	-0.07344817
26	0xbe03e345	-0.12879665
27	0x3dcfc13c	0.101442784
28	0x3ce2623c	0.027634732
29	0x3e1bf88d	0.15231533
30	0xbd0fc941	-0.03510404
31	0x3d2bf6a3	0.041983258
32	0xbdb31a19	-0.08745212
33	0xbdf9aa8e	-0.12190734
34	0x3ddfbaf6	0.10924332
35	0x3ce01f65	0.02735872
36	0x3deaf95a	0.11473341
37	0xbdeee868	-0.11665422
38	0x3e1068fb	0.14102547
39	0xbd19418c	-0.037416026
40	0xbdc9ceba	-0.09853883
41	0xbcc6e849	-0.024280684
42	0x3cd97afd	0.026547903
43	0xbb764722	-0.003757902
44	0xbb6511f7	-0.0034953335
45	0x3d5fdad4	0.05465205
46	0xbda0ecff	-0.078577034
47	0xbdc8ebea	-0.09810622
48	0x3dcf8557	0.101328544
49	0xbd8e7cbe	-0.069573864
50	0xbbbca0d3	-0.0057564764
51	0xbd3bf5b5	-0.04588862
52	0xbc9aa6cc	-0.018878363
53	0xbd720c90	-0.05909401
54	0x3d023fbd	0.031799067
55	0x3dabe179	0.08392615
56	0xbe0fbe6c	-0.14037484
57	0x3e11e80c	0.14248675
58	0xbd6efeab	-0.05834834
59	0xbdac8c7a	-0.08425231
60	0x3d0bcf15	0.034133036
61	0x3c57ac04	0.01316357
62	0x3d654113	0.055970263
63	0x3c93afe7	0.018028213
64	0xbdd26f51	-0.10275138
65	0x3e2349d6	0.15946135
66	0xbd64d66d	-0.055868555
67	0x3daf2b93	0.08553233
68	0xbdd49dbe	-0.103816494
69	0x3b07aa98	0.0020701047
70	0xbd6308d3	-0.055428337
71	0x3d3bfea2	0.045897134
72	0xbe162110	-0.1466105
73	0xbd9e1a5c	-0.077198714
74	0xbe02b262	-0.1276336
75	0x3d83f486	0.064431235
76	0x3c2e1d52	0.010627108
77	0xbe2255ec	-0.15853089
78	0xbd14bd47	-0.03631332
79	0xbcfff255	-0.031243483
80	0xbdd03ab8	-0.1016745
81	0x3d3952f2	0.04524512
82	0x3ce27ecd	0.027648354
83	0x3cdeb137	0.027184112
84	0xbc40d4c7	-0.01176948
85	0xbb9ba5f1	-0.0047500064
86	0x3cd1e3d4	0.025621332
87	0xbd70d4ee	-0.058796816
88	0xbd4fd616	-0.050741278
89	0x3e015493	0.12629919
90	0x3de0826a	0.109623745
91	0x3d5e2dff	0.054243084
92	0x3ce5a75f	0.02803391
93	0x3c28eb52	0.010310011
94	0xbd84bc16	-0.06481187
95	0x3deff8c8	0.11717373
96	0x3d971b0e	0.07378207
97	0x3d4e938f	0.05043369
98	0x3dc7a40e	0.09748088
99	0xbde90234	-0.11377373
100	0x3d78352a	0.060597576
101	0x3dc5c0a8	0.09655887
102	0x3d9f6244	0.077824146
103	0x3d96e9af	0.0736879
104	0xbe28bfbe	-0.16479394
105	0x3df858dc	0.121263236
106	0xbd578cd5	-0.052624542
107	0x3e058905	0.1304055
108	0xbd18a0b5	-0.037262637
109	0xbe215c18	-0.15757787
110	0x3cf11bff	0.029432295
111	0xbe21e299	-0.15809096
112	0xbdaee824	-0.08540371
113	0x3c80e8e0	0.015736043
114	0x3ddbe216	0.10736482
115	0x3da2246e	0.07917105
116	0xbe12b4d9	-0.143268
117	0x3df98498	0.121834934
118	0x3d02c3ea	0.03192512
119	0x3df52f1c	0.11971876
120	0xbe15c139	-0.1462449
121	0xbdd3b791	-0.10337747
122	0xbd0428aa	-0.032265343
123	0x3de820b6	0.11334364
124	0xbcd3631e	-0.025804099
125	0xbcf0cd96	-0.029394906
126	0xbd93e515	-0.07221428
127	0xbd802d95	-0.06258694
128	0x3de7fa20	0.113270044
129	0x3dfab85e	0.122421965
130	0xbdebae1e	-0.115078196
131	0xbd8efd52	-0.06981911
132	0x3d1980c9	0.037476335
133	0xbdc343d7	-0.09534424
134	0xbd1c0aef	-0.038096365
135	0x3d3af4c4	0.045643583
136	0x3e011f9b	0.12609713
137	0xb9c44ba5	-0.00037440393
138	0xbcf7f57c	-0.030268423
139	0x3de54c67	0.11196213
140	0xbddb39ab	-0.10704359
141	0xbd8cd071	-0.068756945
142	0xbd915ad3	-0.070974015
143	0xbb3ea885	-0.0029092145
144	0xbcad9a07	-0.02119161
145	0x3c95006b	0.018188676
146	0x3d3f6c3c	0.04673408
147	0xbd37eb41	-0.04490209
148	0xbd275503	-0.040852558
149	0xbe068696	-0.13137278
150	0xbd628b15	-0.05530842
151	0x3adfe5f9	0.0017082087
152	0xbd5c249a	-0.053745843
153	0x3e0aee97	0.13567577
154	0xbd03bf8a	-0.032165088
155	0xbbd4b86f	-0.0064917128
156	0xbacecf63	-0.0015778359
157	0xbd0d77b6	-0.034537993
158	0xbd8db6aa	-0.06919606
159	0x3d0d8a99	0.034556005
160	0x3dda2a66	0.10652618
161	0x3dda6d84	0.1066542
162	0xbd4a44a0	-0.049381852
163	0xbbf6f4d2	-0.007536509
164	0x3dbe301c	0.0928652
165	0xbd66a2ff	-0.05630779
166	0x3d6f70a2	0.058457024
167	0x3dbd682c	0.09248385
168	0xbe0168e1	-0.12637664
169	0xbd6bd580	-0.057576656
170	0x3d80deba	0.06292482
171	0xbdd3477a	-0.103163674
172	0x3d38de56	0.04513391
173	0xbc635192	-0.013874428
174	0x3d29ae3c	0.04142593
175	0x3cced9fe	0.025250431
176	0xbe0babae	-0.1363971
177	0x3df05ad7	0.11736076
178	0x3e0884f9	0.13331975
179	0xbe064a70	-0.13114333
180	0x3d8a0fc2	0.06741287
181	0xbd0fa46a	-0.035068907
182	0xbdaabdf4	-0.08337012
183	0x3e0be0e9	0.13660015
184	0xbd6aa127	-0.057282593
185	0xbdc4d1c2	-0.09610321
186	0xbdc74e58	-0.0973174
187	0x3cca30b5	0.024681428
188	0xbe08f1b9	-0.1337346
189	0xbb886227	-0.0041620913
190	0x3d9993ca	0.07498892
191	0xbe267cd7	-0.1625856
192	0x3cfb24e0	0.030657232
193	0x3d6225b3	0.055211734
194	0x3d86b2c3	0.06577065
195	0x3df87095	0.12130848
196	0xbdec91d6	-0.115512535
197	0xbdefcc07	-0.11708837
198	0xbdcfcf70	-0.101469874
199	0xbdc3dc05	-0.0956345
200	0xbd7d0bc3	-0.061778795
201	0xbdceb27a	-0.100926355
202	0x3ce32089	0.027725475
203	0x3d5879b2	0.052850433
204	0xbd7067d0	-0.058692753
205	0xbdef4002	-0.116821304
206	0x3d248b0c	0.040171668
207	0x3bc32d91	0.0059563597
208	0xbe0d11c6	-0.13776311
209	0x3e08675b	0.13320677
210	0x3d303c54	0.043026283
211	0x3d988f3e	0.07449196
212	0xbe0d17d2	-0.13778618
213	0x3e03e5e0	0.12880659
214	0x3d590f6c	0.052993223
215	0xbe0d3e0d	-0.13793202
216	0x3c6596dd	0.014013019
217	0xbd8de4fa	-0.069284394
218	0x3ad5556f	0.0016276072
219	0xbdd7fb13	-0.105459355
220	0x3c6536f6	0.0139901545
221	0x3e14b032	0.14520338
222	0x3e192aca	0.14957729
223	0x3da7e394	0.08197704
224	0xbd7e0fc0	-0.06202674
225	0xbd5748f2	-0.0525598
226	0xbcd4c68d	-0.025973583
227	0xbdf8a047	-0.121399455
228	0xbcaf7294	-0.02141694
229	0x3da8052b	0.08204111
230	0x3cc9f1f5	0.024651507
231	0x3e1186b1	0.14211537
232	0x3c6407ef	0.013917907
233	0xbdd502d8	-0.10400933
234	0xbc486062	-0.012230011
235	0x3d632fa2	0.055465348
236	0x3d20673d	0.039160956
237	0x3c4396d3	0.011937815
238	0xbc0f1e99	-0.008735322
239	0x3df79100	0.120882034
240	0x3de6f06f	0.11276328
241	0xbe07ec05	-0.13273628
242	0xbdf9600c	-0.121765226
243	0x3e0462e5	0.1292835
244	0x3cf8e825	0.030384133
245	0xbd0a8929	-0.033822212
246	0xbc823b9d	-0.015897566
247	0xbc44de78	-0.012015931
248	0x3db41a08	0.087940276
249	0x3c05a3a1	0.008156688
250	0x3e0cc2ef	0.13746236
251	0xbb7a9e11	-0.0038241188
252	0xbe0538c0	-0.1300993
253	0xbd94a330	-0.07257688
254	0x3db938be	0.09044026
255	0xbd66b822	-0.056327946

layers.1.bias f4 [128]
0	0x3bf160f6	0.007366295
1	0xbbd0d280	-0.00637275
2	0x3bfcff7f	0.007720887
3	0x3c321e8b	0.01087154
4	0xbc192e9d	-0.009349492
5	0xbc0a874d	-0.00845511
6	0x3c41d17e	0.011829732
7	0x3b53f787	0.0032343583
8	0xbbb35179	-0.005472359
9	0x3b52bc20	0.0032155588
10	0x3c4969d1	0.012293295
11	0xbc9d3767	-0.019191457
12	0x3c09888a	0.00839437
13	0x3c229ef8	0.009925596
14	0x3c8510a1	0.01624328
15	0x3ae54bed	0.0017493941
16	0x3c5a2c57	0.0133162355
17	0xbbe22359	-0.0069011864
18	0x3b33cad1	0.002743412
19	0x3cd3e35b	0.025865247
20	0xbc8310ab	-0.015999159
21	0x3cc4ec3b	0.024038425
22	0xbc04208d	-0.008064401
23	0xbae19426	-0.0017210289
24	0x3c8261a9	0.015915709
25	0x3caa6770	0.020801276
26	0xbc4eba30	-0.012617633
27	0xbd034d1e	-0.032055967
28	0x3c5fd454	0.013661463
29	0xbbf8de64	-0.0075948704
30	0x3ceb43b0	0.0287188
31	0xbc068925	-0.008211409
32	0x3b8dd8a4	0.004328804
33	0x3c18cfce	0.009326888
34	0x3c202338	0.009774022
35	0xbd08e8ed	-0.03342526
36	0x3b019e32	0.001977813
37	0x3b0fd461	0.0021946656
38	0x391813c0	0.00014503207
39	0xbb1193be	-0.0022213305
40	0xbd2bf6a5	-0.041983265
41	0xbbb1ed61	-0.005429909
42	0xbcbc0257	-0.022950334
43	0x3c923eed	0.017852271
44	0x3cc9f277	0.024651749
45	0x3c727e29	0.014800587
46	0x3c16c1e8	0.009201504
47	0xbc58e2aa	-0.013237635
48	0xbc9aebfb	-0.018911352
49	0xbc0b9c06	-0.008521086
50	0xbc3ba4b3	-0.011452842
51	0xbcbebf05	-0.023284445
52	0x3ce483e6	0.027894925
53	0xbc33fd03	-0.010985616
54	0xbb2e3954	-0.0026584463
55	0xba9fd75a	-0.0012194917
56	0x3c99e1aa	0.018784363
57	0xbb790ffb	-0.003800391
58	0xbc988565	-0.018618295
59	0x3c614256	0.013748726
60	0xbc26a64e	-0.010171486
61	0x37ddd935	2.6446398e-05
62	0xbbc2646b	-0.005932381
63	0x3c244ffc	0.010028835
64	0x3b89365b	0.004187388
65	0xbb916279	-0.0044367877
66	0x3c71652e	0.014733596
67	0x3c5b66a8	0.013391174
68	0xbc5b60ab	-0.013389747
69	0x3be23da2	0.00690432
70	0xbb9d141f	-0.0047936584
71	0xbbe8c73e	-0.0071038296
72	0x3cdd00d9	0.026977943
73	0x3c2a12bd	0.010380444
74	0xbc5f39df	-0.013624637
75	0xbc144f0d	-0.00905205
76	0xbcf2439f	-0.02957326
77	0xbc4aaad1	-0.012369827
78	0x3b6a5183	0.0035754151
79	0xbbb5302b	-0.0055294237
80	0x3c1bd3d8	0.009510957
81	0x3ba7ecaa	0.005124648
82	0x3c675c26	0.014121091
83	0xbb3fd298	-0.002926981
84	0xbc1e15f1	-0.009648786
85	0x3b2d99cf	0.0026489382
86	0x3ab4bab2	0.001378855
87	0xbba16d94	-0.004926393
88	0x3c5bf95c	0.013426151
89	0x3cf05906	0.029339325
90	0xbad2a9bb	-0.0016072312
91	0x3c4404a2	0.011963995
92	0xbb8760fd	-0.004131435
93	0x3c031882	0.008001449
94	0x3b4d3830	0.0031314008
95	0x3c47f742	0.012204947
96	0xbc079b57	-0.008276782
97	0xb9307103	-0.00016826768
98	0xbc5aa0c8	-0.013343997
99	0xb8ca3d99	-9.643584e-05
100	0xba857520	-0.0010182001
101	0xbca66593	-0.020312106
102	0xbc6aa0ac	-0.014320534
103	0x3ca445d0	0.02005282
104	0xbccbd95d	-0.02488392
105	0xbc533b80	-0.012892604
106	0x3b234b1c	0.0024916595
107	0xbc9f578d	-0.019450927
108	0xbd06de9d	-0.032927144
109	0xbc9610b8	-0.018318519
110	0x3c17685b	0.009241189
111	0xbcad618a	-0.021164674
112	0xbc1068a6	-0.008814013
113	0x3c0323e7	0.008004165
114	0x3ccc91f5	0.024971941
115	0x3c63ccb3	0.013903785
116	0x3b9769b8	0.004620757
117	0x3b94a433	0.0045361756
118	0x3c1e7bf8	0.009673111
119	0x3ca392e2	0.0199675
120	0x3b3ba198	0.0028630253
121	0x3ba991ef	0.0051748673
122	0x3b809c5b	0.003924889
123	0xbc163004	-0.009166721
124	0xbb9af175	-0.004728491
125	0x3c69b33c	0.014263924
126	0xbc752107	-0.014961488
127	0x3c6d8158	0.01449617
