pre_data/AmazonCoBuyPhoto_model_128.pt (torch, 449999 bytes, 4 tensors)

layers.0.bias f4 [128]
000000 33 06 a2 bc 29 77 99 bc c6 c4 10 bc eb d9 1a bd
       -0.019778347 -0.018733578 -0.008835977 -0.03780548
000010 93 05 11 3c 38 69 81 bb 8c ea 99 bc 28 d8 a4 bc
       0.008851427 -0.0039493106 -0.018788598 -0.020122603
000020 a1 77 0a bd fa 5b cb bc ed 22 87 3b a5 e7 62 bc
       -0.033805493 -0.024824131 0.0041240365 -0.013849174
000030 76 af 83 3a 12 30 18 bc 61 fe 19 bb d3 2f a7 bc
       0.0010046798 -0.009288805 -0.002349757 -0.020408547
000040 cd ee 0b bd 7a 2f 4f bc ca 22 20 bc dd da b9 bc
       -0.034163285 -0.012645597 -0.009773919 -0.02268737
000050 72 19 87 3b 53 33 36 bc 2c 6b 75 bc 16 40 aa bb
       0.0041229064 -0.011120635 -0.014979165 -0.005195628
000060 28 a2 8c 3b d4 df 9b bc b1 ba 68 bc 43 e8 ed bc
       0.0042917915 -0.019027628 -0.014204667 -0.029041415
000070 9e 1c 79 bb 1b c2 2e bc cc 35 aa bc 34 f4 5f 3b
       -0.0038011442 -0.010666396 -0.020777605 0.0034172656
000080 9e 88 16 bd c2 8c 5c bb 22 58 a7 bc ac 80 a4 bc
       -0.036751382 -0.0033653234 -0.020427767 -0.020080887
000090 6d a9 6f bc 41 3b 96 bb 0f a6 b1 bc 12 5b a5 bb
       -0.014627797 -0.0045847003 -0.021685628 -0.005046257
0000a0 65 49 9b bc aa 43 40 ba b5 e5 fb bc 8e c0 ca bc
       -0.018955896 -0.00073343015 -0.030749181 -0.02475002
0000b0 cd ae f1 bc 12 95 53 bc 3f 93 4b bd 79 2a ca bc
       -0.029502297 -0.012913959 -0.04970097 -0.024678456
0000c0 a6 41 fa bb 0b 0e 01 3c a1 18 b2 bc 17 36 30 bd
       -0.0076372204 0.007876883 -0.02174026 -0.043020334
0000d0 ec 5c 71 bc 0b 3a 88 bc 6e 2f 66 bc 44 f1 88 bc
       -0.014731627 -0.01662924 -0.014049394 -0.016716607
0000e0 f4 a9 e0 bc 66 71 6c 3b fb f9 6e bc 66 a5 0f bb
       -0.02742479 0.0036078333 -0.014585967 -0.0021918654
0000f0 4c 11 75 bc b6 be 62 3c 73 d0 8e bb 62 e8 17 bc
       -0.014957737 0.013839414 -0.004358345 -0.009271713
000100 53 48 85 bc 15 ec 75 bb cf 71 0c bc 1e ca 2c bd
       -0.016269838 -0.003752475 -0.008572056 -0.04218494
000110 24 76 ce bc 12 93 35 ba fd 05 d0 ba 22 ba 0e bc
       -0.025202818 -0.0006926517 -0.0015870925 -0.00871137
000120 20 e6 67 bc 8e d4 5a bc df 6c 1e bc f5 1e b8 bb
       -0.014153987 -0.013356341 -0.009669512 -0.0056189247
000130 b5 7e 1d bd ff a7 be bc 1b 79 f2 bc 39 02 db bb
       -0.038450915 -0.023273466 -0.029598763 -0.0066836146
000140 a9 a7 ac bc e3 1c a8 bc 88 3e ae bc a9 87 63 bc
       -0.02107604 -0.020521587 -0.021270052 -0.013887324
000150 b9 35 65 3b 33 2a 7a bc 79 7b 81 bc 7a 9e 0f bd
       0.0034974648 -0.01526885 -0.015805947 -0.035063244
000160 e6 d9 84 3b 44 b7 81 bc 63 a9 ce bc 7c e3 8a bb
       0.004054296 -0.015834458 -0.025227254 -0.004238544
000170 2e a8 fd bc 7e 7e af ba 1f dc be bc 09 14 a1 bc
       -0.030963983 -0.0013389138 -0.023298321 -0.019662874
000180 57 a5 ad bc c7 2f 75 bc 7e d0 67 bc 2c 17 db bb
       -0.021197004 -0.014965004 -0.0141488295 -0.006686112
000190 9c 03 95 3c 2d a3 4e bc bf 40 16 bd b9 cb 43 bc
       0.018190198 -0.012612146 -0.03668284 -0.011950427
0001a0 aa 6c be bc 1b f7 83 bb 84 fb f1 bb f2 ee 99 3c
       -0.023245174 -0.00402726 -0.0073847193 0.018790696
0001b0 ed e2 a7 bc bb 78 a7 bc 74 7b 1f bc 85 71 04 bd
       -0.020493949 -0.020443311 -0.009734023 -0.032334823
0001c0 da 85 0d bc e2 6a 32 bd 2d 1d c9 3c ac c0 38 bc
       -0.00863787 -0.043558963 0.024550045 -0.011276405
0001d0 3d f2 cd bc 11 ef fe 3c b7 b8 d1 39 c6 7a bc bc
       -0.025139922 0.031119855 0.0004000121 -0.023007762
0001e0 5b fa 9a bb 47 d9 94 3c e4 3a ef bc 2a 2e da bc
       -0.0047295517 0.018170012 -0.029202886 -0.02663334
0001f0 6f d2 78 bc 4b 53 ed bb 47 db 1a bb 6f 32 39 bc
       -0.01518689 -0.0072425953 -0.0023629235 -0.011303528

layers.0.fc_neigh.weight f4 [128, 745]
000000 54 af c1 bd 31 18 cb 3c a7 58 bf 3d 13 1c e7 bd
       -0.09457269 0.024791809 0.09343081 -0.112846516
000010 ea b5 53 3d 4a fd d7 bc a8 d7 34 bc 45 c3 a8 bd
       0.05168716 -0.026365895 -0.011037745 -0.0824037
000020 16 4f e5 3b b4 35 fc bd 7c c9 9e bd 12 60 61 bd
       0.006997953 -0.123149306 -0.07753274 -0.05502326
000030 2f 3a 74 bc 2b ce 9c bd 85 dd 6a bd 17 2c a5 3d
       -0.01490645 -0.07656511 -0.057340164 0.0806505
000040 e5 53 da bd 25 cf 4a 3c cb c5 e3 bd d8 f1 03 3d
       -0.10660533 0.012378489 -0.111217104 0.032213062
000050 fe 90 3c 39 c2 3e ad bd 1f 1a cd 3b 59 3b 9a 3b
       0.00017983091 -0.08459236 0.0062592174 0.004706782
000060 b4 28 55 ba 8f a6 a0 bd ea ee d8 bd 1d 2d 7f 3d
       -0.00081313704 -0.078442685 -0.10592444 0.062298883
000070 97 28 89 3b 4f 38 c2 3d e9 10 1b bd 79 a4 10 3c
       0.004185747 0.09483396 -0.037857924 0.008828276
000080 3f c3 95 bd 64 b9 c2 bd 38 35 4c 3d a3 d0 d4 3c
       -0.07312631 -0.09508017 0.04985544 0.025978392
000090 c7 08 80 3d 88 1c e1 bd 1e 7c 9a 3d 1b d1 05 bd
       0.06251674 -0.1099177 0.07543205 -0.03267012
0000a0 5b 1d bf bd 7d 33 3f bd 63 a2 f7 3c a7 e3 34 bc
       -0.09331771 -0.046679962 0.0302288 -0.011040605
0000b0 de f0 88 bc d4 4f 09 3d 93 aa 6f bd 64 eb ba bd
       -0.016716417 0.033523396 -0.05851228 -0.091269284
0000c0 67 e7 9b 3d e3 50 a8 bd 72 36 d4 bc 47 73 1d bd
       0.07612496 -0.08218553 -0.025904868 -0.038440015
0000d0 49 de f5 bc c9 a6 4a bd c5 28 4b ba c4 c2 93 3d
       -0.03001322 -0.049475465 -0.00077499106 0.07214883
0000e0 e8 ca f1 bd dd 73 9f 3d 05 d7 72 bd ec 12 a6 bd
       -0.118062794 0.07785771 -0.05928709 -0.08109078
0000f0 54 bf ba 3c f9 a0 21 bc fa 39 14 3d 17 2e 74 3a
       0.02279631 -0.009865039 0.036188103 0.0009314729
000100 b5 ac ae bd e4 36 a5 3d 9b 47 4f bd 1f 0b 62 3d
       -0.08529035 0.0806711 -0.050605398 0.055186387
000110 fa be ba bd 4d 7e 00 bc be f7 33 bd a2 8b 14 3d
       -0.09118457 -0.007842612 -0.043937437 0.036265977
000120 90 0c 0e be 92 c3 a7 bd 22 19 e5 bd 07 5b 71 3d
       -0.1387198 -0.08191599 -0.11186434 0.0589247
000130 28 c9 d7 bc 02 6d 01 be 92 50 0c bd fd 65 16 bd
       -0.026341036 -0.1263924 -0.034256525 -0.036718357
000140 07 11 bd bd 20 0c a4 3c 12 bc be ba 1e ad 53 bb
       -0.09231763 0.020025313 -0.0014551899 -0.003229923
000150 93 4d fa bb af 5f 3e 3a 34 94 a6 bb 7f 4c 3d bd
       -0.007638642 0.0007262183 -0.005083585 -0.04621553
000160 d4 b5 8b bd 2f 87 bb 3d 04 3d 81 3d 12 fd b7 3b
       -0.0682179 0.091566436 0.06310466 0.005614885
000170 09 41 26 3c e3 d3 71 bc 71 55 68 bd 7b 2f b6 3d
       0.0101473415 -0.01475999 -0.05672211 0.08895775
000180 df 4c 34 3d 15 34 08 3d 00 4c 34 3d b6 31 c8 bd
       0.044018622 0.033252794 0.04401779 -0.097751066
000190 bc 4c a7 3c 5b 49 65 3d f4 d1 74 3d 7c 71 c0 3c
       0.020422332 0.05597816 0.05977054 0.023491614
0001a0 f0 f4 0a be d4 49 85 3d 05 6d 13 bd 08 46 a7 3d
       -0.13569999 0.06508222 -0.03599264 0.08167654
0001b0 15 80 b8 bc 2f f7 e3 bd 07 95 a7 3c bf 3f 02 be
       -0.022522012 -0.11131131 0.020456804 -0.1271963
0001c0 a0 f2 9d bd 4d 48 70 3c 47 e0 82 3d 0a d7 59 3d
       -0.07712293 0.014665675 0.06390434 0.053183593
0001d0 2b 64 f8 bd 13 b0 9c 3d e2 2b 20 3c 9e 31 8d 3d
       -0.121284805 0.07650771 0.0097760875 0.06894229
0001e0 d0 94 ff bd 0e 7c af bd aa 1b 48 bd f3 3d 8b 3d
       -0.124795556 -0.085685834 -0.048854508 0.06798925
0001f0 7d ec 82 bc 0a 1c ed bc b2 5d 86 bd 23 13 92 bd
       -0.015981907 -0.028944034 -0.0656084 -0.07132556
000200 dc fe 82 3d 32 46 b2 3d bb fe d2 bd 08 95 6b bd
       0.06396267 0.08704795 -0.10302492 -0.057515174
000210 fa e2 10 3c 39 86 a8 bd e1 4f 36 bd dd be 94 3c
       0.008843178 -0.08228726 -0.044509772 0.018157417
000220 89 da 90 3d b6 43 a2 bc 29 f0 bc bc 93 9f cb 3d
       0.07072932 -0.019807678 -0.023063736 0.09942546
000230 2b 7f b6 bd a9 da 82 bd 19 7a a8 bd ee 18 66 bc
       -0.08910974 -0.06389362 -0.08226413 -0.01404403
000240 d9 3d 2c bd f2 66 5b bb d8 2d 06 ba 83 0e f2 bc
       -0.04205117 -0.0033478108 -0.00051185256 -0.029547935
000250 74 87 50 bd 6a f3 e0 bd dd b5 5d bd 8d a5 02 bc
       -0.05091043 -0.109839275 -0.054128516 -0.007974041
000260 64 47 4f bd 46 55 b1 3d 97 90 67 bd 6a 32 99 bc
       -0.050605193 0.08658843 -0.056534376 -0.018700797
000270 8d f8 88 bb f0 a0 ea bc c3 42 72 bd 48 b2 be 3b
       -0.00418002 -0.028641194 -0.0591457 0.0058195926
000280 8e d3 9f 3d 1f 5c 94 3d 6b 0f 24 bd e8 e0 80 ba
       0.07804023 0.07244133 -0.040053766 -0.0009832652
000290 81 84 48 3d 73 76 48 bd 6a 4d 99 3c 31 87 7d 3d
       0.04895449 -0.048941087 0.018713672 0.061896507
0002a0 dd 88 ed bd 47 db 93 bd 25 4d 4c 3d 19 d2 94 bd
       -0.1159837 -0.07219558 0.04987826 -0.072666354
0002b0 3a ba 0a 3d 5e e7 db bc d6 24 76 3c 45 3a 04 3b
       0.033869006 -0.026843723 0.015023431 0.0020176333
0002c0 1b 45 d6 bd 2d ee 94 3d bc 17 87 3d b2 fa eb bd
       -0.104623996 0.07271991 0.06596324 -0.11522426
0002d0 5c b9 e9 3c 48 d3 4f bd db ca 95 bd 4f e3 b1 3d
       0.028530769 -0.050738603 -0.07314082 0.08685934
0002e0 7f 31 68 bd c8 5f 9d bd 1d 1c bb bd 12 70 4a bb
       -0.05668783 -0.076842844 -0.091362216 -0.0030889553
0002f0 c4 0f e9 bd 49 a4 e6 bc 41 53 31 3d 10 c1 eb bd
       -0.1137996 -0.02815451 0.043292288 -0.11511433
000300 b9 62 4d 3c d2 95 a4 3c 17 c0 03 3d f8 07 a2 3d
       0.012535744 0.020090971 0.032165613 0.07911676
000310 e6 02 cf bd ab 9b a9 bd f6 6b 94 bd 42 7c 97 bd
       -0.10107975 -0.082816444 -0.072471544 -0.07396747
000320 ef d4 88 bd 7b d1 b7 bd 57 03 9c 3b c8 33 b1 3c
       -0.06681239 -0.08975502 0.0047611403 0.021631137
000330 86 c9 64 bd fb 9a c4 bd 19 df db 3c c8 92 c1 ba
       -0.05585625 -0.09599873 0.02683978 -0.0014768476
000340 90 0b fa bd 4d 00 c2 3d 0f 34 98 3c b7 85 0b 3d
       -0.122092366 0.094727136 0.018579511 0.034063067
000350 82 8e e8 bd 79 67 b0 3d 39 d7 90 3c c1 e2 d7 bd
       -0.11355306 0.08613486 0.017680751 -0.10541297
000360 17 c0 5d bc 2c ad 4d bd 7f ed dc bc e6 42 c0 bd
       -0.013534567 -0.050213978 -0.026968716 -0.0938776
000370 dd 9b 87 bc 2b 91 b9 3d f2 fa d0 3d 2b 29 21 3d
       -0.016553814 0.09060892 0.10204114 0.0393459
000380 3f 65 6f bd 03 56 50 bd 72 56 1d bd 56 71 eb bd
       -0.058446165 -0.050863277 -0.03841252 -0.114962265
000390 0d c0 48 bd 73 69 2b 3d b3 9d c9 3c 80 e9 ab 3d
       -0.04901128 0.04184861 0.02461133 0.08394146
0003a0 82 92 7d 3b e8 7d a2 bd 5b f8 80 bc 1f f4 82 3c
       0.0038692062 -0.07934171 -0.015743425 0.015985547
0003b0 b9 c2 44 3d ed 2e 23 3c 43 74 14 bb fa 76 a5 3d
       0.048037264 0.009959918 -0.0022652305 0.080793336
0003c0 b2 d8 80 3d c5 92 ee bd be 9c d9 bd 86 9d ae 3d
       0.06291331 -0.11649088 -0.10625599 0.08526139
0003d0 2b c1 55 3c 14 2f 0a bd b8 89 f1 bc ae ff 00 bd
       0.013046543 -0.033736303 -0.029484615 -0.031493835
0003e0 40 bb 5d 3d 40 9c d5 bc 53 ec b4 3d 3e 3b 60 bc
       0.054133654 -0.026075482 0.08834138 -0.013685999
0003f0 6c 84 04 be c3 51 83 bd 98 00 6d 3d b1 aa 7a bd
       -0.1294114 -0.06412079 0.057861894 -0.06119794

layers.1.bias f4 [128]
000000 55 c3 17 bd ce f6 d8 3b a6 2a a2 3c 11 5f c6 bc
       -0.037051518 0.0066212183 0.019795727 -0.024215253
000010 15 62 20 bb cb 93 2c 3c d0 8e 8b bc b6 53 e2 3c
       -0.0024472524 0.010533283 -0.017035872 0.027627807
000020 ed d9 0d 3c cb 3d 97 bc 84 00 9d bb 86 0a 9d 3c
       0.008657915 -0.018462082 -0.0047913212 0.019170057
000030 83 14 af 38 26 2b b7 bc df 1a 26 3c a3 8f 97 bc
       8.348471e-05 -0.022359442 0.0101382425 -0.018501109
000040 cc 48 15 3c 18 a6 59 3b 8e 05 63 3b 7d 40 ae 3c
       0.009111594 0.0033210572 0.0034640762 0.021270985
000050 c5 d2 5f bc 83 5a 5a 3b 22 bf 8b 3c 7f de fa 3c
       -0.013661091 0.003331811 0.017058913 0.030623673
000060 a9 c2 16 3c 43 f2 55 bc 07 d4 52 39 7c 4e 31 3b
       0.009201684 -0.013058248 0.00020106147 0.0027054837
000070 ff 39 40 3c 47 20 ab 3b 42 12 1a 3c 08 d8 d3 bb
       0.011732577 0.0052223536 0.009403767 -0.006464962
000080 4e 9e 9b bc d3 ae 81 3c e6 05 b4 3b b9 3e c4 3a
       -0.018996384 0.015830433 0.005493867 0.0014972306
000090 08 b5 01 3d 00 ca ce bb f9 75 06 bc 20 f5 46 bc
       0.031666785 -0.0063107014 -0.008206838 -0.012143403
0000a0 e8 91 b4 bc 49 85 0b bc 84 69 45 3b 67 53 92 bc
       -0.02204223 -0.008515664 0.0030122707 -0.017862035
0000b0 c6 59 e5 ba 64 ac bf 3a 0c 63 8d bc 60 14 95 bb
       -0.0017498068 0.001462352 -0.017259143 -0.004549548
0000c0 19 32 94 bc 04 be e0 bb 04 e3 56 bc 9d 00 c0 3b
       -0.018090295 -0.006858589 -0.013115648 0.005859448
0000d0 f4 9c 05 3c 5e 13 78 3c c0 39 44 bc b5 81 e4 3b
       0.008155096 0.015141336 -0.011976659 0.00697347
0000e0 8c 5d f8 bc db 12 fa 3c 9d 7f 08 bc de a3 24 bc
       -0.030318044 0.03052657 -0.008331207 -0.010048835
0000f0 88 3c 30 39 ae 35 b9 3b 36 a1 71 3c 00 00 74 3c
       0.00016807218 0.005652151 0.014747908 0.014892578
000100 0f b6 64 3b d1 55 d4 3c 84 0f 10 3d a3 0c fc 3c
       0.0034898554 0.025919827 0.035171047 0.030767744
000110 fb c0 80 bc b5 6f da 3c d2 e7 6b 3b 14 9a 5f bc
       -0.01571702 0.026664594 0.003599633 -0.013647575
000120 28 4f 3b bc af 55 86 3a 3a 5e b6 3b 70 00 59 3a
       -0.011432447 0.0010248924 0.005565432 0.0008277958
000130 39 7d 8d 3a 03 fb 00 3c 49 5a 60 bc bf b7 ce 3c
       0.0010794766 0.007872346 -0.013693401 0.025234101
000140 fa ea cb bb 0e 9b 4d 3a 80 10 20 bd a5 61 63 bc
       -0.0062230797 0.00078432343 -0.039078236 -0.013878261
000150 db 43 e8 bc c2 82 cf 3c e3 dc 09 bc 6d 05 94 3b
       -0.028352669 0.025330905 -0.00841448 0.0045172484
000160 11 f5 80 3c 28 4c fa bb e5 ef 48 bc 07 54 ba bb
       0.015741857 -0.007638473 -0.012264227 -0.0056862864
000170 fa 75 13 bd 45 4a e1 3c 83 5e 80 bc be 2a 5a bc
       -0.036001183 0.027501235 -0.015670067 -0.013315855
000180 4d 70 28 bc c3 af ac 3c a6 9e e7 bc be 76 c0 3c
       -0.010280681 0.021079903 -0.028273892 0.02349412
000190 d4 53 67 3b 24 91 55 bc e3 a5 99 3a 64 07 15 3c
       0.0035297768 -0.0130350925 0.0011722412 0.009096
0001a0 0a 9f 4b 3d 82 6d c4 bc b7 19 3e bc 50 0a cc 3c
       0.04971222 -0.023977999 -0.011602811 0.024907261
0001b0 bb c4 3f 3c bc 57 f7 3a 45 55 10 3c 3a 58 9c 3c
       0.011704619 0.0018870751 0.008809392 0.019085038
0001c0 3b 92 6f 3c 10 53 ac 3b 48 39 cb bc 76 46 34 bb
       0.014622266 0.0052589253 -0.024807587 -0.0027507818
0001d0 42 f4 2e 3c e8 23 c1 3c 5a 87 c6 bc 1b f7 d8 3c
       0.010678353 0.023576692 -0.024234463 0.026485017
0001e0 21 74 65 bc cc 1a 9b bc de 4f f3 3c 3d 04 90 b8
       -0.014004738 -0.018933676 0.02970117 -6.8672445e-05
0001f0 59 a0 f6 3b 2c 80 e6 bc d3 71 97 3a c7 db 97 bc
       0.007526439 -0.028137289 0.0011554308 -0.018537415

layers.1.fc_neigh.weight f4 [128, 128]
000000 f9 44 14 3e b2 e0 83 3d ba 21 f1 bd 0b b4 08 3d
       0.14479436 0.064393416 -0.11774011 0.033374827
000010 82 d8 dc bd ba 11 f3 3d b3 a3 9e 3c b2 92 dc bd
       -0.10783483 0.118686154 0.019365167 -0.107701674
000020 49 d4 64 3d e9 18 ea bd 44 31 be 3b 33 cb 19 be
       0.055866513 -0.114305325 0.0058042128 -0.1501892
000030 13 e6 55 bd dd f0 e1 3d d4 d8 d3 3d fd d0 4b 3e
       -0.05222137 0.11032269 0.10344091 0.19903941
000040 d2 57 50 3d f8 b4 5b bb fe 24 28 be 6e 61 cf bc
       0.050865002 -0.0033524614 -0.16420361 -0.025315013
000050 0b 16 3d 3e 4e fa 83 bc b7 5a 23 be 4e 78 43 3e
       0.1846544 -0.016110566 -0.15952574 0.19088861
000060 5a c3 d3 bb 17 d4 31 bd e0 c8 00 3e b8 f0 5e 3d
       -0.0064624967 -0.043415155 0.12576628 0.054428786
000070 9c 5b cc bc 17 56 47 3e fa bc 4d 3d ae 41 68 bd
       -0.024946027 0.19466434 0.05022905 -0.056703262
000080 5d a5 e1 3d 1c c8 0c 3e 96 94 0f 39 cb 97 d7 bd
       0.11017869 0.1374821 0.00013692895 -0.10526999
000090 4d a2 7b 3c 79 4e 80 bd 5b 21 32 3d c3 98 56 bd
       0.01535852 -0.062649675 0.04348884 -0.05239178
0000a0 35 38 38 be ec f4 62 3e 6b b0 6c 3d 78 42 63 bd
       -0.17990191 0.22163743 0.057785433 -0.05548331
0000b0 08 d1 14 3e 83 22 00 be 89 82 9d bb fe 5d 37 3c
       0.14532864 -0.12513165 -0.004806821 0.011191843
0000c0 c3 d7 8a bd 3a 0c df 3c 29 c4 83 ba e9 d0 9b 3d
       -0.067794345 0.02722751 -0.0010052967 0.07608206
0000d0 17 67 4c 3e 66 09 56 be 48 b3 33 3e 8b c9 fc 3d
       0.199612 -0.20902023 0.17548859 0.12343129
0000e0 5b 52 07 be 1c c8 2b 3e 70 ca 3b 3e e4 03 8e bd
       -0.1321501 0.16775554 0.18338943 -0.06934336
0000f0 2e 7d 16 be db 2b 48 3e 0d f3 2d 3e 22 85 55 be
       -0.1469619 0.1954798 0.16987248 -0.20851567
000100 a6 fa 1f 3e 1d 84 08 3e 62 cb 0c 3e 9e c8 0d bb
       0.15622959 0.13331647 0.1374946 -0.002163447
000110 b9 a7 cc 3d ef 7f 12 3e 1c 7a a9 bd 34 f4 03 be
       0.09992928 0.14306615 -0.08275244 -0.12886125
000120 8f 15 09 3e ba 4b 88 3d 88 b1 42 bd 89 4f 0f be
       0.1338713 0.06655069 -0.04753259 -0.13995184
000130 8b b8 6e 3d e4 6f e1 bd 41 72 ec bd a7 79 a1 bd
       0.058281463 -0.110076696 -0.1154523 -0.078845315
000140 5c 87 56 3c 7a 27 18 3e 99 98 c3 3d ed 9b 1b 3d
       0.013093796 0.14858809 0.0955059 0.0379905
000150 c1 d4 16 3d f6 ad ef 3d c4 f1 c4 3c a5 24 d6 bd
       0.03682399 0.11703102 0.024041064 -0.10456208
000160 8f 3c 89 be b9 63 09 be 4f 0d 18 be 37 22 40 bd
       -0.26804015 -0.13416947 -0.14848827 -0.04690763
000170 92 45 ce bd 65 35 8f bc 90 2b 8f 3d b8 ab ac bd
       -0.10071863 -0.017481515 0.06990731 -0.0843119
000180 57 fb 44 3e 63 5b 3d bd dd e2 62 bd ba 24 0a 3e
       0.19236504 -0.04622973 -0.055392135 0.13490573
000190 2c ee cf 3d c4 19 0a 3e ac 61 05 3e e1 77 0a 3e
       0.101528496 0.13486391 0.1302554 0.13522293
0001a0 39 31 0e 3e b9 d9 cf 3b cd 62 3d 3e a1 10 4c 3d
       0.13885964 0.0063430932 0.18494721 0.049820546
0001b0 d3 c9 92 bd b0 54 8d bd f6 56 46 be 22 68 6d 3e
       -0.07167401 -0.069009185 -0.1936911 0.23184255
0001c0 a3 fb 19 be 3f 09 01 be 56 ae cd bd 51 8a c0 3d
       -0.15037398 -0.12601183 -0.100430176 0.09401382
0001d0 3e 44 2a 3d be 71 12 3e 0b 1a 02 be 6d 98 84 3d
       0.041568987 0.14301202 -0.12705247 0.064743854
0001e0 dd b3 ab 3d f5 70 3c be f7 7c db bd b2 e6 85 3d
       0.083839156 -0.18402465 -0.107171945 0.06538142
0001f0 3a f1 75 bd 0d f4 21 be 4a 7c d0 bd fb 8e 3e be
       -0.060044505 -0.15815754 -0.10179956 -0.1860923
000200 a5 29 ed bd 99 d4 4b 3e 2c f8 c1 bd 8d 5b 9a bd
       -0.11580209 0.19905318 -0.09471163 -0.07536993
000210 a6 b9 41 3e 54 b2 3c be 40 a1 45 3e 63 8b 00 be
       0.18918476 -0.18427402 0.19299793 -0.12553172
000220 38 65 05 3e 25 af b4 bd ab f3 56 bd 2f c2 7c 3e
       0.13026893 -0.08822469 -0.052478474 0.2468345
000230 49 30 ca 3d 06 05 07 be e6 3d a3 bd 09 da f9 bd
       0.09872491 -0.1318551 -0.079707906 -0.1219979
000240 76 23 e7 bc 58 f7 d7 bd c6 e0 b4 3d 71 f2 cc bd
       -0.028215151 -0.10545224 0.08831935 -0.100071795
000250 c7 94 11 bc 7e 00 f5 3d 56 3d bc 3c 74 67 0e bd
       -0.008885569 0.119629845 0.022978466 -0.03476663
000260 74 0f 0a 3e ef 2d 6c 3d 52 f9 8a bd 96 d7 63 bc
       0.13482457 0.057660993 -0.06785835 -0.01390638
000270 68 ee 02 be fb 36 ef 3d 57 26 1f 3d a9 80 09 3d
       -0.12786257 0.116804086 0.038854923 0.033569966
000280 95 61 ef bd 5c ea 98 3d a4 1c 63 bd 50 14 c6 bd
       -0.11688534 0.074665755 -0.055447236 -0.09671843
000290 dd ad 52 bd ec e1 b3 bc 01 57 44 3d 89 62 4b bb
       -0.05143534 -0.021958314 0.047934536 -0.0031034073
0002a0 4c 85 ac bd 24 8c 09 3e d6 7e f7 bc 3d 7d 01 be
       -0.08423862 0.13432366 -0.030211847 -0.12645431
0002b0 53 9a 30 3e 43 36 d9 bd 12 d3 a1 3d 41 0c db bd
       0.1724637 -0.10606053 0.079015866 -0.106956966
0002c0 28 ba 42 be f9 b8 e7 3b 25 e4 d5 3d 47 a4 3e bd
       -0.19016325 0.007071611 0.10443906 -0.046543386
0002d0 d8 e2 bb bd 5e eb 07 3e 6b 54 a9 3d fa ea e5 bd
       -0.091741264 0.13273379 0.082680546 -0.11226459
0002e0 aa eb 70 3e 6d 57 03 3e c7 8d b0 3d ad e0 10 be
       0.23527399 0.12826319 0.08620792 -0.14148207
0002f0 2f 36 83 bb aa a3 fb bd 69 71 d1 3d d4 ff 0c 3e
       -0.004004262 -0.12287076 0.102267094 0.13769466
000300 ab 33 3f be 1d e0 b5 3c a4 84 71 3e 01 ee 20 be
       -0.18672054 0.022201592 0.23585755 -0.15715791
000310 4f 1b 34 bd 29 a5 25 be 35 1d 9b 3d bc 14 32 be
       -0.043971356 -0.16176285 0.0757393 -0.17390722
000320 9d fa 17 bd f2 0c 50 bd 4c 1f ff bd 2c b9 2d be
       -0.037104238 -0.050793596 -0.12457141 -0.16965169
000330 54 fd df 3d 16 e5 c7 3d 9f 05 0c 3e 6f 46 56 be
       0.109369904 0.097604915 0.1367402 -0.20925306
000340 2c 4f 5f 3e 4f bd 89 3d 9d b6 03 3e b2 db 6e bd
       0.21807545 0.06725561 0.1286263 -0.058314987
000350 4d 47 f3 bd 5e 10 10 be a0 06 97 3d c5 ce 4c 3d
       -0.11878834 -0.14068744 0.073743105 0.05000188
000360 cd 82 30 be c4 0d f0 bd 03 54 22 be 8f f6 5d 3e
       -0.17237397 -0.117213756 -0.1585236 0.21676086
000370 19 12 3c be e2 e1 3c 3e 02 d7 eb bd f5 e4 85 bd
       -0.18366279 0.18445542 -0.11515619 -0.06537811
000380 55 b8 ed bd 76 00 d9 bc 0c cc 36 3e 55 a3 25 3e
       -0.11607424 -0.026489478 0.17851275 0.16175587
000390 4f ed ce bd 76 5b be 3c 00 8a 28 be 0e 10 1a 3e
       -0.10103857 0.023236971 -0.16458893 0.15045187
0003a0 6f 43 11 3e 75 1a 0e be 26 29 b0 bd 44 15 9e bd
       0.1418588 -0.1387728 -0.086015984 -0.077189
0003b0 19 8b 48 3c e5 fc f3 3b 00 db 68 3d d7 4c 1d be
       0.012240195 0.007445919 0.05684948 -0.15361343
0003c0 27 30 1e 3e ac f0 11 be 59 4f 00 be 0d 8c 59 3c
       0.15448056 -0.14251965 -0.12530269 0.01327802
0003d0 48 8c de 3d 64 86 d0 3a 7a ef 13 3d d2 4a 52 bd
       0.108666 0.0015909192 0.036117055 -0.051340885
0003e0 7a e6 03 3e 0c 8b 93 bd bc b3 06 be 1f 5e 6b 3d
       0.12880889 -0.072042555 -0.131545 0.057462808
0003f0 67 81 27 be 5d f7 14 3e fb a6 1a 3d 01 c5 61 3e
       -0.16357957 0.14547487 0.0377569 0.22047807
