pre_data/AmazonCoBuyComputer_model_128GCN.pt (torch, 461139 bytes, 4 tensors)

layers.0.weight f4 [767, 128]
000000 2d 68 c9 ba 47 47 ad bd 5e 6d 8b 3d db ab b2 bd
       -0.001536613 -0.08460861 0.068079695 -0.08724185
000010 f2 03 44 bc df b4 75 3d 9d 56 44 3c 8c 2c 86 3d
       -0.011963831 0.059986945 0.011983541 0.065514654
000020 57 9f d9 bb d3 98 22 bd 5d a5 d9 3c 46 63 06 3d
       -0.0066413092 -0.039696526 0.02656811 0.03280952
000030 9a 7d 3c bc d8 f5 91 b9 7c a3 4d 3d 24 36 96 bd
       -0.011504555 -0.00027839723 0.05020474 -0.07334545
000040 f4 bf fa ba 76 1a 2f 3d 36 df 15 bd b4 ef a1 3c
       -0.0019130693 0.042749844 -0.036589824 0.01976762
000050 c4 24 66 bd 23 32 f0 3d 63 5d dc bc 41 b5 2d bc
       -0.056187406 0.11728313 -0.026899999 -0.010602296
000060 e5 e9 0e bd ce a8 76 3d 49 f8 36 3c ac f1 38 3d
       -0.034891028 0.06021958 0.011167594 0.04515235
000070 fb fe 81 bd 70 05 eb 3a 6d 27 0d be 09 2c 73 3d
       -0.06347462 0.0017930698 -0.13784571 0.059368167
000080 41 95 9b bd e1 32 b5 3c e3 de 97 bd 55 16 1d 3d
       -0.07596827 0.022118988 -0.07415559 0.038351376
000090 cf 21 80 bd 2e 50 a1 bc 86 2a 68 ba ec 5c 1a bc
       -0.062564485 -0.019691553 -0.0008856434 -0.009421568
0000a0 2f 43 8c bc e1 2a 53 3a a1 7e 9d 3c f2 0e a8 bd
       -0.01712188 0.00080554007 0.01922542 -0.082059756
0000b0 e1 fb 14 3c 0a ea 94 3c f2 15 a4 bd a3 99 bb bc
       0.009093256 0.018178005 -0.08011998 -0.022900408
0000c0 82 d1 6f bd a0 1b 4e bd c5 b9 95 bd 73 ff 4f 3d
       -0.05854941 -0.050319314 -0.07310823 0.050780725
0000d0 79 74 07 bd cc b0 3d bd de b3 74 3d d8 23 e5 3c
       -0.03307006 -0.046311185 0.059741847 0.027971193
0000e0 98 87 e3 bc c6 c1 46 3c 58 fc 9b 3d 50 8c 48 bd
       -0.027774617 0.01213116 0.0761649 -0.048961937
0000f0 d0 16 d4 bc 75 76 a0 bd 64 b2 78 bd 2c c2 72 3d
       -0.025889784 -0.07835094 -0.060717 0.059267208
000100 d2 56 8f 3d 54 52 8e 3d 0a 51 0f bd 21 5d 94 3d
       0.069989815 0.069492966 -0.034989394 0.072443254
000110 b5 65 05 3d 3f 58 78 3b e4 11 ed 3c 08 20 4b bd
       0.0325677 0.0037894396 0.028939195 -0.049591094
000120 ab f6 bc bd c3 c1 28 3d 2a d8 95 bc 7e 45 4b bb
       -0.09226736 0.04120041 -0.018291552 -0.0031016762
000130 43 45 52 bd 2f 5b 79 3d 5a 44 92 3d cb 75 5f bd
       -0.051335584 0.060877975 0.07141943 -0.054555696
000140 a4 bd a5 bd 55 55 05 bd d9 33 ef bc 8e c0 05 bc
       -0.08092812 -0.032552082 -0.029199528 -0.008163584
000150 d0 fe 64 bc 16 8d 38 bd 57 85 ad bc 8f e2 5d bd
       -0.013976768 -0.045056425 -0.021181745 -0.05417114
000160 e8 41 f5 3c 9b f8 ae 3c 25 bf f5 3c ea e1 95 bc
       0.029938653 0.021358779 0.029998371 -0.0182962
000170 0d c7 c9 bc 66 f8 56 bc 45 be ce bc a5 50 99 bc
       -0.024631048 -0.013120746 -0.025237212 -0.018715212
000180 2b df 2c bc 00 e0 96 bd 6c 29 36 3d e4 88 41 bd
       -0.010551254 -0.07366943 0.044473097 -0.04724969
000190 99 fb 38 bd a4 79 5d 3d 77 58 f5 3c cb 84 76 bc
       -0.045161817 0.054071084 0.02994941 -0.015046309
0001a0 63 a9 99 bd e7 d9 33 bd af 90 0e bd 11 fe ee 3c
       -0.07503011 -0.04390898 -0.03480595 0.029173883
0001b0 3b f5 47 bd 36 e8 a5 3c 6f 83 f7 3c c7 64 c8 3b
       -0.048817854 0.020252328 0.03021404 0.006115529
0001c0 5d 2a 1b 3d e7 64 47 bb c9 6c a1 bd af 83 aa 3c
       0.037882198 -0.0030425133 -0.07882077 0.020814745
0001d0 52 cd 87 3a 8b 86 4c 3d 1f 0f 9f bd 07 06 bd 3d
       0.0010360873 0.049932998 -0.07766556 0.09229665
0001e0 c7 0f 1d bd 73 45 ad bd cd 81 53 bc ef 6f 25 3d
       -0.038345125 -0.08460512 -0.012909365 0.04038995
0001f0 01 dc 58 bc 33 b9 77 bd 4c f9 fd 3c ee 07 45 bd
       -0.013236047 -0.060479354 0.031002663 -0.048103265
000200 fb 40 76 bd da 66 22 bd 22 36 86 3d 98 a7 bc bd
       -0.060120564 -0.03964887 0.06553294 -0.092116535
000210 64 07 3d bd 89 14 4b bd 09 63 a1 bd 92 c8 f8 3c
       -0.046149626 -0.04958013 -0.078802176 0.030369077
000220 02 f1 b0 3b 10 40 39 3d bf 0e f4 bc aa c6 45 bd
       0.005399824 0.04522711 -0.029792188 -0.048285164
000230 8e f8 9d bd a6 c7 2e bd 2b b0 07 bc 8b 38 ee bc
       -0.07713424 -0.04267087 -0.008281748 -0.029079696
000240 7d d8 96 bd de f8 aa bd cd 58 f5 bc ac 6c d4 3c
       -0.073655106 -0.08348249 -0.02994957 0.025930725
000250 91 7d a3 bd 4b 21 dd 3d e2 45 04 bd 27 72 d9 bc
       -0.07982934 0.10797366 -0.032293208 -0.02654369
000260 3d d5 9b bd 8c 54 59 3c 3f ed 01 3d f5 42 1e bd
       -0.07609031 0.013264786 0.031720396 -0.038638074
000270 75 07 d1 bd 50 d0 5d 3d 94 f7 e0 bb b7 ad 51 bd
       -0.102065004 0.05415374 -0.006865451 -0.051191058
000280 0b 36 a0 bd 7a 64 6f bd 55 b2 73 3c 75 3a 69 bd
       -0.07822808 -0.05844543 0.014874061 -0.056940515
000290 80 0d a0 bd e4 6e 9f bc 2b d8 1c 3d ac 46 15 be
       -0.07815075 -0.019462056 0.03829209 -0.1457774
0002a0 3d 05 46 3c 09 4a 8d bd d3 36 95 bd ee 08 9d bc
       0.01208621 -0.06898887 -0.072858475 -0.019169297
0002b0 d3 1a f5 bc ad a4 ac 3b c6 d3 9a bd 41 c5 df bc
       -0.029920017 0.0052686543 -0.07559924 -0.027315738
0002c0 00 c8 75 3d 09 9d a2 bd 07 0c 0b bd 09 90 7b bd
       0.060005188 -0.07940108 -0.033947017 -0.06141666
0002d0 d0 72 49 bd fc a6 28 bd c8 0b 0b bc 57 cc 8f bd
       -0.04918176 -0.041174874 -0.008486696 -0.070213966
0002e0 78 86 82 bc 44 d6 70 bd c3 c0 a7 3c 61 12 ef 3c
       -0.01593326 -0.05879809 0.020477658 0.029183568
0002f0 c7 9f 7f bd b6 6a 3b bd bd db 89 bd c0 34 d0 3d
       -0.062408235 -0.045756064 -0.06731365 0.10166311
000300 61 69 97 3c f7 e3 6b bd 57 ea 8d 3a d0 27 bd 3c
       0.018482866 -0.05759045 0.0010827285 0.023090273
000310 03 b0 d7 bc 8b 1a f5 bb 3e ba d1 39 f7 6c 03 bd
       -0.026329046 -0.007479971 0.00040002348 -0.03208634
000320 37 a9 27 3c d0 40 79 bc b7 79 af bd 55 fc 4f 3d
       0.010233215 -0.015213206 -0.08568137 0.050777752
000330 1c d7 d9 3c a5 bb 39 bd 37 a6 ac bd 84 71 d4 3c
       0.02659183 -0.045344967 -0.084301405 0.025933035
000340 e2 13 1e 3d 9c e9 7b 3d 14 b6 a4 3d b5 5c 68 bd
       0.03859318 0.061502084 0.08042541 -0.056729037
000350 e6 e3 3d 3d 72 90 a6 bd ae 3e a9 bd da 51 29 bd
       0.04635992 -0.081330195 -0.08263908 -0.041337825
000360 6b 0f c8 bc fc 5c ce bc 38 f1 b0 bd 95 f9 4e 3c
       -0.024421414 -0.025190823 -0.08639759 0.012632747
000370 2c d7 29 3d fd 69 a9 bd e0 37 9d bd d5 3e 8b bd
       0.04146497 -0.08272169 -0.07676673 -0.06799094
000380 64 2a fb 3c 88 84 83 3d 56 09 b7 3c ee d2 42 be
       0.030659862 0.06421763 0.022343319 -0.19025776
000390 05 41 a5 bd d1 f9 7b 3d ba 67 00 bd 62 47 8a 3b
       -0.08069042 0.06151754 -0.03134892 0.0042199353
0003a0 7a 25 ab bd 82 da 15 3d 86 78 8c 3d 6a 16 25 3d
       -0.083567575 0.03658534 0.068589255 0.04030458
0003b0 44 0f 93 bd f8 5e 65 ba 89 70 97 3c 18 fe 9c bd
       -0.07180646 -0.0008749808 0.018486278 -0.07665652
0003c0 a2 ee 20 3c fd 9c 83 bd 0b 9b 83 bd 69 ab 77 bd
       0.0098225195 -0.064264275 -0.064260565 -0.060466204
0003d0 45 cd 17 3d 18 7c 93 bd 8f 83 95 3d 2a 54 1c 3d
       0.037060995 -0.072014034 0.073004834 0.038166203
0003e0 23 05 c2 bc 0a e5 49 3c aa 4c 0f 3a 6d 7a 7d bd
       -0.02368409 0.012322674 0.0005466441 -0.061884332
0003f0 e6 1e 9b bd ab 00 1d 3c 92 8b 21 bd ca a5 fa bc
       -0.07574253 0.009582679 -0.039439745 -0.030596633

layers.0.bias f4 [128]
000000 6a 89 13 bc df af 5f bb fa df 32 bc 68 88 34 bc
       -0.00900493 -0.0034131927 -0.010917658 -0.01101885
000010 83 e7 05 3c 95 f5 60 bc 33 f3 56 bc a7 24 2f 3b
       0.0081728725 -0.013730426 -0.013119507 0.0026724727
000020 3d ca 0d 3d 84 98 53 bc 1b b9 07 bc c3 e4 be bc
       0.034616698 -0.0129147805 -0.008283879 -0.023302441
000030 77 fc 2f bc 9f 32 bb bb 14 86 48 bc 72 9d 49 bc
       -0.010741345 -0.0057128216 -0.012238998 -0.012305604
000040 5b 56 a0 bc f3 5d 31 3d d6 74 3c bc dc a6 8e 3b
       -0.019572427 0.043302488 -0.011502465 0.0043533873
000050 89 25 c9 3c 43 4d e8 3d ee 66 55 bc e4 5c c2 3c
       0.024554031 0.113428615 -0.013025029 0.023725934
000060 af b2 2e bc 8e b1 58 bc 37 24 04 bd ea 89 82 bb
       -0.010662719 -0.013225926 -0.0322611 -0.003983726
000070 8a 71 00 3e 81 85 02 bc 65 97 0a bd e4 5e a8 bb
       0.12543312 -0.0079664 -0.033835787 -0.005138265
000080 b0 bf 38 bc 46 70 ba 3a 18 3b 2f bc ad e5 37 bc
       -0.011276171 0.0014224134 -0.010695241 -0.011224193
000090 d3 6c 05 bd 6b 20 19 bc ba 1b ea bc 4e ad f3 3d
       -0.032574486 -0.009346108 -0.028577674 0.118982896
0000a0 6b 5a 37 bc 19 82 5e 3b cf 02 36 bc d0 82 06 bc
       -0.011190991 0.0033952056 -0.011109068 -0.008209899
0000b0 f8 06 f3 bb ba 3f 89 bc eb 1b 1e bc 4d 57 2c bc
       -0.007416602 -0.01675402 -0.009650211 -0.010518861
0000c0 ab 81 5c bc 83 47 8d bc 19 ee 09 bc 5b a6 66 3d
       -0.01345865 -0.017246014 -0.008418583 0.056310993
0000d0 d1 cb 23 bc e9 7b 80 bb eb f4 41 bc 73 05 45 bc
       -0.009997324 -0.0039210212 -0.011838178 -0.012025225
0000e0 40 fa 0a 3e d0 2d 9e 3c d8 e7 29 bb db db 85 bc
       0.13572025 0.019308954 -0.0025925543 -0.016340187
0000f0 9e f6 ab bb 22 f8 5a bc 45 52 5d bc 4b a1 0b be
       -0.005247905 -0.013364824 -0.013508384 -0.13635747
000100 55 ae 78 bc 31 66 b0 37 8e 08 0a bb 97 16 10 bb
       -0.015178283 2.1028422e-05 -0.0021062228 -0.002198612
000110 c4 0f 41 bc 9e f2 99 3c fd b4 0a bc b5 6e 15 bc
       -0.011783544 0.018792447 -0.0084660025 -0.009120633
000120 7a 6c cf 3c 58 90 75 bc 35 7a 8c bb 07 b1 90 ba
       0.02532028 -0.0149880275 -0.004287029 -0.0011039086
000130 09 42 53 3c 96 8f 02 bc 61 c4 12 bc f5 83 5c bd
       0.012894162 -0.007968804 -0.008957953 -0.05383678
000140 ce 02 bb bb c5 54 20 bc c2 2e 30 3d fe 50 0f bc
       -0.0057071215 -0.009785836 0.04301334 -0.008747337
000150 0a 00 31 bb 45 52 07 bc 57 07 65 bc fd 4d 3d bb
       -0.002700808 -0.008259361 -0.013978801 -0.0028885596
000160 1b da 39 bc c1 8a 8a bc dd d9 38 bc 69 4b 04 bb
       -0.011343504 -0.016911866 -0.011282411 -0.002018655
000170 4d 8a 13 bc 50 11 82 3b 8a f6 29 bd 61 1c 27 bc
       -0.009005141 0.003969349 -0.041494884 -0.010199637
000180 61 62 33 bc be f7 3b 3c 6c 61 80 3b 22 3a 58 3d
       -0.010948748 0.011472641 0.0039178636 0.052789815
000190 f7 b4 18 bc 8c ff 6d ba 21 18 88 bc ae 4f 10 3d
       -0.009320489 -0.0009078912 -0.016613068 0.03523224
0001a0 93 67 1c bc 30 56 19 bc d3 6d 2b bc 81 d4 0c bc
       -0.009546178 -0.009358928 -0.010463196 -0.008595587
0001b0 4e 1b 18 bc d8 ca 17 bc df 27 d4 bb b7 6b 87 3b
       -0.009283854 -0.00926467 -0.0064744796 0.0041327137
0001c0 52 a1 54 bb f2 9f 2c 3b 61 cc 5e bc eb d6 70 bc
       -0.0032444787 0.0026340452 -0.013598532 -0.014699678
0001d0 1b e7 75 3c ea da 6f 3b 4d 16 38 bc 49 96 4d bd
       0.015008713 0.0036598989 -0.011235786 -0.05019215
0001e0 9a e9 69 bc d4 ad 6f bb bf 81 7a bc 96 b6 3d bc
       -0.014276886 -0.0036572115 -0.015289723 -0.011579176
0001f0 8b e3 bc 39 0d 1a 8e 3c 19 74 9a bc 85 5f 05 bc
       0.00036027687 0.017346406 -0.018854188 -0.008140449

layers.1.weight f4 [128, 128]
000000 1e 35 d6 3d 65 c5 23 3b 4b 24 b7 ba 9d 9b 2c be
       0.1045935 0.0024989482 -0.0013972608 -0.16856237
000010 9f 35 e9 bd 96 25 d7 3c b2 1e 9f bd b1 a7 38 bc
       -0.113871805 0.02626304 -0.077695265 -0.0112704495
000020 fd df a4 3c 36 1f 5c 3d 69 d0 c5 3d 42 d3 6e 3d
       0.020126337 0.053740703 0.09658892 0.05830694
000030 dc c6 1f be 8a 81 9d bd 8a dd 88 bb 22 25 9c 3d
       -0.15603203 -0.07690723 -0.0041768 0.0762427
000040 fc bc 86 3a e9 39 35 3c 03 b5 22 bb 41 c6 0b be
       0.001027971 0.01106117 -0.002482713 -0.13649847
000050 b6 b1 aa 3d 75 c5 01 be 10 7d c1 3d f7 db 04 3e
       0.08334677 -0.1267298 0.09447682 0.12974535
000060 3e e4 a2 bd 42 aa 37 bd 1c 9d 1d be ab 6e 1c 3d
       -0.0795369 -0.044840105 -0.15391964 0.03819148
000070 8b 13 b4 bd a0 54 f5 bc e0 bf 31 bd 96 aa 54 bd
       -0.0879279 -0.029947579 -0.043395877 -0.051920496
000080 db 98 08 bd c8 38 e2 bd 4a ab 58 3d 28 16 b2 3d
       -0.0333489 -0.110459864 0.05289773 0.08695632
000090 1f 7f bd bd 0c 86 b9 3d ba 6b a9 bc 8f 5c ee bb
       -0.09252762 0.090587705 -0.02068125 -0.0072742174
0000a0 e7 9d 75 3d 70 f2 96 bc 95 f6 e1 bd 91 55 0e be
       0.05996504 -0.01842615 -0.1103336 -0.13899828
0000b0 98 7a a3 3d a8 c5 8f bd f5 85 cc bd ba c6 69 3c
       0.07982367 -0.07020122 -0.09986488 0.0142685715
0000c0 c2 26 c9 bd 60 37 69 bd f3 0a ff bd e0 58 c5 3d
       -0.098218456 -0.056937575 -0.1245326 0.09636092
0000d0 65 b2 fa bc 81 58 05 3e 95 fb 4a 3d 68 61 cf bd
       -0.030602643 0.13022043 0.049556334 -0.10126001
0000e0 47 ad 5e 3d 51 d0 5b 3d 7f 10 bb bb f4 d6 8c 3d
       0.05436447 0.053665463 -0.0057087536 0.068769366
0000f0 7f f3 b8 bd 4d 79 11 be 39 00 43 3d 75 c9 08 3e
       -0.09030818 -0.14206429 0.047607634 0.133581
000100 7a 81 8d bd dd 6c d2 bd a6 1a 7e bd 74 4e 7e bd
       -0.06909461 -0.1027467 -0.062037133 -0.062086537
000110 69 01 a1 3c 5e 4f e9 bd fb a1 36 3e 0b 81 ac bd
       0.019653993 -0.11392091 0.17835228 -0.084230505
000120 b4 26 ff bd 49 b9 2d bd 8f 0e fc 3d f2 95 ce 3d
       -0.12458554 -0.04241303 0.12307464 0.100871935
000130 97 db dc 3d 26 1f 88 3d 26 01 3d bd 3c b5 ca bd
       0.10784071 0.06646566 -0.046143673 -0.09897849
000140 26 53 ee 3d e5 fc 0f 3e 61 8b 84 3c a2 04 00 be
       0.11636953 0.14061315 0.016179742 -0.12501767
000150 69 bf 29 3d ce a1 e5 bd 1f 5b c6 bd 7d bb 97 bd
       0.04144231 -0.112125024 -0.09685349 -0.074088074
000160 0b e7 a6 bb 22 d1 4d bd 6d 5c db 3d 16 8a 1c 3e
       -0.0050934604 -0.050248273 0.10710988 0.1528705
000170 fe 61 14 bb 9c 91 00 be 77 ed 3d 3d 33 95 73 3c
       -0.0022641416 -0.12555546 0.046369042 0.014867115
000180 69 a0 5f bd bb 79 cc 3e be 90 87 3d b4 98 93 bd
       -0.05459634 0.39936623 0.06619404 -0.0720686
000190 5b 22 7d bd 3f 42 be bd da 11 9e 3d 8a 55 f8 3d
       -0.061800342 -0.09289979 0.07718249 0.1212569
0001a0 f2 d2 e5 3d 57 c6 eb 3d 52 ed 3e 3d bc f4 de 3d
       0.11221875 0.1151244 0.046613045 0.10886523
0001b0 cc 23 f7 3d da 70 ca 3d f3 9a 20 be c3 26 81 3d
       0.120673746 0.09884806 -0.15684108 0.06306221
0001c0 13 35 5d 3d a7 7e 61 bd b5 cf a9 bd f2 75 39 3e
       0.054005694 -0.055052426 -0.0829157 0.18111399
0001d0 33 da 2b bd 87 78 28 3e ad 60 1f be 89 e1 d7 bd
       -0.041956138 0.16452228 -0.15564223 -0.10541064
0001e0 22 7c bc 3b 95 e1 20 3d d1 a3 b7 3d c7 c4 f0 3d
       0.0057521025 0.03927763 0.089667924 0.11756282
0001f0 06 4b 42 3d 58 a8 6f 3c b4 ce 01 be 8d bd 33 3c
       0.04743483 0.014627539 -0.12676507 0.010970485
000200 44 e4 65 bd a6 17 cc 3d 65 b8 21 be af 04 ed 3c
       -0.056125894 0.09965448 -0.15792997 0.028932897
000210 d5 54 19 be b2 fa d2 bc 5f 81 7f 3d f4 40 10 be
       -0.14973767 -0.025754306 0.062379237 -0.14087278
000220 e6 20 b0 bd c8 dc 8b bc 80 b8 88 3e 91 fd ed 3c
       -0.08600025 -0.01707305 0.26703262 0.029051574
000230 67 44 88 3d 99 b9 9e 3d d2 13 16 3d 43 13 a6 bc
       0.06653672 0.07750244 0.036639996 -0.020272857
000240 22 fe dd bc 20 49 ba bd bd 4b c3 3d 67 e7 1a bb
       -0.027098719 -0.09095979 0.0953593 -0.0023636462
000250 c3 6e 4a be 3f f9 0c be 0d 6a 35 3d 88 54 0e 3e
       -0.19768815 -0.13766955 0.04429059 0.13899434
000260 2d ff aa 3c e8 46 ca bd c7 46 c6 3c 3c 25 b8 3d
       0.02087363 -0.098768055 0.024203671 0.08991477
000270 58 ed c3 3c b7 e5 ef bd 1e 23 1e 3e 79 21 fd 3c
       0.023916885 -0.117137365 0.15443084 0.03089975
000280 0c 32 83 bd d6 43 f2 bd 36 a9 0d 3d d4 2c 96 3d
       -0.0640603 -0.11829345 0.0345852 0.07332769
000290 cc 2b fc 3d 30 f5 1b 3e e6 63 5b bc 45 bb 82 bb
       0.12313041 0.1523025 -0.013390517 -0.0039896094
0002a0 22 50 c0 3d 3d c1 be 3d ec 18 10 bd 55 51 58 bd
       0.09390284 0.09314201 -0.035180017 -0.05281194
0002b0 84 a5 a1 3d 7a 24 29 bc 15 70 3d bc 79 74 81 3d
       0.07892898 -0.010323638 -0.011562367 0.063210435
0002c0 29 71 0b bc ee 0c 49 3e 76 11 fc bd f2 1a 87 bd
       -0.008510866 0.19633839 -0.12308018 -0.06596936
0002d0 83 9a 25 3d f0 07 ca 3d 54 b1 11 3e 22 79 3a bc
       0.040430557 0.09864795 0.14227802 -0.011381419
0002e0 66 2a b7 3d f5 11 53 bd db 1c 13 3e 6e 8b 0c 3e
       0.08943634 -0.051530797 0.14366476 0.13725063
0002f0 a2 7a 64 bc 6a f8 0a bb a6 23 38 bb 55 e2 ba bc
       -0.013945254 -0.0021205195 -0.002809742 -0.022813002
000300 a3 9e 58 bd 56 24 5a 3b 11 8d 13 be 40 31 27 bd
       -0.052885663 0.0033285818 -0.14409281 -0.040818453
000310 bd 87 31 3e 02 68 ff bd 1e 8c 1c 3c 14 f4 55 3c
       0.17336936 -0.1247101 0.009554891 0.013058681
000320 a1 f3 08 bd f5 1a 4e bd 32 b7 5e bd ce 70 a6 bb
       -0.033435468 -0.050318677 -0.054373927 -0.0050793653
000330 24 85 4b 3d 55 00 f8 3d 39 3c e7 3d 1c 1f ad 3d
       0.04968752 0.12109438 0.112907834 0.08453199
000340 f9 f7 ca ba 9d 88 e7 3d 5f ad 2b 3c 28 ec 96 bd
       -0.0015485279 0.11305354 0.010478347 -0.07369262
000350 33 de a1 3d e4 05 df 3d 3a 2b 53 3d ac 91 18 3d
       0.07903709 0.108897954 0.051554896 0.0372483
000360 e3 15 d6 bd d1 f9 76 bc f9 31 e1 3c 07 ea 75 bd
       -0.10453393 -0.015074209 0.02748965 -0.06003764
000370 c2 2f 84 bd 6f 98 15 3e 99 f1 e9 bd ef 18 9f 3d
       -0.064544216 0.1460893 -0.11423034 0.077684276
000380 26 61 cb 3c 5a 4d 28 3e 1d ac f3 bd 7a c4 9d 3c
       0.024826597 0.16435757 -0.118980624 0.019258726
000390 f1 e5 ef bd ef b3 ef 3d f3 c1 cf 3d 5e 67 b4 bd
       -0.1171378 0.117042415 0.10144415 -0.08808778
0003a0 32 d1 09 be c7 33 28 3e df 87 f4 bc 05 7b d9 bd
       -0.13458708 0.16426001 -0.029849945 -0.10619167
0003b0 81 fa de 3d c9 a9 7f bb d5 78 93 bd 2f c2 9c bd
       0.108876236 -0.0039011112 -0.07200781 -0.07654225
0003c0 2f bf a8 3d 41 df ed 3d d2 e0 81 3d 42 d3 51 3e
       0.082395904 0.11614848 0.06341709 0.20490745
0003d0 39 34 07 3e f2 d2 c0 3d f2 64 f3 3d 95 5e 28 3d
       0.13203515 0.094152346 0.11884488 0.041105825
0003e0 5e 15 0d 3d d4 4d 97 3d 43 d6 d3 3d 9b 19 a4 3c
       0.034444205 0.073878914 0.103436016 0.02003174
0003f0 67 55 49 be 67 1c de 3c 32 f7 ff bc f7 59 eb 3d
       -0.19661485 0.027113153 -0.031245802 0.11491769

layers.1.bias f4 [128]
000000 f9 f7 e4 3a 93 84 25 bd fa 93 70 3d 83 6d 06 3d
       0.0017468921 -0.040409636 0.05873487 0.032819282
000010 0f ee b8 3c 52 c0 43 3c fb 80 fc 3c 79 16 72 bc
       0.022574453 0.011947708 0.030823221 -0.014775866
000020 de 24 09 bd a1 3e 14 bc 70 17 e5 bc 28 f3 29 3c
       -0.033482425 -0.009048135 -0.027965277 0.010372914
000030 52 43 ad 3c 82 dc b1 3c 2c 29 e1 bc 7e c9 53 3c
       0.021150265 0.021711592 -0.027485453 0.012926457
000040 d7 39 07 3d 5e 68 32 3d db 74 dd bd 98 04 aa bc
       0.033014145 0.043556564 -0.10813304 -0.020754144
000050 f5 46 d6 3a e5 88 0b bc 3c 4d 09 bb 96 f5 3a bd
       0.0016348051 -0.008516525 -0.0020950576 -0.045644365
000060 3d 02 58 3d c0 a4 d6 3c 82 10 20 3d dc 8b 2a 3d
       0.05273651 0.026201606 0.039078243 0.041637287
000070 a5 a4 51 bc 45 7f ac bc ee e4 95 3c 81 4d 95 bb
       -0.012795602 -0.02105678 0.018297639 -0.0045563583
000080 5c ee 89 bc a5 37 88 bc c5 04 43 3d ea 7c 00 3d
       -0.016837291 -0.016628096 0.04761197 0.031369127
000090 8f a4 61 bb 21 a9 dc bc 1c f5 77 bc 46 d2 05 3d
       -0.003443036 -0.026936116 -0.015134122 0.032671236
0000a0 89 00 ce bd ed c4 83 bc c0 e4 1b 3d b9 a3 28 bb
       -0.10058696 -0.016085112 0.03805995 -0.0025732352
0000b0 a0 90 39 bc 6e 31 e1 3c 62 dc c2 bb f3 61 1d bd
       -0.011325985 0.02748939 -0.005946682 -0.03842349
0000c0 42 b9 33 3d de 67 b4 bb 9f 53 0f bd ec 03 b4 bc
       0.043877847 -0.005505546 -0.034991857 -0.021974526
0000d0 72 6a a0 bb da 3f 87 3c 62 10 a1 bb 21 5a dd bb
       -0.004895502 0.016509939 -0.004915283 -0.006755129
0000e0 b4 ee 01 3d fb c9 0a 3c 8a e8 8f bc 19 d6 d9 bb
       0.031721786 0.008471007 -0.017566938 -0.006647837
0000f0 20 21 aa bc 71 af 32 bc cd 22 e7 3c de 69 f4 3b
       -0.020767748 -0.010906086 0.028214836 0.0074589094
000100 81 3b 29 bc 8a ea b1 bc af 2d 0a 3d 6f 84 86 3c
       -0.010329128 -0.021718282 0.033734974 0.016420571
000110 c8 1f 8f bd 69 58 0d bd 54 b7 96 3c 37 ff 51 bb
       -0.06988484 -0.034508143 0.018397965 -0.003204299
000120 75 6a 2a bd bd 3f 56 3d 66 10 13 3c 41 9d 0c bd
       -0.04160543 0.05230688 0.008976078 -0.034329657
000130 eb b7 37 3d 57 e9 01 bd c4 0d ef 3c d8 bb 2d bd
       0.044853132 -0.03171667 0.029181369 -0.04241547
000140 a5 64 5f 3a 90 16 e2 bb 86 84 75 bc 65 7a df 38
       0.0008521772 -0.0068996623 -0.014985209 0.000106562664
000150 42 23 87 bd 25 1e 3f bd 32 9c 32 3b fb 18 12 3d
       -0.06598522 -0.046659607 0.0027253744 0.035668354
000160 8c 57 a0 3c e7 72 a4 3c 61 9b 34 bc 63 a8 be bc
       0.019572996 0.020074321 -0.011023373 -0.023273652
000170 6a f8 55 3c bd 36 ba 3c 49 f3 dc 3c c2 bd 8b 3b
       0.013059715 0.02273118 0.026971476 0.0042645643
000180 94 27 14 3c 68 3a 0b be 50 8d cf bb c5 e0 0d bd
       0.009042639 -0.13596499 -0.0063339844 -0.034638185
000190 02 0e e5 bb 11 b9 77 3c e2 61 91 bc 26 5d bb 3c
       -0.0069901953 0.015119807 -0.01774687 0.022871565
0001a0 90 c9 4c 3c 8f 78 66 bd d4 4b 07 3d b7 28 3e bd
       0.012499228 -0.056267317 0.0330313 -0.046425547
0001b0 82 db 67 bc 2a d4 82 bc 9a 43 40 3d 8c 94 17 bd
       -0.014151456 -0.015970308 0.04693947 -0.0370069
0001c0 e6 c0 31 bd 0e 3b 40 3c 3b e2 81 bc 76 2a c5 bc
       -0.043396853 0.01173283 -0.015854945 -0.024068099
0001d0 dc e9 80 bb 8a ec 80 bc 09 14 bf bb b1 db 28 3d
       -0.003934128 -0.01573779 -0.005831246 0.04122514
0001e0 40 36 1c 3d d4 de eb 3a e6 03 75 3d 6a f7 17 bc
       0.038137674 0.0017995485 0.05981817 -0.009275297
0001f0 8b 40 60 3c 87 7e 20 bd de 0e 24 3c 01 e2 50 bb
       0.013687263 -0.039183166 0.01001331 -0.003187299
