pre_data/AmazonCoBuyComputer_infomax_model_128.pt (torch, 466981 bytes, 6 tensors)

layers.0.bias f4 [128]
00000000: 2c81 a7bb 11d7 a23a 2ebd 42bb 0aec 38bb
00000010: 4093 03bb 646b 3abc 1d52 77bb 74ba 98bb
00000020: 231a bdb9 63df 2ebb 63d2 17bc 5d14 d638
00000030: f91c eabb 5ac3 7cbb 1799 9bbb 7fe5 11bb
00000040: ac43 43ba ae49 243c dbce 3b3b 4739 81bb
00000050: e353 50bb 44d4 9dbb 3225 c5bb 88af 7c3a
00000060: 06f9 efbb faaa 9ab9 51ec 413a a293 303d
00000070: 829b 6cbb c6dc 8bbb d087 2bbb efcb 31bb
00000080: 7556 edba 4794 a1bb 8a5e 3fbb 7984 c6bb
00000090: b56b a6bb 4de8 b8bb 02c8 7bbb c774 ab3a
000000a0: 96d0 5ebb 07e9 5eb9 ce7a 0c3c 9d85 a3bb
000000b0: 4cf0 a2bc abe9 9ebb 315f 7fbc 193e 75bb
000000c0: 126f 703b 8491 acbb a479 d2bb 4c8d 693a
000000d0: 9c42 61bb ab01 fa3b 12b9 153b 17fd 75ba
000000e0: 0051 a9bc 85ba daba 5f90 b5bb f987 8bbb
000000f0: ca49 8a3c fbf7 d03b ded8 01bc ecfb 3bb9
00000100: 1a0b c8bb 3df2 8ebb 3ca2 2a3b ea24 243a
00000110: b53a 5dbb 501b cbbb 7e5a 1c3d 847f bbbb
00000120: 2fe0 443b 42c4 b7ba 95ec ecba d5e0 71bc
00000130: b55e 1039 dd19 fc3a 90e5 453d 01d4 bdbb
00000140: 92e5 d63a 4976 84bb c27e 3abd 9470 d23b
00000150: 6d42 b83b 2c51 90bb cb1c 9bbb 2e3c 34bb
00000160: f4fd e2ba 6a75 2cbb 810a 2cbb 04fc 2f3d
00000170: 81f0 7abb 1b6c 19bc a32a 6abc c214 47bb
00000180: 1bc6 733c 9678 abba dc52 73bb 588f 91bb
00000190: 39ed c43c 7188 52bd a8d4 48bc c456 403a
000001a0: b36b 863b 9a96 ce3a 2047 2abc 5796 103b
000001b0: 34a2 a0bb 6b41 333b 4a1d 833b 172d d23c
000001c0: 940f 9e3c f7f0 1dbc 6cb0 183b 0345 3b3c
000001d0: 5524 54ba 6937 60bb 3766 85bb 18a5 9abb
000001e0: aa09 83bb eda0 04bc 0a35 953c c024 a4bb
000001f0: 1703 21bb ba94 153c 5572 93bb b416 0ebb
-0.005111834 0.0012423714 -0.002971481 -0.0028216862 -0.0020076782 -0.011378143 -0.0037738152 -0.004660899
-0.00036068363 -0.0026683442 -0.009266469 0.00010208108 -0.007144567 -0.0038568587 -0.0047484743 -0.0022262034
-0.00074487436 0.010027332 0.002865723 -0.0039435956 -0.0031788282 -0.004816564 -0.006016397 0.00096391933
-0.007323387 -0.00029500556 0.00073975796 0.043109544 -0.0036103432 -0.0042682616 -0.002617348 -0.002712961
-0.0018107431 -0.004931006 -0.0029200637 -0.0060582724 -0.0050787576 -0.005642927 -0.0038418774 0.0013081067
-0.0033998839 -0.0002125838 0.008574201 -0.004990293 -0.019889973 -0.0048496327 -0.01558666 -0.0037421046
0.0036687297 -0.0052663703 -0.006423192 0.00089092995 -0.0034371978 0.0076295934 0.0022845906 -0.00093837216
-0.020668507 -0.0016687667 -0.005540892 -0.0042581526 0.016880888 0.006377218 -0.00792524 -0.00017927558
-0.006104839 -0.004362373 0.002603664 0.0006261604 -0.0033756916 -0.0061983243 0.038172238 -0.005721988
0.003004085 -0.0014020281 -0.0018075878 -0.014763077 0.00013768191 0.0019233782 0.04831463 -0.005793095
0.0016395322 -0.004042421 -0.045531042 0.0064221118 0.005623153 -0.0044042077 -0.004733657 -0.002750169
-0.0017318116 -0.0026315101 -0.0026251378 0.04296495 -0.0038290324 -0.009364153 -0.014292392 -0.0030377363
0.014878775 -0.0013082202 -0.0037128245 -0.0044421367 0.024038898 -0.051399652 -0.012257732 0.0007337148
0.004102194 0.0015761435 -0.010392934 0.0022062266 -0.0049021486 0.0027352225 0.0040012943 0.025656266
0.019294538 -0.00963997 0.0023298515 0.011430028 -0.0008092572 -0.0034212715 -0.004071023 -0.0047193877
-0.003998955 -0.008095008 0.018213768 -0.0050092638 -0.0024568492 0.009129697 -0.0044997134 -0.0021681013

layers.0.fc_neigh.weight f4 [128, 767]
00000000: f035 963d 3d08 abbc aac5 be3b 9116 cdbd
00000010: 490c a0bd 5c1d 313c 7320 2bbc e383 40bb
00000020: 7c54 aa3c 35da 2e3d f2fb d0bc 0a99 173d
00000030: 4253 c1bd ef70 2cbd 4694 0dbd d7e8 2d3d
00000040: 4f97 483d e328 973d 4920 6ebc d5f9 a2bd
00000050: 3aef 7c3d d17e b5bd d4fc 1f3d c46f b63d
00000060: 83a6 d43c 6b4e 09bd 3c89 babd 80c5 873c
00000070: 4c49 adbd 1d4e a7bc 980b 28bd a93f 43bd
00000080: 1fa4 1abd b3ff a5bd 7107 b13c af78 893d
00000090: 94ce 80bd 2706 4c3d 409e abbc 3788 5fbc
000000a0: 21a0 b33b 2e8a 54bc 1653 6cbd c01f cfbd
000000b0: 5c3a 353d 144d 64bd 56b6 9fbd c042 2d3c
000000c0: 60dd 9f3c 1ae3 83bd 2777 d2bd 00a1 833d
000000d0: 7bf1 0bbd 170f 813d 5ab6 ce3c 6389 60bd
000000e0: 2300 d73c af9c 4d3d a1de a7bc 881a 463d
000000f0: 6a3c 8bbd b4a3 debd ee5c ed3c eef2 9a3d
00000100: 3feb 48bd a03f d1bd d5c4 7cbc a453 18bd
00000110: 75a3 0bbc cca1 9fbd 493e a53d f769 80bd
00000120: e458 a5bd 9779 dbbc a93e ae3d 0c3b 7b3d
00000130: 3aab 723d 3f03 303d 4251 32bd 6172 83bd
00000140: c11a 863d 447f bf3d 5970 fa3a 4d99 b7bd
00000150: 7202 75bd 13cf 99bd df86 9dbd f543 04bd
00000160: dcf0 13bc f899 cdbc fc26 5f3d 4bcf ab3d
00000170: f50f 95bc 4ef9 b3bd 8c63 b93c 7dac 093b
00000180: f5cd 25bd 02f6 313d d4d4 e83c ae5c 83bd
00000190: 3674 49bd 47fa 93bd 171f 5d3d 317a 7c3d
000001a0: 9677 913d 3d7c 583d 8d8c 503d 9670 5e3d
000001b0: 2704 ae3d 1c9f 9d3d 9f28 afbd 4dc7 953c
000001c0: 01dc e03c 159e 32bd 2270 6abd 118f 333d
000001d0: e4a7 26bd 81f1 cc3d 0959 d4bd 0e82 9ebd
000001e0: d0d0 a63c ca86 3d3c eb74 3d3d 5e9d 6b3d
000001f0: cc4d 723d b43b 413c ba53 bdbd e1ab a33b
00000200: c91c efbc efc8 3b3d e0f0 b2bd 23d8 653c
00000210: ac73 9abd deba 0bbc f11b b13c 455a bfbd
00000220: aa8b 5abd 4c59 f7bc b8bd 8a3d b508 2fba
00000230: 628f e43c 079a 5f3d 211b 333c 6ff1 7bbc
00000240: 951f cdbc 1673 6fbc 04d6 bb3c 9793 283d
00000250: 8104 cabd f411 d2bd 5531 a83c a5eb be3d
00000260: d822 133d 0e13 96bd b7f3 e03c cbc1 8f3d
00000270: a68d 13bc cc75 bcbd 31ea a13d b5c2 4e3c
00000280: 4e50 67bd 5ac5 aabd d2cb 973b b5bd 8d3d
00000290: 432c 823d a70c a23d 95a7 babc 2572 f8bb
000002a0: bb4b 893d fc2c 923d 7335 a83b 1ef0 2fbd
000002b0: 1aa6 353d 0499 0cbd dd51 b2bc 9b7b 3e3d
000002c0: fd72 2c3d 7ddb be3d 8cc8 c8bd dfc5 30bd
000002d0: 7284 c73c 333e 2e3d d29d 693d fa97 3cbb
000002e0: 33ff 3b3d e1e7 f5bc ca62 a23d 172a c73d
000002f0: b33b bebc 4c70 65bc 2aa0 513c 3841 acbc
00000300: 8b04 23bd 82bd d0bc f78f d1bd 6a30 7fbc
00000310: 216d cb3d 98fb aabd 5c76 17bc 171b 82bc
00000320: bcb8 52bd 0510 d4bc 2e68 27bd a060 84bc
00000330: bc3e e33c 3b09 943d 89f7 903d 59f5 823d
00000340: 73f9 7cbc 48fb 6a3d 99d1 6c3c 4b3b 81bd
00000350: e423 87bd 5498 963d 32f1 1a3d 2f78 973c
00000360: ec51 67bd 717a 66bc 96c1 213c dcc7 58bd
00000370: ef32 0dbd 394b 893d 9954 dabd 98ff 1c3d
00000380: c01e 783c 8fb9 853c ed33 c6bd e2a1 2c3c
00000390: ba64 a8bd 292a 843d 2d13 8e3d 45e4 93bd
000003a0: 766b b1bd 17e8 c63d 2ccc 1fbb 1214 acbd
000003b0: 4d63 c63d 663b a6bb 6ec2 3ebc 3f47 c2bd
000003c0: 2240 313d d039 a03d 8a4f 093d 24f3 503d
000003d0: 1b33 993d bacc 643d acb1 a13d ccd3 8d3c
000003e0: e885 163d 2a45 e23c 7ce8 7b3d f9a6 3bbb
000003f0: 657f f6bc e54c 383c c3fc 67bc 86de 9d3d
0.073345065 -0.020877952 0.0058219032 -0.1001407 -0.07814843 0.0108102225 -0.010444748 -0.0029375486
0.020792238 0.042688567 -0.025510762 0.037011184 -0.09439708 -0.04209989 -0.034565233 0.04245838
0.048972424 0.073808454 -0.014534065 -0.07957808 0.06175158 -0.08862079 0.039059475 0.08908036
0.025958305 -0.03352205 -0.09108207 0.016573668 -0.08461246 -0.02042299 -0.04102668 -0.047668133
-0.037754174 -0.081054114 0.021609994 0.06712472 -0.06289402 0.049810555 -0.020949483 -0.013643316
0.0054817353 -0.012972398 -0.057696424 -0.10113478 0.04424511 -0.05573757 -0.0779845 0.0105749965
0.01951474 -0.064398006 -0.10276633 0.06427193 -0.03416584 0.06301706 0.025233436 -0.054818522
0.026245182 0.050198253 -0.0204919 0.048365146 -0.067986324 -0.10871068 0.028974976 0.075658664
-0.049052473 -0.10217214 -0.015427788 -0.03718914 -0.008522858 -0.07794532 0.080685206 -0.06270211
-0.08073595 -0.026791377 0.08508045 0.06133561 0.059245326 0.042971846 -0.043534525 -0.064183004
0.06548072 0.09350446 0.0019106969 -0.08964787 -0.059816785 -0.075101994 -0.0769174 -0.03229137
-0.009029593 -0.025097832 0.054480538 0.08389147 -0.018196085 -0.087877855 0.022630475 0.0021007352
-0.04047962 0.043447502 0.028421797 -0.064141616 -0.049183093 -0.07225471 0.053984728 0.06163997
0.07102887 0.052852858 0.05091529 0.05430659 0.08496886 0.07696363 -0.0855267 0.01828351
0.027448656 -0.04360779 -0.057235844 0.04383761 -0.040687457 0.10007001 -0.103685446 -0.0773965
0.020363241 0.011567781 0.04625408 0.057523124 0.059156224 0.0117940195 -0.09244485 0.004994855
-0.02918853 0.045845922 -0.087373495 0.014028582 -0.07541594 -0.008528439 0.021619769 -0.093433894
-0.05335585 -0.030193947 0.06774467 -0.00066770177 0.027900402 0.05459025 0.010931761 -0.0153773865
-0.025039474 -0.014614841 0.022929199 0.041156378 -0.0986414 -0.102573305 0.020531336 0.093222894
0.0359219 -0.07327853 0.027459962 0.07019385 -0.00900594 -0.092021555 0.079059966 0.012619664
-0.05647307 -0.08338423 0.0046324516 0.06920949 0.063560985 0.079125695 -0.022784987 -0.0075819665
0.067038976 0.07137486 0.005133325 -0.042953603 0.04434786 -0.034325615 -0.021767551 0.046504598
0.04210185 0.09319208 -0.09803876 -0.043157455 0.024355147 0.042539787 0.057035275 -0.0028777109
0.045897674 -0.030017795 0.07928999 0.09724825 -0.023221826 -0.014003824 0.012794534 -0.021027192
-0.039799254 -0.02548099 -0.10232537 -0.015575508 0.09932924 -0.08348769 -0.009244528 -0.015882058
-0.051445708 -0.025886545 -0.040870838 -0.016159356 0.027739875 0.07228323 0.070784636 0.063944526
-0.015440333 0.057368547 0.014454269 -0.06310137 -0.065986425 0.07353273 0.037827678 0.018489925
-0.05647461 -0.014067278 0.009872815 -0.052924976 -0.034472402 0.06703801 -0.10660667 0.03832969
0.01514405 0.016323833 -0.09677873 0.010536643 -0.08222337 0.06453354 0.06937251 -0.07221273
-0.08663075 0.097122364 -0.002438317 -0.084022656 0.09686909 -0.005072999 -0.011643035 -0.09486245
0.043274052 0.07823527 0.03352312 0.051013127 0.07480451 0.055859305 0.07895216 0.017312907
0.036748797 0.02762087 0.06150101 -0.002863346 -0.030090043 0.011248802 -0.014159384 0.077084586

layers.1.bias f4 [128]
00000000: 96bd 07bc e96c 06bc b747 ddbb 6824 393b
00000010: e00a 803a 931b 403c 92ff 0abc 5e8f aabb
00000020: 2d09 c33b 3f93 45bc d7cc 01bc 5ac4 bd3b
00000030: c287 8dbc c5d1 17bc e895 faba 8e9f 8b3c
00000040: a935 59bb 304f ef3b 5e27 e43b 4475 fe3b
00000050: 7e7a 01bc 11cd 2ebb 494a 00bc 2de7 0d3c
00000060: 7e4c 44bc 0c5f 18bc 609e ec39 2172 8b3c
00000070: a226 813c e050 243c 1d22 843c 2e1c 4b3b
00000080: 86af 3d3b c506 06bb c53f d1ba 4610 953b
00000090: ebd2 04bc 4ddc 033c a507 143b 0d12 e5bb
000000a0: d5bd a5bb 46a3 933b da38 963b 2a2c bebc
000000b0: 5560 de3b fe67 053c 4ce0 39bb 09d2 f43a
000000c0: 528f 223c 09e0 4f37 3020 4abc 38ee 783c
000000d0: 4dd8 7ebc beaf 373a edc4 2bbb 25ff 573b
000000e0: 2d64 9bbc eae7 3f3b 9301 24bb b7e5 f0bb
000000f0: f867 2bbc 1d66 49bc 0a64 0a3c 727d 2bbc
00000100: 8920 563b 274e 6b3b 9a45 343c b90e 0a3b
00000110: f63c 6cbc 430b 1f3c b19c 1c3b 78b5 9e3b
00000120: 74ed 37bc 3fbc 8b3b ea6a 89bb b7b7 353c
00000130: fd99 453b f386 c1bb c7fb 7f3c 9991 d7bc
00000140: a47f 0f3c b60f 33bc 2dc8 bcba 5ee8 2ebc
00000150: 8511 423c f8de 803b 21a5 763c b459 eb3a
00000160: 6da1 323b da82 91bc 9bb5 6abb 72d1 033c
00000170: a70a a13b 74f3 a03c 2578 7e3b c068 883b
00000180: 5474 52bb 9d45 613c ef48 693c 1fec 6cbc
00000190: 19eb 43bc 820e e8bb 4a95 76bc b2b5 013c
000001a0: 1ad2 08bc 639a ac3b 3c37 3d3c 4d29 c639
000001b0: d1f6 183c 4c39 393c db4d 043c 2123 5bbc
000001c0: 267c 0bbb a03c 64bb 9f00 fbbb 6afc 303c
000001d0: 99a5 933c b5f7 563c e22a cebb 1ba9 43bc
000001e0: e69d 8fbb cdf3 be3c 55de 2d3c ca75 cb3c
000001f0: f63f 7cbc f47b 61bc e4be 33bb 6828 c33b
-0.008284947 -0.008204677 -0.006752934 0.002825046 0.0009768866 0.011725324 -0.008483784 -0.005205079
0.0059520216 -0.012059032 -0.007922373 0.005791229 -0.017276648 -0.009266322 -0.0019118162 0.017043855
-0.0033143556 0.007303141 0.0069627007 0.007765444 -0.00790274 -0.0026672522 -0.007830211 0.008661074
-0.011981128 -0.009300005 0.00045131426 0.017022194 0.015765492 0.010029048 0.016129548 0.0030992138
0.0028943731 -0.0020450812 -0.0015964439 0.004549059 -0.008106927 0.008048129 0.0022587564 -0.006990677
-0.00505803 0.0045055477 0.004584414 -0.023214418 0.006786386 0.008142469 -0.002836245 0.0018678318
0.009921866 1.2390324e-05 -0.012336776 0.0151935145 -0.0155545 0.00070070836 -0.0026209906 0.0032958474
-0.018968666 0.0029282519 -0.0025025352 -0.007351603 -0.0104618 -0.012292412 0.008446703 -0.01046692
0.00326732 0.0035904737 0.011002922 0.0021065904 -0.014418831 0.009707275 0.0023897106 0.00484341
-0.011226047 0.004264384 -0.0041936534 0.011091164 0.0030151599 -0.00590598 0.015623993 -0.026314544
0.008758459 -0.010929039 -0.0014402919 -0.010675518 0.011844997 0.00393283 0.015054018 0.0017955811
0.0027256862 -0.01776259 -0.0035813812 0.008045541 0.0049146 0.019647337 0.0038828936 0.004162878
-0.0032112794 0.013749507 0.01423858 -0.0144605925 -0.011957907 -0.0070818076 -0.015050242 0.007916855
-0.008350873 0.005267428 0.011548813 0.00037796274 0.009336189 0.011305165 0.008075203 -0.013375075
-0.0021283715 -0.0034826174 -0.007659986 0.010802368 0.018023299 0.013120581 -0.006291733 -0.011942173
-0.0043828366 0.023309613 0.01061209 0.02483644 -0.015396109 -0.013762463 -0.0027427012 0.0059557445

layers.1.fc_neigh.weight f4 [128, 128]
00000000: 1c9e 15bd 5060 7a3c 9156 75bd 2cf5 48be
00000010: 35fb 57be 8a90 273e aa98 d13d 0f47 ca39
00000020: d866 3d3e 8bad 67bd 6728 3cbc 6202 48be
00000030: 5011 cebc e48a 63bd 815d 613e 2fbb 983d
00000040: 54ac d2bd 85e0 e3bd 4fc4 4e3e c34d 01bd
00000050: 0e90 173e bf99 8a3c 9dd1 a23c d8b2 533e
00000060: 3d58 2c3e 6769 d43d 81d3 063c 52a8 a23c
00000070: 566a 18be a1ac 3f3c c9ab b83d 7f16 003d
00000080: 7be7 733c d400 283d f694 573d 42a0 43be
00000090: c011 cebd d689 82bd 7c46 74bc 8d97 4a3e
000000a0: 514e 9a3d da75 1dbd 70dc 3abc fdfc afbd
000000b0: c773 8fbd 4aaa c23d 5352 bfb9 a3d0 da3d
000000c0: 0bc9 013d 28a8 083e c366 2c3e a782 29be
000000d0: f9f9 89bd a0a7 75bd aae6 3dbe 6f83 12be
000000e0: 2ea6 873d af62 e7bd bcf7 4fbc f39d cbbd
000000f0: 1b7c 85bd cd27 13bd e579 98bc 6eae f63d
00000100: 3ea5 fabc e33b b7bd 9bbe 06bd cd2d d4bd
00000110: d903 01be 4c6e 01be fbe5 afbd 3908 65bd
00000120: 00a6 e83c 1294 4a3e 3de1 9fbd 42b7 253e
00000130: e742 d5bd d722 0e3e b1c5 e5bd 4d08 1f3e
00000140: 3eec f2bd 2a02 99bc 9f52 2dbd d62a 8ebd
00000150: 0ed9 63be 48c2 1cbe d0b9 bcbd a89c e93c
00000160: 2bde 093e 1b77 5a3c 1c6b cdbd 584c 2cbe
00000170: 8fda 313e fe64 223e 560c 65bd 1ff9 11be
00000180: bd3c 023d 65da 2dbe 3ae3 eb3c 24ae 23bd
00000190: 3f2e 773d 29c4 4c3e 5567 14be 675f 63bd
000001a0: 0872 ce3d b4cc f43d 6dba 19be eb89 223d
000001b0: 4d98 563d ca54 463e ccdc fcbd 1ab6 ab3d
000001c0: 0af3 aa3c a0b5 77bc 5736 93bc 1a1a 80bd
000001d0: 996a d13c c990 02be 8aad 4b3d 1f52 893d
000001e0: 7248 0938 797f 33be 63c1 32bd 2f4a 053b
000001f0: fa8f 353e 50d2 a6bc 100a 053d c39c 223e
00000200: 14ed c9bd 7fce e6bd e17c 92bd e133 423e
00000210: a40a d9bd 6dec 1e3d c0d4 7d3d 5bc5 00be
00000220: 1644 c73d f32d a53b 70d2 d3bd 85ea 223e
00000230: 2a4e bdbd 3c23 473e ff9a 513e ff95 21bd
00000240: 8d9c 2c3e ee77 1ebe b51c cc3c 5f32 dd3d
00000250: 0ec9 353e c2e7 3c3e d357 ba3d bb30 fb3d
00000260: b72a b6bd e70d 12be 096b 41be 61df 1fbe
00000270: 96e6 f53d d145 563d 24b6 5fbd b4fa e8bd
00000280: 5ebe 543d 546f 67bd 872e 94bd f62a 243e
00000290: 36b8 04be 647c 553e e992 4c3e beb9 1cbe
000002a0: 2612 3e3e 2de1 5f3d 51c1 a2bd 5c1a 723d
000002b0: 5172 92bd 86e6 f83d ead2 94bd 9fd8 2c3e
000002c0: ab33 bdbc 7082 433e c7d9 ee3a 98a2 273d
000002d0: 7eaa 59be e8bc 85bc daa4 fc3d e7fd 0dbe
000002e0: 0bff 033e 5c13 debd 40dd 3b3e 138b adbc
000002f0: fcf9 a4bc ef40 753d 2cbd cf3d b55a 423e
00000300: 4d01 9abd 7cdb c53d 7c7b 0b3e 58fd ffbd
00000310: 53ce e33d aed5 98bd e318 0e3d fc79 ab3d
00000320: 9ee6 97bd 2ee1 963d 9678 803d 5351 0f3d
00000330: f920 343e 0a6f 2f3d 8648 9cbd 9f01 56be
00000340: d0e1 893d 65b6 2b3e 36fa eb3d e4a3 8f3d
00000350: 754c d7bc a131 15bd f772 0dbd 8ad9 f5bd
00000360: 2e39 16bd 5f5c 363e a4ee 083e 9230 df3d
00000370: e42e 903c 670b 4cbe 0e76 8fbd 41ac 0abe
00000380: 707a 85bd cffa 343e 948a d83b 2660 e23c
00000390: 3a8b 2fbe e4a3 23bd a9ae a0bd f9c1 893c
000003a0: c061 d03d 9802 ce3d f2be eebd c0c1 253e
000003b0: d07d acbc 9b83 08be d041 ed3d dd57 08bc
000003c0: 3f68 3dbd 2ffd 3fbe 9c9c 213d 37b4 b3bd
000003d0: 6688 0a3e 6703 cc3c a68f da3d 6951 d7bd
000003e0: 3b4e 9bbc 2ce7 3c3e a281 e53d 8569 aabd
000003f0: 875c 2a3e 83b6 a13c 4fb6 c33d d799 45bd
-0.036527738 0.015281752 -0.05989701 -0.19624776 -0.21091922 0.16363731 0.102341965 0.00038581385
0.18496263 -0.056561988 -0.011484242 -0.19532159 -0.02515474 -0.05555238 0.22008325 0.074575774
-0.10286775 -0.11126808 0.20192073 -0.0315683 0.14801046 0.016919015 0.019875342 0.20673692
0.16830535 0.103716664 0.008229137 0.019855652 -0.14884314 0.011698873 0.090171404 0.031271454
0.014886732 0.041016415 0.052632295 -0.19104102 -0.10061979 -0.06373946 -0.014909383 0.19784375
0.07534469 -0.03844247 -0.011405095 -0.085931756 -0.07004505 0.09505136 -0.00036491695 0.106843255
0.03168587 0.13345397 0.16836075 -0.16553746 -0.067371316 -0.059974313 -0.18545023 -0.1430795
0.06623493 -0.11298119 -0.012693342 -0.09942236 -0.06517812 -0.03592663 -0.018612811 0.120449886
-0.030596372 -0.08946969 -0.03289662 -0.10360298 -0.12599124 -0.12639731 -0.08588787 -0.055916045
0.028399467 0.19783047 -0.07806633 0.16183189 -0.10413151 0.13880478 -0.11219347 0.1553051
-0.11861466 -0.01867779 -0.04231512 -0.06941764 -0.22250769 -0.15308487 -0.092151284 0.028517082
0.13463657 0.013334061 -0.10030195 -0.16825998 0.1736853 0.15858838 -0.055919968 -0.14255188
0.031796206 -0.16977842 0.028794874 -0.039960995 0.060346838 0.19996704 -0.14492543 -0.055510905
0.100803435 0.119531065 -0.15012522 0.03968231 0.05239134 0.19368282 -0.12346801 0.083843425
0.020867843 -0.015118986 -0.017970247 -0.062549785 0.025563525 -0.12750544 0.049726047 0.067051165
3.2730815e-05 -0.17529096 -0.04364146 0.0020338406 0.17730704 -0.020363957 0.0324803 0.15880112
-0.09859672 -0.11269855 -0.07152725 0.18965103 -0.10597733 0.038799692 0.061970472 -0.12575285
0.09729783 0.005040878 -0.10342872 0.15909775 -0.09243424 0.19447035 0.20469283 -0.039449688
0.16856594 -0.15475437 0.024916032 0.10800623 0.17752478 0.18447784 0.090987824 0.12265154
-0.08894866 -0.14263116 -0.18888487 -0.15612556 0.120068714 0.052312676 -0.054617062 -0.11375943
0.05193936 -0.056502655 -0.07235437 0.16032013 -0.12960896 0.20848233 0.19977917 -0.1530523
0.1856161 0.054658104 -0.079470284 0.05910717 -0.071507104 0.12153344 -0.07266791 0.1687951
-0.023095926 0.19092727 0.0018222862 0.040926546 -0.21256444 -0.01632543 0.123361304 -0.13866387
0.1289026 -0.10843536 0.18346119 -0.02118448 -0.020138733 0.05987638 0.101435035 0.18979914
-0.07519779 0.09661004 0.13621324 -0.12499493 0.111233376 -0.07462631 0.034691703 0.08372876
-0.074170336 0.07367168 0.06273 0.034989666 0.17590703 0.042830504 -0.0763102 -0.20899056
0.067325234 0.16768797 0.11522333 0.070136815 -0.026281575 -0.036424283 -0.034533467 -0.12004383
-0.036675625 0.17808674 0.13372284 0.10897936 0.017600484 -0.19926225 -0.07004939 -0.13542272
-0.06517494 0.17673801 0.0066083167 0.027633738 -0.17142954 -0.03995122 -0.07845814 0.016816126
0.10174894 0.100590885 -0.11657514 0.16187191 -0.021056086 -0.13331454 0.11584818 -0.0083217295
-0.046241995 -0.18748926 0.039455995 -0.08774608 0.13528594 0.024903966 0.1067193 -0.10513575
-0.018958202 0.1844756 0.11206366 -0.083209075 0.16636859 0.019740349 0.09556257 -0.048242416

fc.weight f4 [10, 128]
00000000: 2df0 433e 61d0 3ebd d694 10bd b363 fd3d
00000010: b716 8b3e 60b6 2e3d d54e d2bd e3b8 e93d
00000020: 7b67 863d 9b81 473e 79d7 d1bd 7950 1f3e
00000030: ad09 abbe b202 86bd 74a2 b73e 1ef7 9fbd
00000040: 113f acbd 34fb 843e 68ac 383d 3031 1d3e
00000050: 8ef9 593d 1a86 043c 18ce 80be f674 213e
00000060: e55f b53e ebdd f53d d88f 36bc 6bc4 d1bd
00000070: 74dd 88be a5d2 afbe 7af7 9dbc 5751 12bb
00000080: d893 7abd 17fe c53d 20c9 1ebe b94e 5fbe
00000090: 716e ca3e 2441 623e 8071 af3d 9589 b53d
000000a0: 77a1 2b3e 4381 1bbe 3577 093e 3cf0 403e
000000b0: 7f30 15be d5b0 743d 6d64 df3e 3e0d babd
000000c0: a981 63be f17a 7dbe f898 9ebc c992 8bbe
000000d0: fe8d a83e 702e a6be c333 67bd fe4f a03e
000000e0: d3a4 8b3c 95f0 b63e 8568 a53e 2998 353e
000000f0: bcd2 46be 2d74 ddbe dfdb 2bbe f117 6cbe
00000100: 7d55 113e d8ba 24bd 6aef b1be d47b 00be
00000110: 9d92 e2bd f287 7c3d d94f 4abe 957b a93e
00000120: 08db b03e b523 8e3e 3a2e a63e b0c3 dabe
00000130: 27a5 f53d 5baf 8c3e f0e6 1a3b 70e1 e1bd
00000140: cb2f 973e 9782 57be c0d6 373d 77d4 323e
00000150: 76a1 aabd 4f14 0f3e d692 82be dcf7 a93e
00000160: 4784 afbc 2a9e 0dbc 6121 ec3d 8318 11bc
00000170: 44d1 013e eed7 703e 317a 30be 7d10 29bd
00000180: 99a2 833d 765d 03be 864e 24be e044 8e3e
00000190: 6613 123c 385a b13d 5c94 aabc 33d7 a5be
000001a0: 73d1 81be 0e5e 033d 89d9 bf3c 0a17 7b3d
000001b0: 1a7f 4c3e c944 92be e9da 25bd 286d a2be
000001c0: 4da6 07be b999 a03d de9a f9bd 98d2 45bd
000001d0: afb5 723e 9d76 a73e 6852 263e 7a33 e83d
000001e0: 2a35 2b3e ef66 983e 2b1d bf3d 723d f6be
000001f0: 6fba 883d abd5 823e bace 473d 6c6a acbe
00000200: 60ae dd3e 8054 263e ba61 a2be 2a9f 98be
00000210: 1e32 663e 3df1 a73d 5a69 193e f3be 9c3e
00000220: 7a12 a03e 1977 a03e 73d3 d9bd 8c20 b13e
00000230: 4fb2 04bd 153e 35be 1cfa 24be 5895 f3be
00000240: 5635 94be 9fa1 a1be 2649 803e 3e06 113e
00000250: 5193 a53e e709 f2bd a628 383e 2682 06be
00000260: 2313 b13e 5def 9ebe 5470 fe3d 30c6 4b3e
00000270: d94d ad3e 0257 adbe b4a7 4e3b 7f06 66be
00000280: d486 4abe d341 8b3e afca 853e 7f5e ef3d
00000290: 3457 23be 9613 c1be 7add 163e faa2 9bbe
000002a0: 0d2a 8ebd cd16 b13e d15b 9dbd 45aa 8abe
000002b0: f68f 8abc 06f5 c23e fdc0 98be 2c82 533e
000002c0: a3d2 b1be fcc8 80be a660 84be 9cde 243e
000002d0: d720 b4be de82 aa3e 07de 443e 4b42 e93d
000002e0: 2f88 d83e 2950 8cbe e02c 153e f197 1dbe
000002f0: 448f 2b3d 23a0 37be c6ba 6b3d 4694 d2bd
00000300: 0a06 a13d a0df 57be 4510 bdbe 978f 5cbe
00000310: de9a b23e c769 40bd 221d a73e ef7a 973e
00000320: b150 083e 8c22 b33d d807 c7be 1743 913e
00000330: 94e4 5b3e d6ad 9b3e 62b2 a03e e7bf 563e
00000340: 4ef9 8fbe d41b 3a3d e7cb a63e 05b4 47be
00000350: 7a21 5dbd 17e8 673e 1155 79bd 4282 8ebe
00000360: 33cf 803d 0a33 c53e d7db 753e 8123 123e
00000370: 9542 b23e a8aa 96be 316f 003e 1454 64bd
00000380: cabe 1fbe 8cd7 5b3e 7a57 09be 7ee4 93be
00000390: 4d63 2abe a25c 4a3c 2591 c3ba 2c8c bdbd
000003a0: 20f0 aabd d5ff 7b3e 9f8b 093e 8071 4abe
000003b0: 2e8c 3b3e 30b2 ae3e 7c8e 693e 4349 7b3e
000003c0: 511c 6b3e 84ae 4c3e 8ffa 6b3e ca31 51be
000003d0: 6c85 adbe ce78 9fbe 2585 9f3d 21a6 5abe
000003e0: 984d 2e3e 8526 ba3e b291 8d3e f335 953d
000003f0: fb8a aabe d0c1 923e 038e c8be 2387 b1bd
0.19134589 -0.046585444 -0.03529819 0.12372532 0.27165768 0.042654395 -0.10268942 0.114122175
0.06562706 0.19483034 -0.10246176 0.15558042 -0.3340582 -0.06543483 0.3586613 -0.07810806
-0.084104665 0.25972903 0.045086294 0.15350795 0.05321651 0.008088613 -0.25157237 0.15767273
0.35424724 0.12005218 -0.011142693 -0.10242542 -0.26731455 -0.34340397 -0.019283045 -0.0022326314
-0.06117615 0.096676044 -0.1550641 -0.21807374 0.39537385 0.22095162 0.0856657 0.08864132
0.16760813 -0.15186028 0.1342438 0.18841642 -0.14569281 0.059738953 0.43631306 -0.09084557
-0.2221743 -0.2475393 -0.01936005 -0.27260426 0.3292083 -0.32457304 -0.05644585 0.3131103
0.017046368 0.35730425 0.32306305 0.17733826 -0.19416326 -0.43252698 -0.16783093 -0.23056008
0.14192767 -0.04021725 -0.3475297 -0.12547237 -0.110631205 0.061653085 -0.19757022 0.33102098
0.34542108 0.27761617 0.32457143 -0.42727423 0.11994391 0.27477536 0.0023636185 -0.11029327
0.2952865 -0.2104591 0.044882536 0.17463861 -0.083315775 0.13972591 -0.25502652 0.33196914
-0.02142538 -0.008643666 0.11529804 -0.008855942 0.12677485 0.2351987 -0.17234112 -0.04127549
0.064274974 -0.12828621 -0.1604558 0.27786922 0.008915758 0.08659786 -0.020822696 -0.32390746
-0.2535511 0.03207212 0.023419159 0.06130127 0.1997036 -0.28568104 -0.040491972 -0.31723905
-0.13247032 0.0784182 -0.12187742 -0.04829654 0.2370212 0.32707682 0.16242373 0.113379434
0.16719499 0.29766032 0.09331735 -0.48093754 0.066761844 0.2555364 0.048781134 -0.33674943
0.432971 0.16243172 -0.31715184 -0.29808933 0.22480056 0.082003094 0.14981595 0.30614433
0.31264096 0.31340864 -0.10636034 0.34595144 -0.03239661 -0.17699464 -0.16111034 -0.47574878
-0.28946942 -0.3156862 0.25055808 0.14162537 0.32338956 -0.11818295 0.17984256 -0.13135585
0.34584913 -0.31041995 0.12423769 0.19899821 0.33848456 -0.33855444 0.0031533064 -0.22463416
-0.19777995 0.27198657 0.26131198 0.116879456 -0.15951234 -0.37710255 0.14732924 -0.3039778
-0.06941614 0.34587708 -0.07683528 -0.2708303 -0.016914349 0.38077563 -0.29834738 0.20655125
-0.34731016 -0.2515334 -0.25854987 0.16100544 -0.35181305 0.3330297 0.19225322 0.113895975
0.422914 -0.27404907 0.145679 -0.15389992 0.041884676 -0.17932181 0.057551168 -0.10282187
0.0786248 -0.210814 -0.36926475 -0.2153915 0.3488378 -0.046975877 0.32639414 0.29585978
0.13312031 0.08746824 -0.38873172 0.28371498 0.21473914 0.30406064 0.31386095 0.20971642
-0.28119892 0.045436695 0.3257744 -0.19502266 -0.053987004 0.22647129 -0.06087214 -0.27833754
0.0628952 0.38515502 0.24009643 0.14271356 0.34816423 -0.29427075 0.12542416 -0.055744246
-0.15600124 0.21468943 -0.13412276 -0.28885263 -0.16639443 0.012351187 -0.0014920576 -0.09255251
-0.083465815 0.24609311 0.13432167 -0.1976986 0.18315193 0.3412032 0.2280826 0.24539666
0.2296002 0.19988447 0.230448 -0.2042915 -0.33890855 -0.31146854 0.07789067 -0.21352436
0.17021787 0.36357513 0.2765022 0.072856806 -0.3330916 0.28663492 -0.39170846 -0.086683534

fc.bias f4 [10]
00000000: 3482 90be 7645 ba3d 6ea9 67be bf7b 9abe
00000010: 9a99 c53e da2b 97be 8a91 5ebe 1160 77be
00000020: ef2b 183e 6ff5 94be
-0.28224337 0.0909528 -0.22623226 -0.30172536 0.3859375 -0.29525644 -0.21735206 -0.2415774
0.1486051 -0.290935
