pre_data/AmazonCoBuyPhoto_infomax_model_128.pt (torch, 454693 bytes, 6 tensors)

layers.0.bias f4 [128]
000000 e5 3e 7e bb 4b e4 54 bb e2 77 a1 bb 62 6a 3b bb
       -0.0038794812 -0.0032484706 -0.004927621 -0.0028597345
000010 b0 a5 c5 3b 42 ee 1b bb 01 0b 5d bb 67 1a ff ba
       0.0060317144 -0.0023793136 -0.0033728483 -0.0019462825
000020 c7 ce 86 bb b1 b3 13 3d 24 a2 83 ba 85 1a a6 bb
       -0.0041140052 0.03606004 -0.0010042829 -0.0050690793
000030 ce 94 8a bb ea 03 57 3b 6e eb e7 38 27 09 f0 bb
       -0.0042291647 0.003280873 0.000110587906 -0.00732531
000040 b6 a2 8a bb 03 9c 82 bb aa f8 81 bb 36 12 8c 3b
       -0.0042308224 -0.003985883 -0.0039664106 0.004274632
000050 4b 2c 5f bb 0d 7d 55 bb f7 62 97 bb a1 e0 6c ba
       -0.00340535 -0.0032575757 -0.004619952 -0.0009036158
000060 ae d5 c7 ba d2 6d 04 bb a6 b6 85 bb 84 1e cf ba
       -0.0015246177 -0.002020706 -0.0040806113 -0.0015801941
000070 57 ad 17 bc f2 64 6a bb a8 27 cf 3b e8 68 71 3c
       -0.009257636 -0.0035765735 0.006321866 0.014734484
000080 a3 b5 8a ba c2 4a 70 bb 86 d6 64 bb 71 f1 a4 ba
       -0.0010582696 -0.0036665653 -0.0034917905 -0.0012584162
000090 73 02 62 bb 8b ac 90 3c 09 6b 58 bb cb 73 44 3b
       -0.0034486323 0.0176604 -0.0033022782 0.0029976245
0000a0 94 98 b0 bb 8b 25 9c bb 92 31 e3 b7 12 48 6b 3b
       -0.0053892825 -0.0047652177 -2.7083592e-05 0.0035901112
0000b0 b3 81 48 bb b4 fe 8d bb c0 bc 43 3c 3e ea 97 3b
       -0.0030594885 -0.0043333415 0.011946857 0.004636078
0000c0 bd 11 9e bb 17 30 40 bb 33 a2 a8 bb 72 30 4b bc
       -0.004823892 -0.0029325539 -0.005146289 -0.012401687
0000d0 19 79 fd 39 89 d5 49 bb 8c 00 76 bb 81 03 89 39
       0.00048346145 -0.0030797443 -0.0037536947 0.00026133287
0000e0 10 e1 34 3b 81 83 06 bb b6 c3 95 bb a4 a8 9c ba
       0.0027599968 -0.002052516 -0.0045704497 -0.0011952114
0000f0 05 20 68 bb 34 45 a7 39 2f 5d 42 bb 1e 2b 9b ba
       -0.0035419476 0.00031904283 -0.0029657593 -0.0011838411
000100 64 a9 dc bb 27 44 ed ba 80 37 f4 ba 48 7a 4d 3c
       -0.00673406 -0.0018101976 -0.0018632263 0.012541361
000110 5c 2d 01 b8 e3 38 f4 ba 62 3c 8f bb cf 6b 49 bb
       -3.079824e-05 -0.0018632676 -0.004371212 -0.0030734425
000120 a8 54 a7 3c 48 8d 4c ba 1c af 5e bb 85 d4 49 bb
       0.02042611 -0.0007803035 -0.0033978885 -0.0030796838
000130 5b ef 4c bb 7b 44 9c ba 72 ce 34 3c 75 0c 90 bb
       -0.0031270597 -0.0011922264 0.0110355485 -0.0043960162
000140 f2 4d 07 bc 00 3b 44 bb e7 e8 32 bb 2d 04 30 bc
       -0.00825833 -0.0029942393 -0.0027299465 -0.010743183
000150 85 73 90 bb eb 92 9b bb 1c 36 72 bb 4f d5 93 bb
       -0.0044083023 -0.0047477386 -0.0036958521 -0.0045115124
000160 12 27 38 3b d7 8b bb bb ac 0e 96 bb a6 6b af bb
       0.002809946 -0.0057234573 -0.0045793857 -0.005353409
000170 71 bc 20 bb 5a e2 cb 3a 1d 16 0c 3c cd 5c 44 b9
       -0.0024526382 0.0015555129 0.008550194 -0.00018726588
000180 61 55 b1 bb c2 09 dd 3b 7b b1 2b 3c d2 05 84 bb
       -0.0054117893 0.006745548 0.010479326 -0.004029014
000190 fd 6b 81 bb 45 aa 39 b8 d4 15 e9 3b 26 83 eb 38
       -0.003949641 -4.4266013e-05 0.007113198 0.000112301015
0001a0 72 6b 82 3c 0f e0 82 bb 9e ca 8e bb 24 b2 3e 3b
       0.015920375 -0.003993995 -0.00435765 0.002909788
0001b0 37 d9 05 bb bb 34 91 3b 0f 0b 61 3a 9e 0a c1 bb
       -0.002042366 0.004431335 0.00085847167 -0.0058911582
0001c0 f1 08 88 3b a9 bb 91 bb 89 7e 3b bb a1 17 98 39
       0.0041514565 -0.0044474197 -0.0028609356 0.00029009304
0001d0 0c 50 a5 bb 27 54 72 bb 5f 8c 70 bb 47 25 8f bb
       -0.0050449427 -0.0036976428 -0.0036704761 -0.0043684575
0001e0 86 df bb bb 68 47 64 3d 46 0d 02 3b bb 4f 4d 3a
       -0.005733433 0.05573216 0.0019844337 0.000783201
0001f0 72 d2 2e bb f2 a1 4e bb f0 e8 e5 3b 1b 26 63 bb
       -0.0026675728 -0.0031529632 0.0070162937 -0.0034660164

layers.0.fc_neigh.weight f4 [128, 745]
000000 7a 0f aa bd 18 4e d4 3c 61 97 a4 3d 4c f2 d4 bd
       -0.08303733 0.025916144 0.08036686 -0.10397777
000010 66 f1 52 3d e8 79 a6 bc 72 f0 10 bc 4c 85 82 bd
       0.051499747 -0.020321801 -0.008846389 -0.063730806
000020 3f db 6e 3c 5b 4a d9 bd 2c 08 8b bd 63 c2 2e bd
       0.0145786395 -0.10609885 -0.06788668 -0.04266585
000030 91 de 62 bc 6a 82 57 bd fe 49 6e bd 3e 1b ab 3d
       -0.013847009 -0.052614607 -0.058176033 0.083548054
000040 30 73 d2 bd 60 e5 bb 3c 50 4c d5 bd fe cd fa 3b
       -0.102758765 0.022936523 -0.10414946 0.0076539507
000050 7d fb 16 3c 41 eb 9e bd a1 1a d4 3c 06 80 53 3c
       0.009215233 -0.07759715 0.025891604 0.012908941
000060 0c 6b 42 3c 9f 46 8c bd c0 f9 c0 bd 02 20 9b 3d
       0.011866342 -0.068494074 -0.09422636 0.075744644
000070 42 14 85 3c ae 5f cd 3d 63 a7 03 bd a0 05 01 3d
       0.016245011 0.10028015 -0.032142054 0.031499505
000080 7e f1 7a bd 3c bc a5 bd ba a7 8a 3d 54 1e c0 3c
       -0.06126546 -0.080925435 0.067702726 0.023451962
000090 38 3e 9c 3d c9 5d af bd 0c 82 a6 3d dc 0f fd bc
       0.07629055 -0.0856281 0.08130273 -0.030891351
0000a0 34 f1 90 bd 6f 2b fd bc c5 f7 c2 3c 1f 4a d3 ba
       -0.07077256 -0.0309045 0.023799786 -0.0016120112
0000b0 c3 af 84 bc 49 bb 29 3d e0 f1 65 bd 6f 00 89 bd
       -0.016197091 0.041438375 -0.056138873 -0.06689536
0000c0 a3 97 94 3d 3d 98 80 bd eb a1 50 bc 9e 69 2e bd
       0.07255485 -0.06279037 -0.012733917 -0.042581193
0000d0 1b ae 55 bc ef ac 1f bd bc 11 a7 3c f9 bb 76 3d
       -0.013041998 -0.03898328 0.020394199 0.06023786
0000e0 00 03 e2 bd b0 91 c2 3d 2d 89 60 bd a0 f3 94 bd
       -0.110357285 0.09500444 -0.05481832 -0.0727303
0000f0 f6 e1 fe 3c 6d 50 e1 3b e5 4e 40 3d 04 ee 27 3c
       0.031113606 0.0068760426 0.04695024 0.010249618
000100 a9 3b 99 bd fc 04 e0 3d df fd 26 bd bd 44 86 3d
       -0.074820824 0.10938451 -0.040769454 0.065560795
000110 d4 c2 96 bd 63 ab 83 3a 89 22 0b bd f1 28 2b 3d
       -0.07361379 0.0010045584 -0.033968482 0.04178709
000120 99 bf e1 bd d4 9b 8a bd 00 3d bf bd 72 bc 66 3d
       -0.110228725 -0.06768003 -0.09337807 0.05633206
000130 39 cf 87 ba 9b 6a e3 bd aa 2a d7 bc 61 0a cf bc
       -0.001036144 -0.11104318 -0.026265461 -0.025273504
000140 1f 65 ab bd e2 f3 13 3d 14 ee 53 3c d8 4e 51 3c
       -0.08368897 0.036121257 0.01293518 0.0127751455
000150 70 57 56 bc 30 eb 89 ba cc 13 81 3b 13 fd 27 bd
       -0.01308237 -0.0010522362 0.0039391275 -0.041012835
000160 39 3c 48 bd c2 88 c9 3d 03 35 93 3d 70 a5 fc 3c
       -0.048885558 0.098405376 0.071878456 0.030840605
000170 43 e1 98 3c 18 b5 0b bc 68 10 35 bd 78 b5 ae 3d
       0.0186621 -0.008527063 -0.0442051 0.08530706
000180 f8 92 65 3d 01 ed 2c 3d 46 af 92 3d 8b 2c bf bd
       0.056048363 0.042218212 0.07162337 -0.09334668
000190 c2 90 4b 3d b6 45 8d 3d cd d8 82 3d 45 00 1e 3d
       0.0496986 0.06898062 0.06389008 0.038574476
0001a0 91 c7 e9 bd eb f6 a1 3d 08 fb 0e bd 8a b6 d6 3d
       -0.114150174 0.07908424 -0.03490737 0.10484035
0001b0 ae 09 75 bc dd d6 e1 bd e1 1d b4 3c 66 31 ec bd
       -0.014955921 -0.1102731 0.021986904 -0.115328595
0001c0 16 d3 89 bd a6 74 94 3c 6d 16 90 3d cb 05 77 3d
       -0.067297146 0.018122029 0.070355274 0.06030826
0001d0 0f 1c de bd 47 04 ac 3d b2 31 05 3d 65 4b b0 3d
       -0.108451955 0.08399253 0.032518096 0.0860813
0001e0 59 0f ca bd f0 f9 a5 bd b2 45 1d bd 47 0a 99 3d
       -0.098662086 -0.081043124 -0.038396545 0.074726634
0001f0 b4 5a 45 bc cc 31 d6 bc e3 2a 64 bd 1b a9 7c bd
       -0.012045551 -0.026146792 -0.055704962 -0.06168471
000200 af 1a aa 3d c7 56 b6 3d 6f bc af bd 6a 6c 55 bd
       0.08305871 0.0890327 -0.08580863 -0.052105345
000210 b0 db e7 3c a6 1b 91 bd 53 de 29 bd 6b 93 bb 3c
       0.028302997 -0.07085352 -0.04147179 0.022897443
000220 de ef b9 3d ba 54 f9 3a f4 48 ca bc 30 56 b1 3d
       0.09078954 0.0019022443 -0.02469299 0.08659017
000230 31 ff 9d bd 66 03 6d bd ed aa 73 bd e8 28 3e bc
       -0.077146895 -0.05786457 -0.05948918 -0.0116064325
000240 bb 94 0c bd f6 28 34 3c 34 a8 9f 3c 4c ec 10 bd
       -0.034321528 0.010996094 0.019489385 -0.0353816
000250 0c f7 05 bd 53 3c d0 bd 36 cb 58 bd 38 05 83 ba
       -0.032706305 -0.10167756 -0.052928172 -0.0009996062
000260 97 f0 32 bd bd ae c0 3d 6a 80 e1 bc f1 79 17 bc
       -0.043686476 0.09408329 -0.027527053 -0.009245382
000270 11 ad 88 3a ae 32 c3 bc 7f 7b 50 bd 8a 07 bf 3c
       0.0010427554 -0.023827877 -0.050899025 0.023319025
000280 8d 67 ac 3d d5 dd 8a 3d a7 2a 2f bd 21 d4 4f 3b
       0.08418188 0.06780592 -0.042765286 0.0031712132
000290 3f 1c 80 3d 1c f7 2e bd be 37 1e 3d b8 5a 85 3d
       0.062553875 -0.04271613 0.03862738 0.06511444
0002a0 84 96 c7 bd cf 7b 40 bd d0 0d 40 3d 6e 8b 7e bd
       -0.097455055 -0.046993073 0.046888173 -0.06214469
0002b0 a8 c1 ad 3c 7b 47 72 bc ef bf af 3c b5 07 9c 3c
       0.021210507 -0.01478755 0.021453826 0.019046644
0002c0 fa b8 c0 bd 5c 11 aa 3d d4 e9 ba 3d 01 1c cb bd
       -0.094102815 0.08304092 0.091266304 -0.09917451
0002d0 49 1e 41 3d 42 01 cc bc 76 f5 53 bd 73 d5 c8 3d
       0.047148023 -0.024902944 -0.05174776 0.09806337
0002e0 7b b2 55 bd 13 ee 93 bd 48 ab 9e bd 33 7a 94 3c
       -0.052172165 -0.072231434 -0.07747513 0.018124675
0002f0 7e b5 c0 bd 3e b8 55 bc 23 d7 5c 3d 3f 8a c5 bd
       -0.09409617 -0.013044415 0.053916108 -0.09645509
000300 21 d3 cb 3c 16 87 20 3d fc 46 33 3d a2 0b b3 3d
       0.024880948 0.039191328 0.043768868 0.08742453
000310 f7 bc b8 bd 4d 3a b1 bd 53 9e 8d bd 15 b4 87 bd
       -0.09020417 -0.08653698 -0.069149636 -0.06626145
000320 cc 1c 57 bd c4 7e aa bd e6 58 cf 3c c1 80 0b 3d
       -0.052517697 -0.0832496 0.025310945 0.034058336
000330 59 89 3d bd 32 cd b5 bd 16 1a d6 3c e4 3a 7b ba
       -0.046273563 -0.088770285 0.026135486 -0.00095836655
000340 8b df df bd ae 3c d0 3d 7e 92 b4 3c 8c 97 41 3d
       -0.10931309 0.10167824 0.02204251 0.047263667
000350 0e ce c1 bd cd 34 ca 3d 39 00 0c 3d 45 ea d3 bd
       -0.0946313 0.09873352 0.0341799 -0.10347418
000360 5e d6 2d 3b 61 f8 3e bd ae 5e 21 bc b4 ba 9f bd
       0.0026525478 -0.04662359 -0.009849234 -0.07799283
000370 4d d6 19 bb a8 5c cf 3d d8 ac df 3d 39 25 60 3d
       -0.002347368 0.10125095 0.10921639 0.054723
000380 14 6b 3e bd 76 9c 13 bd 08 31 c8 bc 19 41 c9 bd
       -0.046488836 -0.036037885 -0.024437442 -0.098268695
000390 89 46 95 bc 78 f4 59 3d 4c 59 b5 3c 61 ea c0 3d
       -0.01822211 0.05321166 0.022137307 0.09419704
0003a0 db 5c 50 3c 0b 4d 8e bd bd 55 05 bb f9 74 24 3d
       0.012717451 -0.069482885 -0.0020345293 0.040150616
0003b0 59 56 4a 3d 05 0a 23 3c bc e2 3a bc 42 3c be 3d
       0.049398754 0.009951119 -0.011406597 0.09288837
0003c0 c1 b9 9b 3d 66 51 d3 bd 08 84 c4 bd 45 33 c8 3d
       0.07603789 -0.1031826 -0.095954955 0.09775404
0003d0 73 3f b6 3c 6c 42 97 bc 20 7a a2 bc 77 11 75 bc
       0.022247052 -0.01846429 -0.019833624 -0.014957777
0003e0 91 8d 86 3d 06 c5 6f bc bd ea c2 3d af 46 a6 bb
       0.065699704 -0.014634376 0.09517429 -0.005074344
0003f0 8f 41 c4 bd 64 55 63 bd af 52 68 3d aa 81 34 bd
       -0.09582817 -0.055501357 0.05671948 -0.04406897

layers.1.bias f4 [128]
000000 1e 32 08 bb 34 f9 26 3c 7f bf 8e 3b d3 9e 28 bb
       -0.0020781825 0.010191251 0.004356324 -0.0025729432
000010 09 62 2e 3c a3 85 34 3b fa f4 96 bc 24 c4 5e 3b
       0.010643491 0.0027545474 -0.01842736 0.003399142
000020 9b 57 99 bb 0f 33 02 bc e9 92 06 3b 36 5f 7e bb
       -0.004679633 -0.007946744 0.0020534343 -0.0038814074
000030 36 e8 7d bb 20 e9 be bb bd 6d 31 bb 25 fd ad bc
       -0.0038743145 -0.0058261305 -0.0027073466 -0.021238873
000040 2b fe 5d 3b 8f 14 4e 3c 3d c7 ad 3b ce fb dd 3b
       0.003387342 0.012578144 0.005303292 0.006774402
000050 1f c1 0c bc a4 63 ca bb 6d 84 24 3c 4f 6c 4b 3c
       -0.0085909655 -0.006176429 0.010041338 0.0124159595
000060 d6 26 b1 3b 5c 9b 0e 3c d3 d6 cf 3b fc 56 82 bb
       0.005406241 0.008704033 0.0063427477 -0.0039776545
000070 ec 98 51 bb f7 c7 8c 3b 3e 17 36 bc 0c 3e c7 b9
       -0.0031982018 0.0042962986 -0.01111394 -0.00038002466
000080 8c 09 18 bc 42 69 a1 bb 5d d0 49 3b 41 41 8b 3b
       -0.00927962 -0.004925878 0.003079436 0.004249722
000090 bf 60 04 3c 5f 1f 61 bb 0e 3f 47 bb 76 3b 45 bb
       0.008079707 -0.0034350974 -0.0030402574 -0.0030095256
0000a0 92 a1 12 bc 92 b7 d0 3b f4 0d 8a 3b 4a 1c 37 bc
       -0.008949654 0.0063695395 0.004213089 -0.011176178
0000b0 08 05 9d 3a 16 0d 31 bc be a8 1f 3c 8a fd 31 3a
       0.0011979649 -0.010806343 0.009744821 0.00067897944
0000c0 21 59 52 3b 1f 1c 64 3b cb 2c 25 bc 58 80 9e bb
       0.0032096582 0.00348068 -0.01008148 -0.004837077
0000d0 0b 43 ec 3b 8b 7b a3 bb 32 c1 9c bc 08 f6 a6 3c
       0.0072101406 -0.0049890927 -0.019135091 0.020380989
0000e0 ce 3c 2a 3c 2b d5 61 3c f2 b1 f7 3b 3e 5e 27 bc
       0.0103904735 0.013783733 0.0075590545 -0.01021534
0000f0 fe 81 0f bc ed 6d e0 ba c3 1a d4 ba 67 f5 f8 3b
       -0.00875902 -0.0017122604 -0.0016182292 0.0075976136
000100 90 c6 c1 3a 12 5d 43 3b a4 8d 08 3c 13 ed 80 3c
       0.0014783908 0.0029810113 0.008334551 0.015738046
000110 bb d3 b0 bb 59 c4 61 3b 1a 59 5b bc 71 1d 4f 3c
       -0.005396334 0.0034449308 -0.013387943 0.012641297
000120 a2 3b c7 3b 06 4d 89 bc 74 46 98 bc e1 df 76 3b
       0.006080107 -0.01676036 -0.018588282 0.0037670063
000130 9d c9 85 3b a4 17 11 3c 9d b6 09 bc ea 28 07 3d
       0.004082872 0.008855734 -0.008405355 0.032998003
000140 c9 b6 0b 3c ce 3b 08 3c 41 dd 99 bc b4 e9 f2 3a
       0.008527466 0.00831504 -0.01878226 0.0018532784
000150 89 fe c4 3a e9 7d af 3b 81 35 f5 3b 05 ec 9b 3b
       0.0015029471 0.005355586 0.007483185 0.0047583603
000160 18 37 6c 3a 3c f8 1d bc e7 10 82 3b 05 72 66 bb
       0.0009010895 -0.009641703 0.0039693 -0.0035163176
000170 a5 20 0f bc 53 09 70 3b 05 a8 e6 bb 56 29 99 b9
       -0.00873581 0.0036626651 -0.0070390725 -0.00029213232
000180 07 66 0d bc 62 12 41 3b d5 36 04 bb 7d 97 f5 3b
       -0.008630282 0.002946042 -0.0020174284 0.0074948655
000190 f3 e1 ae bb 37 fe 1c 3c d7 e9 f6 3a 6e 2f 2c bb
       -0.005336994 0.009582094 0.0018838 -0.0026273387
0001a0 8f c8 1c 3c b1 5b 44 bc e4 6e d0 ba 48 9e 64 bc
       0.009569301 -0.011984752 -0.0015902189 -0.013953753
0001b0 58 37 4c 3a 2e e3 a3 3b 26 4f 23 3b 37 c6 b2 3c
       0.0007790229 0.005001447 0.0024919002 0.021823032
0001c0 2a 81 a8 bb 0f fa c6 3b ab 16 01 3b d2 07 b3 bb
       -0.0051423507 0.00607229 0.001969735 -0.0054635787
0001d0 e4 95 f1 bb bc e3 b1 3b 68 e2 ac ba b3 bc 41 bb
       -0.0073726047 0.0054287594 -0.0013190033 -0.0029561936
0001e0 74 24 f9 bb 43 cb 8a 3b 23 99 67 3c 51 39 45 bc
       -0.0076032225 0.0042356565 0.014135632 -0.012037591
0001f0 80 e4 69 bc 24 93 47 bc 3e 79 49 bc ff f2 3f bb
       -0.01427567 -0.012181077 -0.012296973 -0.0029289124

layers.1.fc_neigh.weight f4 [128, 128]
000000 f0 2a 16 3e 1e cc a0 3d 09 b1 c2 bd 9f e0 78 3d
       0.14664817 0.07851432 -0.09506423 0.06076109
000010 96 2f 24 be d7 30 f5 3d 34 60 d8 3c d1 35 a4 bd
       -0.16033778 0.11972206 0.02641306 -0.08018077
000020 4c b4 f8 3d aa e9 ee bd 26 93 7e bc 26 86 2d be
       0.12143764 -0.11665662 -0.015538013 -0.16945705
000030 cc fc 20 bb b1 28 d6 bb f8 03 d2 3d 08 7f 46 3e
       -0.0024564741 -0.0065356125 0.10254663 0.19384396
000040 17 e2 a1 3c 1d a9 5f bb 16 12 1f be a9 c4 3b bd
       0.019761128 -0.00341279 -0.15534243 -0.045841847
000050 8a 46 47 3e 33 88 02 bd 18 9a 20 be d9 cf 64 3e
       0.19460502 -0.03186817 -0.15683782 0.22344913
000060 5e 4b a9 39 8c 54 28 bd 14 74 e9 3d f7 5a e1 3c
       0.00032290345 -0.041096255 0.11399093 0.027509196
000070 c5 cf 52 3b 71 b0 51 3e bb de 82 3d 36 13 0b be
       0.0032167297 0.20477463 0.06390139 -0.13581547
000080 8f 80 0c 3e 06 10 14 3e 9b 8b e0 3b 05 e7 16 be
       0.13720916 0.14459237 0.00685258 -0.14736564
000090 45 dd c4 bd 3c 48 6f bd e5 5a 3d 3d b4 76 c0 bd
       -0.09612516 -0.058418497 0.046229262 -0.09397641
0000a0 a6 e0 44 be 29 53 4b 3e a2 80 9c 3d 0a f6 c6 bc
       -0.19226322 0.19855942 0.07641722 -0.024287242
0000b0 ff 54 26 3e 87 c4 e9 bd 3e 66 9f 3c 23 02 1b bd
       0.16243361 -0.11414438 0.019457933 -0.037843835
0000c0 50 9a 47 bd 69 83 19 3d 87 36 bf 3a 97 0f 0f 3e
       -0.04873115 0.037478838 0.0014588394 0.13970791
0000d0 4b c8 40 3e 69 a2 43 bd d7 d7 ff 3d 84 ea ed 3d
       0.18826406 -0.04776231 0.1249234 0.11616996
0000e0 97 49 14 be c3 7b 17 3e 99 17 54 3e cf d3 26 3c
       -0.14481197 0.14793305 0.20712127 0.010182335
0000f0 d7 7a 22 be 53 0b 04 3e 03 50 4d 3e aa 42 20 be
       -0.15867172 0.12894945 0.20050053 -0.1565043
000100 40 1f 21 3e 98 e5 29 3e 9f d4 2f 3e 92 6b b1 3b
       0.15734577 0.1659149 0.17170952 0.0054144347
000110 90 d7 09 3e 22 c3 5a 3e 1b d3 ff bd 61 71 d6 bd
       0.13461137 0.213635 -0.12491437 -0.10470844
000120 3a 63 f3 3d 7d 8c b8 3d b6 f3 93 bd 7e 44 02 be
       0.1188416 0.09011171 -0.072242185 -0.1272144
000130 cc 9f d9 3d fa 4e f5 bd d9 dd 50 bd a0 b7 e0 bd
       0.10626182 -0.11977954 -0.05099282 -0.10972524
000140 c4 30 af 3c 6d bd 2b 3e 31 6e e1 3d 9d d5 02 3e
       0.021385558 0.16771479 0.110073455 0.127768
000150 fa 3c 6d 3d 21 53 2f 3e 25 33 70 3d 0b 73 e7 bd
       0.05791948 0.17121555 0.058642525 -0.113012396
000160 8a 59 0b be c5 8e 9d bd b9 a0 0b be 11 34 9d bd
       -0.13608375 -0.07693247 -0.1363553 -0.076759465
000170 04 d7 b2 bd ac c9 4c bd 4e cc 5a 3d e1 75 81 bd
       -0.08732417 -0.049997017 0.053417496 -0.06321312
000180 81 f8 43 3e ca 40 ea 3b 7d 22 5e bd da 3d 0d 3e
       0.19137765 0.0071488367 -0.05423211 0.13793126
000190 45 23 c7 3d 0b 5d 19 3e 62 9c 06 3e 8e 0d 2b 3e
       0.09723524 0.149769 0.13145593 0.1670439
0001a0 4c 6d ab 3d 9b 02 5e 3d 6b 83 46 3e e7 36 b8 bc
       0.08370456 0.054201704 0.1938607 -0.022487117
0001b0 bf 5b 1f bd 6a ea d5 bd 76 65 46 be b2 c8 58 3e
       -0.038905855 -0.104451016 -0.19374642 0.21170309
0001c0 25 85 f4 bd 29 96 10 be 73 ba 1f be c0 87 5c 3d
       -0.11939458 -0.14119782 -0.15598468 0.0538404
0001d0 2e 80 66 bb f2 c8 c1 3d d6 8a b8 bd 72 a9 f3 3d
       -0.0035171616 0.094621554 -0.09010856 0.118975535
0001e0 e3 25 4a 3d 28 32 03 be a6 03 0d be 56 94 d2 3d
       0.049352538 -0.12812102 -0.13770923 0.10282199
0001f0 d7 58 c3 bd 47 d9 1a be da 36 08 be 6a 6b 34 be
       -0.09538429 -0.15121947 -0.13302174 -0.176191
000200 c0 f2 0d be 8b 25 52 3e 68 b2 0e be d6 de 33 bd
       -0.13862133 0.20522134 -0.13935244 -0.043913685
000210 6f 55 50 3e 7b 65 35 be c9 89 3b 3e 92 13 fc bd
       0.2034509 -0.17714493 0.1831428 -0.1230842
000220 d9 7b 14 3e 9d 11 8c bc 03 9f 41 bd ea 67 5d 3e
       0.14500369 -0.017098242 -0.047270786 0.21621671
000230 95 cc c2 3d 5e 27 44 be 58 3a ba bd ec 29 00 be
       0.09511677 -0.19155642 -0.090931594 -0.12515992
000240 91 57 ce bc 1c 38 01 be 7d 96 cb 3d d2 d2 b2 bd
       -0.02518824 -0.1261906 0.09940813 -0.08731617
000250 6e c7 b6 3b 5f c1 25 3e aa 6f 8b 3d 47 30 ce bc
       0.005577973 0.16187046 0.068084076 -0.025169505
000260 0d 8d fb 3d 4a 61 24 3d 27 b2 72 bd fc 7a 5b bd
       0.12282763 0.040131845 -0.05925193 -0.053584084
000270 95 9a 93 bd 78 0f 19 3e 93 c7 7f 3d 79 a1 cf 3c
       -0.072072186 0.14947307 0.06244619 0.02534555
000280 98 35 bd bd b1 cb 58 3d af f4 fb bb 60 2e c8 bd
       -0.09238738 0.05292863 -0.0076890807 -0.0977447
000290 5c dc a9 bd 4c 22 09 3d f9 6d 75 bd 7b 5e 5a bd
       -0.08293983 0.033479974 -0.05991933 -0.05331276
0002a0 00 52 b4 bd eb 93 de 3d 29 8e 03 be 44 ad d6 bd
       -0.08804703 0.10868057 -0.12847199 -0.104822665
0002b0 52 99 32 3e f4 63 d9 bd 58 35 e5 3d 09 33 0c be
       0.174413 -0.10614768 0.11191815 -0.13691343
0002c0 b0 fd 45 be 72 6f 18 3c e2 37 a9 3d da 5b cc 3c
       -0.19335055 0.009303914 0.08262612 0.024946142
0002d0 16 fb c0 bd 71 6c 26 3e 98 2a de 3d d2 ff 8a bd
       -0.09422891 0.16252305 0.10847968 -0.06787075
0002e0 71 85 48 3e 67 ac c2 3d 9d 83 de 3d f0 72 ec bd
       0.19582154 0.095055394 0.10864947 -0.1154536
0002f0 b6 29 dd 3c 37 6d f0 bd 1c 4c e7 3d 36 e5 03 3e
       0.026997428 -0.11739581 0.112938136 0.12880406
000300 58 27 1c be e7 9b 39 3d 7a e6 52 3e 4a 4a 82 be
       -0.15249383 0.045314696 0.20595732 -0.25447303
000310 b9 ab fb bb 2c 19 07 be de 0a 94 3d f6 51 31 be
       -0.007680383 -0.13193196 0.07228635 -0.17316422
000320 7d 3d 02 3d 03 62 a8 bd b4 7d 06 be 0e 9d 0d be
       0.03179692 -0.08221819 -0.1313389 -0.13829443
000330 3d 61 3a 3e d7 b3 98 3d 2f 83 92 bc be 42 3c be
       0.18201156 0.07456177 -0.017884819 -0.18384835
000340 9d 3c 4a 3e 65 27 37 3d ef 10 3e 3e 3e cc 02 3e
       0.19749685 0.044715304 0.18561147 0.12773225
000350 d3 8b 12 be a1 57 11 be 1c 24 b1 3d ce 09 2e 3d
       -0.14311151 -0.14193584 0.086494654 0.04248982
000360 7c 26 12 be df 61 7f bd 05 c1 23 be fe e8 55 3e
       -0.14272493 -0.062349197 -0.159916 0.2088966
000370 f4 99 38 be 98 cd 4d 3e 20 fc 31 bd e7 dc 1b bd
       -0.18027478 0.20097959 -0.043453336 -0.038052466
000380 75 22 e9 bd 53 1c d6 3c 22 1d 59 3e e3 7d 38 3e
       -0.11383525 0.026136553 0.2120252 0.18016772
000390 6f 2f ba bd 44 aa 67 3d 02 26 1a bd a1 29 10 3e
       -0.090910785 0.056558862 -0.037633903 0.1407838
0003a0 96 a2 02 3d cd 86 24 be 9c f9 01 be 90 96 99 bd
       0.031893335 -0.16067047 -0.12692875 -0.07499421
0003b0 ea 7a 05 3d 92 45 16 bd 78 66 5a 3d d3 8a 41 be
       0.032587923 -0.03668744 0.053320378 -0.18900613
0003c0 96 6c 5a 3e 38 1a de bd bf 84 e7 bd c0 3d 3c bc
       0.21330485 -0.108448446 -0.11304616 -0.011489332
0003d0 4b 0e c0 3d fc f6 f1 3a 70 5d 30 3d 5e aa 1d 3a
       0.09377726 0.0018460448 0.04305786 0.00060144614
0003e0 47 51 c1 3d bb 1d bd 3d b0 ce 1a be ba b0 94 3d
       0.094393305 0.09234186 -0.15117908 0.072602704
0003f0 0e b7 2d be a1 36 27 3e 19 fd 94 3d 17 c7 5b 3e
       -0.16964361 0.16329433 0.07274837 0.21462665

fc.weight f4 [8, 128]
000000 06 98 27 3e 07 c6 ad bd 9d 72 5d 3d 9c a3 88 3e
       0.16366586 -0.08485036 0.054064382 0.26687324
000010 61 a1 cf 3d 67 c5 1a be 39 88 d3 3d df 11 17 be
       0.101382025 -0.15114366 0.10328717 -0.14752911
000020 8a d9 30 3e 0c c5 19 bd 5b 36 cf bd 9f 11 07 be
       0.17270485 -0.037541434 -0.10117789 -0.13190316
000030 1c ce d0 bd f8 dc 21 3e ce 6a 90 3e 55 e0 3a bd
       -0.10195562 0.15806949 0.28206486 -0.045624096
000040 61 b6 2b bd 01 af 45 3e b0 c9 f0 bd 63 ae 59 be
       -0.041921977 0.1930504 -0.11757219 -0.2125793
000050 dc 7a e6 3d 50 22 96 bc f1 b0 9e bd 90 65 bb bd
       0.11253902 -0.018326908 -0.07748593 -0.09150231
000060 e2 e4 b0 bd 4e d5 b3 3d f8 d8 7c bd 5f f7 87 be
       -0.08637406 0.08780919 -0.061730355 -0.26555917
000070 49 7e da bd 5e fe f6 3d 07 01 2c be 81 91 26 be
       -0.10668618 0.120602354 -0.16797267 -0.16266443
000080 e9 1a 46 3e 3e 99 84 3d 46 24 ea bd e3 52 b0 3c
       0.19346203 0.06474541 -0.114327 0.021523898
000090 20 28 1e 3d c5 c4 b3 3d d8 9d bc 3d 01 2f 17 bd
       0.038612485 0.08777765 0.09209794 -0.03691006
0000a0 2e 95 78 bd f7 4e 3d 3e 0e 7c e1 3d 07 74 a6 3d
       -0.060689144 0.18487154 0.1100999 0.08127599
0000b0 9f 2e 6d 3e dd 6d dc 3d 9b a0 e7 bd 9b 0b 64 be
       0.23162316 0.10763142 -0.1130993 -0.22270052
0000c0 0f c7 2a be 0e 03 6a bd 14 16 d2 3c 6d 48 70 be
       -0.16677497 -0.05713182 0.025645293 -0.23465128
0000d0 68 b2 b7 3d fc 58 af bd 3f 5f 02 3e fd 5d 5d be
       0.08969575 -0.08561894 0.12731646 -0.21617885
0000e0 da f6 7f 3d ce 66 9d be 17 d2 bc 3c f1 e5 7a be
       0.062491275 -0.30742496 0.023049397 -0.24501778
0000f0 00 d0 ea bc ea 42 b1 bd 2f b7 c6 bc 41 5c 10 3e
       -0.028663635 -0.08655341 -0.02425727 0.14097692
000100 f5 fa 25 be 81 f4 b5 3d 27 86 07 3e d4 53 48 be
       -0.16209014 0.08884526 0.13234769 -0.19563228
000110 67 4d 36 3e f0 29 8c 3c 07 32 23 bb 50 c3 9b 3d
       0.17802964 0.017109841 -0.0024901645 0.07605612
000120 c0 70 81 3d b2 3a b5 3d cd d6 1c be 46 e8 3b 3e
       0.063203335 0.08849086 -0.15316315 0.18350324
000130 ee 6b 75 3d ee 8b 3e 3e 81 aa 6b 3d 70 c2 b8 bc
       0.059917383 0.18608066 0.057535652 -0.022553653
000140 19 42 72 be 37 db d5 bd a2 3e 7b bd bd 0d 1e 3b
       -0.23658027 -0.104422025 -0.06133903 0.0024117075
000150 e8 14 54 3d 91 0d 26 be 71 91 97 bd 23 c8 62 3e
       0.05177775 -0.16216113 -0.074007876 0.22146659
000160 ee 23 32 3e fc d2 14 be 41 2a 4b 3e f6 6a 86 bd
       0.17396519 -0.14533609 0.19840337 -0.0656337
000170 8b 2b a2 3d 36 fe 06 3e c2 20 ac 3d fb e8 cd bd
       0.079184614 0.13182911 0.084046856 -0.10054203
000180 35 39 28 3d 57 94 1c be df fe 05 3d 06 4c e5 bd
       0.041070182 -0.15290962 0.032713767 -0.11196141
000190 60 d1 03 3e 3e 90 13 be ad 92 c7 3d 8c 6f 1e 3e
       0.12872839 -0.14410493 0.09744773 0.1547224
0001a0 c8 4a 6c 3d 77 16 2f be 22 41 90 bd 76 7f 59 be
       0.057688504 -0.17098413 -0.07043673 -0.21240029
0001b0 36 bf 36 be 14 41 db 3d 8e d2 85 bc 28 ac c3 3d
       -0.17846379 0.10705772 -0.016335752 0.095543206
0001c0 c2 01 42 be 7d 43 ac 3c 42 c6 00 3e 3d a8 85 3d
       -0.18945983 0.021028275 0.1257563 0.065262295
0001d0 b7 05 01 be 24 da 4c bd 19 53 7a 3c c9 a1 31 3e
       -0.12599836 -0.050012723 0.015278601 0.17346872
0001e0 8e 4d 93 3d 50 72 3f bc 4e 65 19 bd c4 3f 92 bb
       0.07192527 -0.011684969 -0.037450127 -0.004463168
0001f0 f9 b3 5c 3e ce 82 4d 3d 06 c1 99 bd 97 ea 42 3e
       0.21553029 0.050173573 -0.075075194 0.19034801
000200 25 e2 80 3e 9a 71 8b 3d 90 43 69 be f0 72 13 be
       0.25172535 0.06808777 -0.2277968 -0.14399314
000210 7f 67 15 3e 30 11 89 bd 90 c5 0f 3e 37 58 14 3e
       0.14590262 -0.066927314 0.14040208 0.14486776
000220 a3 21 b6 bd d8 77 b9 3c 2d 1a bd bd ea cd cf 3d
       -0.088931344 0.022640154 -0.09233508 0.10146697
000230 1f 58 95 bd b8 1f 6f 3d db ff 81 be ad 60 8e 3e
       -0.072921984 0.05837986 -0.25390515 0.27808133
000240 78 76 9f bd d5 51 ac bb 17 ad 79 be 37 22 5b 3e
       -0.07786268 -0.0052587786 -0.24382435 0.2139977
000250 7b 41 3b be 6d 85 31 3e 05 eb 04 3e fd 5a 0c be
       -0.18286698 0.17336054 0.12980278 -0.13706584
000260 8d 9c 8a be d0 a7 49 be 0b 8c d7 bd 17 a6 98 3e
       -0.27072564 -0.19692922 -0.10524758 0.29814216
000270 bc a0 dd bd fd b6 00 bd f1 e7 91 bd b7 a2 3a be
       -0.10821673 -0.03142451 -0.071243174 -0.18226133
000280 db 84 73 3e 36 29 b6 bc 2b 2a 0f be 77 78 57 3e
       0.23781149 -0.022236448 -0.1398093 0.21042047
000290 e8 b2 f7 3d c4 12 51 3e 51 63 00 be 71 f1 2c be
       0.120946705 0.20417315 -0.12537886 -0.16888978
0002a0 c6 cc e1 3d 34 e9 80 be f3 26 8a be e8 c7 03 bd
       0.110253856 -0.2517792 -0.2698284 -0.032173067
0002b0 8b 2a 5f be bf 67 12 3e 78 24 99 bd 95 c0 1e be
       -0.21793573 0.14297388 -0.07477659 -0.15503152
0002c0 d4 26 fa 3b 9b cb bb bb b1 5b 03 be 61 e5 84 3e
       0.007634023 -0.005731059 -0.12827946 0.25956252
0002d0 e9 f2 b8 b7 d3 8e cd bd 8c 59 82 3e 15 df ed bd
       -2.2047623e-05 -0.10037007 0.25458944 -0.11614815
0002e0 37 a1 63 be 34 bb 08 be aa 0a 3c 3e 5f 0a fa bb
       -0.22229467 -0.13352662 0.18363443 -0.007630631
0002f0 31 fb 61 3e 50 2e 8a 3d 2f 47 01 3e f5 b8 c4 bd
       0.22068478 0.06747115 0.1262481 -0.0960559
000300 38 67 13 be 6b c6 2b 3d ef e5 21 bd 01 0d 9e bd
       -0.14394844 0.041937273 -0.039525922 -0.07717324
000310 f6 f9 a1 3d 16 6a 62 be 69 28 81 3e 9a 0e 20 3e
       0.079090044 -0.22110781 0.25226143 0.1563057
000320 08 e3 b3 bd 95 0c 0d 3d 02 49 1c 3e ca 8d 27 3e
       -0.08783537 0.034435827 0.15262225 0.16362682
000330 3b bd a7 3d 24 52 00 3e 4d bd f6 3d 47 b1 9d be
       0.0819039 0.12531334 0.12047825 -0.30799314
000340 5a a9 bd bd 1a 6b 6d be 17 60 3d 3e e6 d2 e0 bd
       -0.09260817 -0.23185387 0.18493687 -0.10977726
000350 3a 58 a8 3d 31 ac 6f be 96 64 0b bd 96 ba 34 be
       0.08219953 -0.2340553 -0.034031473 -0.17649302
000360 31 f1 5a be 04 e1 5f 3e 00 8c d0 3b bd f8 47 be
       -0.2138107 0.2186318 0.0063643456 -0.1952848
000370 f4 15 81 3e 10 a9 5a 3e b8 df b1 3b 1b 44 31 be
       0.2521206 0.21353555 0.0054282807 -0.17311136
000380 e0 23 0a be 9e a0 d5 3d 12 be 0f be 52 f9 38 3e
       -0.13490248 0.10431026 -0.1403735 0.18063858
000390 4f aa 76 bd d8 e7 07 be 0a 4e 8c 3d 56 04 54 be
       -0.060221013 -0.13272035 0.06850822 -0.20704779
0003a0 dd 49 4c be 84 58 82 3e a8 d9 45 3e 20 5b 03 3e
       -0.19950052 0.25458157 0.1932131 0.1282773
0003b0 de 63 5c 3e 86 e6 2e be eb 0f 16 3e d1 7a b0 bb
       0.21522471 -0.17080125 0.1465451 -0.0053857346
0003c0 01 33 d6 3d ca b9 3e 3d 13 cb 97 3d 71 ea 49 3e
       0.10458947 0.0465639 0.0741178 0.19718339
0003d0 b4 73 ce bd 0d 7a 57 3d 8e 83 34 3d 12 e5 13 be
       -0.10080662 0.05260663 0.044070773 -0.14442852
0003e0 ca 7f 33 3e 98 70 2f be f1 18 89 bb c5 7c 6f 3e
       0.17529216 -0.17132795 -0.0041838815 0.2338744
0003f0 24 be b1 bd 2b f0 77 3e 79 2d 02 be 67 2d 51 be
       -0.086788446 0.2421271 -0.12712659 -0.20427476

fc.bias f4 [8]
000000 fe 52 4b be fc 62 f6 3d 26 84 61 be 83 fd 8f bd
       -0.19855878 0.120305985 -0.22023067 -0.070307754
000010 d5 3e 9c bc 58 1d 60 be e1 70 89 3e 38 8d df bd
       -0.01907293 -0.21886194 0.26843932 -0.10915607
