pre_data/AmazonCoBuyComputer_model_128.pt (torch, 461263 bytes, 4 tensors)

layers.0.bias f4 [128]
-0.03780023 -0.0016392806 -0.054118033 0.018818578 -0.015949622 -0.0706503 -0.000103060906 -0.017314086
-0.052947752 -0.11239994 -0.06960591 -0.080818385 -0.05400774 -0.10553142 -0.06439201 -0.065299734
-0.043508388 -0.059381 -0.07497039 -0.06398615 -0.02999449 -0.064462855 -0.034637827 -0.029595036
-0.046584863 0.023593532 -0.05550434 -0.04565152 -0.069984645 -0.06497369 -0.028466849 0.0031795204
0.010882147 0.029100094 -0.08019199 -0.10688198 -0.054314364 -0.031186359 -0.08989447 -0.070412315
0.01151412 -0.08338712 -0.12990935 -0.04555866 -0.023688167 -0.031370297 -0.16058446 -0.05833137
-0.11502576 -0.12516436 -0.057492465 -0.08156857 -0.08765214 -0.06960436 -0.054532666 -0.09264008
-0.055408265 -0.0267825 -0.09205232 -0.053178668 -0.02151584 -0.09981035 -0.06505581 -0.047140647
-0.05654522 -0.028011044 -0.042218126 -0.049303975 -0.026122017 -0.0589358 -0.040838253 -0.038832225
-0.05230783 -0.08803048 -0.07900237 -0.022619339 -0.07019336 -0.10102985 -0.10857316 0.010146308
-0.05942454 -0.07757302 -0.06895332 -0.02575958 -0.047420353 -0.036339413 -0.084389165 -0.046896614
-0.10128005 -0.05173509 -0.0075203828 -0.060497787 -0.098223664 -0.07399133 -0.04085253 -0.07797095
-0.0839829 -0.07004615 -0.0377565 -0.035334256 -0.03142179 -0.051989593 0.012270172 -0.04888876
-0.03400547 0.03108159 -0.06292513 -0.07995798 -0.08220185 -0.055097148 -0.08700078 -0.041744433
-0.1049912 -0.058598354 -0.0004238519 -0.028989099 -0.06613695 -0.059834108 -0.033552762 -0.03671898
-0.05841171 -0.06429108 -0.045212205 -0.023001175 0.013559798 -0.03416094 -0.11170293 -0.036732964
00000000: 6ad4 1abd 21dd d6ba dfaa 5dbd 6b29 9a3c
00000010: c8a8 82bc 1bb1 90bd 6722 d8b8 45d6 8dbc
00000020: bedf 58bd f131 e6bd 8b8d 8ebd 1c84 a5bd
00000030: 3837 5dbd db20 d8bd f5df 83bd debb 85bd
00000040: da35 32bd 7e39 73bd 138a 99bd 2c0b 83bd
00000050: 01b7 f5bc 1a05 84bd 65e0 0dbd 4a71 f2bc
00000060: c5cf 3ebd 3947 c13c 8558 63bd 17fd 3abd
00000070: 1c54 8fbd ed10 85bd 4f33 e9bc 805f 503b
00000080: 084b 323c 5263 ee3c b33b a4bd f1e4 dabd
00000090: bd78 5ebd 897a ffbc 981a b8bd 5534 90bd
000000a0: b8a5 3c3c dec6 aabd f506 05be b89b 3abd
000000b0: b00d c2bc 247e 00bd 4170 24be e0ec 6ebd
000000c0: a092 ebbd 162b 00be 387d 6bbd 6c0d a7bd
000000d0: f782 b3bd bb8c 8ebd a55d 5fbd 15ba bdbd
000000e0: c7f3 62bd f966 dbbc ed85 bcbd e0d1 59bd
000000f0: fd41 b0bc 5e69 ccbd fb3b 85bd 8d16 41bd
00000100: f69b 67bd 6b77 e5bc eaec 2cbd f7f2 49bd
00000110: d7fd d5bc aa66 71bd 0346 27bd 8a0e 1fbd
00000120: bc40 56bd 5349 b4bd ffcb a1bd 314c b9bc
00000130: 89c1 8fbd bde8 cebd 9b5b debd b33c 263c
00000140: 2567 73bd 9ade 9ebd 6637 8dbd c105 d3bc
00000150: d83b 42bd a3d8 14bd 3ad4 acbd aa16 40bd
00000160: ea6b cfbd 2ce8 53bd 8b6d f6bb 87cc 77bd
00000170: 7d29 c9bd c488 97bd fc54 27bd 3caf 9fbd
00000180: 3aff abbd 5b74 8fbd 8fa6 1abd a7ba 10bd
00000190: 23b4 00bd 0af3 54bd d508 493c 953f 48bd
000001a0: 5249 0bbd d29e fe3c e4de 80bd 02c1 a3bd
000001b0: 7259 a8bd 8cad 61bd 772d b2bd 36fc 2abd
000001c0: a005 d7bd d404 70bd 7038 deb9 8c7a edbc
000001d0: cf72 87bd 9c14 75bd 9f6e 09bd a466 16bd
000001e0: 1e41 6fbd 0bab 83bd 6f30 39bd f66c bcbc
000001f0: ea29 5e3c 58ec 0bbd 81c4 e4bd 4e75 16bd

layers.0.fc_neigh.weight f4 [128, 767]
0.032893173 -0.019386854 0.025832402 -0.14988175 -0.08831977 0.05008315 -0.026308242 0.02175116
0.0051403 0.04922071 -0.07287024 0.07570048 -0.08108197 0.0328072 -0.07706153 0.09332746
0.062418092 0.1372136 -0.053491466 -0.07365307 0.09995911 -0.0777299 0.033162963 0.014163102
-0.041012917 -0.02424465 -0.09534505 -0.06577759 -0.12429516 -0.0058441586 -0.0413619 -0.085253105
0.008705893 -0.16511415 0.047827195 0.08278309 -0.08292684 0.10108105 -0.030886859 -0.0019582857
-0.09468162 -0.0057330476 -0.06911304 -0.116615996 0.041809473 -0.048970815 -0.08449035 0.019024536
0.035894893 -0.13679944 -0.1121412 0.08398699 -0.041834123 0.06924194 0.034561403 -0.042282943
-0.056820896 0.026746584 0.016847441 0.07176193 -0.028570991 -0.17861028 0.0015644246 0.079180405
-0.070391 -0.13119526 0.039620608 -0.07783934 0.008840951 -0.068940416 0.08834935 -0.046891734
-0.060019236 -0.101963125 0.022770392 0.037965782 0.08160435 0.03498386 -0.07910645 -0.028315883
0.025785478 0.028069528 0.052631605 -0.15821831 -0.067192964 -0.13119 -0.05992341 -0.004187804
-0.048392907 -0.004041686 0.055779517 0.117631115 -0.045294512 -0.12737137 0.046367586 0.06799783
0.0033152704 0.016365128 0.022029348 -0.051875103 0.005174472 -0.074368514 0.054357454 0.13286917
0.091906875 0.11473524 -0.01079342 -0.0008399758 0.058985505 0.055348862 -0.13161458 -0.020835007
0.029909246 -0.014597234 -0.068880215 0.0018833483 -0.06786003 0.12680484 -0.1736316 -0.09073562
-0.03924881 -0.03075493 -0.010818594 0.044735983 -0.002977471 0.10995907 -0.078031056 -0.03490902
-0.0656223 0.02556221 -0.10648112 0.028110458 -0.07541102 0.023151513 0.037153237 -0.13577217
-0.06121827 -0.022425383 0.059652586 -0.036427848 0.026669314 0.0014795363 0.023784108 -0.011508076
-0.035250895 -0.00092705525 0.039880782 -0.022804473 -0.03015096 -0.15291043 0.04875759 0.06026636
-0.014284095 -0.116706125 0.039637078 0.044325255 -0.02404244 -0.06866779 0.019065876 0.065094516
-0.0127536 -0.13821092 -0.03467142 0.061207466 0.022270927 0.03758077 -0.035575714 -0.043173928
0.1155213 0.0767076 -0.086881615 -0.09445642 0.009405928 -0.103196844 0.04032685 -0.0034986208
0.095525496 0.13299088 -0.069414526 -0.03416016 -0.006190528 -0.0032675846 0.111366756 -0.00565862
0.06715347 -0.027169006 0.082455084 0.10320481 -0.03981271 -0.046145294 -0.02209939 -0.0847912
-0.05224532 -0.06356646 -0.056935 -0.059291277 0.111194216 -0.10210458 -0.033379663 -0.0020751415
-0.053142563 -0.0035020045 -0.0228441 -0.038105357 -0.0033138625 0.15762413 0.06987219 0.018900251
-0.06569892 0.03164697 0.036659364 -0.08413011 -0.14308344 0.14329301 -0.0072749923 -0.033954684
-0.043221448 -0.017904745 0.011476924 -0.08815842 -0.03200789 0.14557484 -0.16867864 0.02210767
0.02556929 0.01996778 -0.104130395 -0.023616329 -0.15241371 0.017888544 0.080865555 -0.08597973
-0.102134705 0.14254987 -0.028735561 -0.12941188 0.08680692 -0.0518619 0.017258624 -0.056789264
0.030068707 0.110499896 0.043216024 0.04743995 0.10941623 0.05246868 0.10345686 0.044534042
0.034695443 -0.009746419 0.079271376 -0.030302282 -0.08339753 -0.055289347 0.0030161045 0.033349056
00000000: feba 063d 2ed1 9ebc 799e d33c 9a7a 19be
00000010: ffe0 b4bd fd23 4d3d 6284 d7bc 7d2f b23c
00000020: f66f a83b a89b 493d fe3c 95bd da08 9b3d
00000030: 4e0e a6bd d860 063d 6fd2 9dbd 7822 bf3d
00000040: 1daa 7f3d b981 0c3e de19 5bbd 6cd7 96bd
00000050: 5db7 cc3d db30 9fbd e3d5 073d 5b0c 683c
00000060: 29fd 27bd b79c c6bc 4444 c3bd 67b6 86bd
00000070: 768e febd 5b80 bfbb 186b 29bd 2e99 aebd
00000080: 29a3 0e3c af13 29be 73e6 433d 2e8a a93d
00000090: 8cd5 a9bd 9503 cf3d 7006 fdbc 9556 00bb
000000a0: 70e8 c1bd 4adc bbbb 238b 8dbd 5ed4 eebd
000000b0: 6940 2b3d 9f95 48bd 4709 adbd 58d9 9b3c
000000c0: 8606 133d 2715 0cbe 49aa e5bd 5f01 ac3d
000000d0: 425a 2bbd b8ce 8d3d 4290 0d3d e130 2dbd
000000e0: 07bd 68bd a71b db3c a503 8a3c ebf7 923d
000000f0: b60d eabc 9de5 36be 610d cd3a 5629 a23d
00000100: 2829 90bd 0d58 06be 3849 223d 3b6a 9fbd
00000110: a3d9 103c a230 8dbd 81f0 b43d 8c11 40bd
00000120: bbd6 75bd 0bd2 d0bd f988 ba3c 0282 1b3d
00000130: 2e20 a73d 3c4b 0f3d 9002 a2bd b6f6 e7bc
00000140: 113c d33c 11f2 e53c 3d94 573d fb03 22be
00000150: 779c 89bd ac56 06be 4072 75bd d939 89bb
00000160: a437 46bd 1f70 84bb 1079 643d 95e8 f03d
00000170: bd86 39bd a46d 02be f0eb 3d3d 7242 8b3d
00000180: 0245 593b 2910 863c e476 b43c fd7a 54bd
00000190: 9e8e a93b 854e 98bd eca5 5e3d db0e 083e
000001a0: ac39 bc3d 4ffa ea3d e2d6 30bc d231 5cba
000001b0: c99a 713d 7db5 623d f9c5 06be 2dae aabc
000001c0: 3c04 f53c 3d29 6fbc 1211 8dbd afda f63a
000001d0: 33fa 8abd 21d9 013e 7bcc 31be 99d3 b9bd
000001e0: 5cc3 20bd c3f1 fbbc 7940 31bc 143d 373d
000001f0: ad21 43bb 3932 e13d bfce 9fbd c3fc 0ebd
00000200: fc64 86bd d767 d13c c612 dabd e747 e63c
00000210: 1871 9abd 3ea8 bd3c fe2d 183d dc07 0bbe
00000220: 02c0 7abd 70b5 b7bc 4556 743d 5e35 15bd
00000230: 9b79 da3c 00ed c13a e4d6 c23c 5f8c 3cbc
00000240: 3e63 10bd a005 73ba 085a 233d 72d0 babc
00000250: 25ff f6bc 8d94 1cbe 0ab6 473d dcd9 763d
00000260: d607 6abc 9f03 efbd 7d5a 223d 668e 353d
00000270: a7f4 c4bc b3a1 8cbd 0a30 9c3c 4650 853d
00000280: 7af4 50bc 2a87 0dbe 9e03 0ebd aeb4 7a3d
00000290: 8571 b63c 4bee 193d d7b7 11bd 25d7 30bd
000002a0: 6e96 ec3d e018 9d3d fdee b1bd 5e72 c1bd
000002b0: 521b 1a3c de58 d3bd c42d 253d 1e49 65bb
000002c0: dfa2 c33d c32e 083e 3429 8ebd 86eb 0bbd
000002d0: ead9 cabb f924 56bb 4114 e43d f26b b9bb
000002e0: c287 893d 8991 debc 36de a83d 0b5d d33d
000002f0: a712 23bd d902 3dbd c809 b5bc 02a7 adbd
00000300: 30ff 55bd 222f 82bd ad34 69bd 69db 72bd
00000310: cbb9 e33d 351c d1bd 1db9 08bd 19ff 07bb
00000320: 04ac 59bd e381 65bb 8d23 bbbc 5d14 1cbd
00000330: 632d 59bb 3868 213e 2719 8f3d b3d4 9a3c
00000340: 288d 86bd 41a0 013d 2128 163d 684c acbd
00000350: 7784 12be 67bb 123e 0f63 eebb 1114 0bbd
00000360: f908 31bd f9ac 92bc b509 3c3c 678c b4bd
00000370: b51a 03bd 9211 153e 18ba 2cbe 251b b53c
00000380: b076 d13c 7893 a33c 5142 d5bd 0877 c1bc
00000390: 5712 1cbe ff8a 923c d79c a53d 2416 b0bd
000003a0: 002c d1bd 98f8 113e d766 ebbc 8c84 04be
000003b0: d4c7 b13d 256d 54bd f561 8d3c dc9b 68bd
000003c0: a652 f63c c54d e23d 4903 313d 6550 423d
000003d0: 9e15 e03d 66e9 563d 31e1 d33d 5469 363d
000003e0: cf1c 0e3d 72af 1fbc 0859 a23d 7e3c f8bc
000003f0: 53cc aabd 1577 62bd d6a9 453b 0599 083d

layers.1.bias f4 [128]
-0.03441615 -0.044391982 0.0154033 -0.05048684 0.025775146 0.0053114323 0.006936394 0.011279888
0.057730407 0.002286323 0.002632866 -0.009147529 0.018999597 -0.016753225 -0.0006126329 -0.006228187
-0.020265454 0.017992886 0.03212627 0.0051636705 0.023973918 0.007387341 0.011982698 0.015319567
-0.03842163 0.021593178 0.0028642192 0.031650614 0.01015385 -0.0722158 0.063734114 0.02415864
-0.0033581136 0.040777616 -0.013351776 -0.0124138985 0.04798712 0.023089226 0.029937986 0.017744053
-0.038032833 0.030968526 -0.020009011 -0.056441594 -0.026465937 -0.027409533 0.03330701 0.031097531
-0.015067494 0.014750841 -0.06374246 0.000695896 -0.032451805 -0.021634258 0.0055686296 0.0070446194
0.023184076 0.004509291 -0.017391976 -0.02516473 -0.0074423514 -0.009868192 0.001736836 -0.0077993674
-0.010082959 0.022565374 0.013605516 0.0044633625 -0.03693133 0.007699804 -0.019221095 0.06417944
-0.049865846 0.058886033 -0.019513682 -0.021592759 -0.030102445 0.0018174323 0.040030506 -0.06091452
0.018032782 -0.014720633 -0.011628283 -0.061240405 -0.013332549 0.016221868 -0.014971657 0.0022533224
0.009047505 0.0029357015 0.03159569 0.032555394 0.045397572 -0.0084587755 0.00027702076 0.017227821
-0.04851408 -0.0073698764 0.011756958 0.001220961 -0.042058565 0.034136668 -0.037451643 0.04702287
-0.037887637 0.032016587 -0.0012653348 0.020796876 0.02773875 0.040369477 0.04476238 -0.018521152
-0.047634125 0.0232619 -0.048930176 0.0126348175 -0.023542827 -0.0052637863 -0.025556017 0.0023873267
0.046990607 0.050120585 0.016302882 -0.018318018 -0.07180292 -0.033237115 -0.010958759 0.0072788424
00000000: f3f7 0cbd 5ed4 35bd 1f5e 7c3c 4acb 4ebd
00000010: 6626 d33c 860b ae3b b14a e33b 48cf 383c
00000020: b876 6c3d 23d6 153b 298c 2c3b 84df 15bc
00000030: 0ba5 9b3c 0f3e 89bc 1999 20ba d215 ccbb
00000040: bd03 a6bc d165 933c d696 033d 0234 a93b
00000050: f364 c43c 8211 f23b 1453 443c ecfe 7a3c
00000060: 0060 1dbd 2de4 b03c a0b5 3b3b 13a4 013d
00000070: 555c 263c e1e5 93bd 0887 823d 57e8 c53c
00000080: cc13 5cbb 6e06 273d 68c1 5abc aa63 4bbc
00000090: 248e 443d 9e25 bd3c 8240 f53c fa5b 913c
000000a0: 51c8 1bbd b5b1 fd3c f0e9 a3bc 4d2f 67bd
000000b0: 18cf d8bc f589 e0bc ee6c 083d 40c0 fe3c
000000c0: a6dd 76bc 83ad 713c 688b 82bd ca6c 363a
000000d0: 2fec 04bd 543a b1bc 0d79 b63b 8dd6 e63b
000000e0: 88ec bd3c adc2 933b 9e79 8ebc 4426 cebc
000000f0: f8de f3bb 32ae 21bc 8ca6 e33a d691 ffbb
00000100: ff32 25bc 05db b83c ace9 5e3c 6641 923b
00000110: 4e45 17bd a34e fc3b 8f75 9dbc 8370 833d
00000120: 2140 4cbd 7b32 713d 28db 9fbc 4ce3 b0bc
00000130: 6799 f6bc e936 ee3a 07f7 233d 8181 79bd
00000140: 7cb9 933c cf2e 71bc 8e84 3ebc 38d7 7abd
00000150: c370 5abc b9e3 843c ae4b 75bc 7aac 133b
00000160: fd3b 143c e664 403b 7b6a 013d ce58 053d
00000170: cef2 393d ad96 0abc 193d 9139 5c21 8d3c
00000180: b3b6 46bd 017f f1bb 42a0 403c a708 a03a
00000190: 9a45 2cbd e4d2 0b3d e566 19bd 0e9b 403d
000001a0: 1130 1bbd d323 033d 97d9 a5ba 365e aa3c
000001b0: 603c e33c 775a 253d c258 373d acb9 97bc
000001c0: 001c 43bd bd8f be3c 026b 48bd 4402 4f3c
000001d0: e3dc c0bc d77b acbb da5a d1bc b274 1c3b
000001e0: 3979 403d 3e4b 4d3d 9f8d 853c ab0f 96bc
000001f0: 690d 93bd a423 08bd 5e8c 33bc 5b83 ee3b

layers.1.fc_neigh.weight f4 [128, 128]
-0.13279532 0.10397779 -0.034036726 -0.062236506 -0.14700535 0.03057641 0.13076799 -0.04290413
0.14373764 -0.121391706 0.015141305 -0.13220231 -0.08035866 -0.070633255 0.07985871 0.04539856
-0.13043897 0.05047937 0.110939525 0.0034566089 0.16726838 0.06758132 0.016688451 0.19788359
0.10655217 0.2020411 0.055531535 0.029029809 -0.07813192 0.050281707 0.08337723 -0.057921812
0.108435266 0.23706776 0.072106116 -0.0824142 -0.014959174 0.04209995 0.019861188 0.10038488
0.027794726 -0.08714497 -0.03352996 -0.18847008 0.1267725 0.12831295 -0.02846283 0.06257183
0.09182698 0.16635886 0.13492854 -0.15378192 -0.08476322 -0.11367564 -0.16148888 -0.11821063
0.01669574 -0.06434764 -0.03372096 -0.1801845 -0.12338887 -0.09167998 -0.014290886 0.045613635
0.034620564 -0.06165874 -0.13278346 0.025331086 -0.12395258 -0.106803745 -0.1061048 -0.024377415
0.03722906 0.14329068 -0.010463357 0.15211341 -0.067953125 0.025485715 -0.17928946 0.031196142
-0.029251968 0.022176595 -0.09060718 -0.23328981 -0.19968836 -0.17141859 0.00605575 0.038672667
0.13135052 0.12810199 -0.10835648 -0.13861388 0.20289773 0.15189344 0.029454181 -0.110830076
0.027634218 -0.1377356 0.056690834 -0.11144173 0.033817016 0.072995596 -0.14539915 -0.083482355
0.05325894 0.017066054 -0.14608948 0.1354296 0.015098202 0.10346648 -0.038318913 0.06097068
-0.19848415 -0.12896052 0.023669785 -0.0768674 0.052780334 -0.07637811 0.1909192 -0.0015641251
0.011731777 -0.14740501 0.03948482 0.10444255 0.1386154 -0.00731556 0.06253506 0.103927396
-0.040919684 -0.18367119 -0.11969789 0.097041234 -0.032510985 0.010077635 0.13068897 -0.09973265
-0.040572837 -0.06992745 -0.047268804 0.07002254 -0.026102182 0.1796375 0.168868 -0.014182974
0.04442481 -0.20812193 -0.06092801 0.028292371 0.14383405 0.16776925 0.08122896 0.07217653
-0.04891049 -0.07998722 -0.1501362 -0.11122614 0.052959524 0.09109673 -0.07514143 -0.07664146
-0.070347995 -0.115066126 -0.05721413 0.11589747 -0.117400646 0.21683337 0.114498414 -0.11971533
0.092028335 0.065181114 -0.08228039 0.03320453 -0.054128252 0.019539488 -0.081107184 0.17657237
-0.0039946428 0.17272595 -0.06254351 0.045592844 -0.23824227 -0.061499346 0.13500793 -0.1644185
0.090810075 -0.09123199 0.17114207 -0.03866715 -0.06414584 0.10529757 -0.0066813906 0.07946611
-0.09957342 0.010149335 0.16004407 -0.17337973 0.0074553844 -0.045284525 0.04322709 0.032206878
-0.030235555 0.035245657 0.0010569625 0.019986384 0.04814484 0.017784208 -0.11073051 -0.245924
0.09501676 0.10792124 0.08085958 0.13144276 0.08894101 0.01502062 0.0315687 -0.09126816
-0.077751495 0.14526106 0.11083551 0.16372322 -0.048068464 -0.23071136 -0.19111718 -0.08899281
-0.2362555 0.034929544 -0.040391304 0.06707779 -0.22801514 -0.024997422 -0.04251375 -0.011864832
0.063122414 0.040707678 -0.19557789 0.13305661 -0.031165447 -0.104040965 0.034221176 -0.09430274
-0.12464603 -0.19054328 0.0853395 -0.17290919 0.094788484 -0.014778183 0.16889422 -0.0777737
-0.12838292 0.13260023 0.13224453 -0.052000288 0.03828753 0.015114954 0.06693857 -0.05543862
00000000: 7ffb 07be 4ff2 d43d 186a 0bbd b5eb 7ebd
00000010: 9288 16be 617b fa3c 0be8 053e 3ebc 2fbd
00000020: f62f 133e 379c f8bd 3c13 783c 0b60 07be
00000030: 1593 a4bd 2ba8 90bd f78c a33d d7f3 393d
00000040: cb91 05be 75c3 4e3d 4334 e33d 4688 623b
00000050: 6748 2b3e 1368 8a3d 38b6 883c ffa1 4a3e
00000060: 0638 da3d dde3 4e3e 0975 633d eccf ed3c
00000070: a103 a0bd 31f4 4d3d aec1 aa3d 6c3f 6dbd
00000080: 4f13 de3d e4c1 723e 5fac 933d c7c8 a8bd
00000090: 5317 75bc ff70 2c3d eeb3 a23c 9796 cd3d
000000a0: c4b1 e33c 1079 b2bd b656 09bd 4dfe 40be
000000b0: a6d0 013e 7864 033e e22a e9bc a925 803d
000000c0: c90f bc3d fa59 2a3e b52a 0a3e 0279 1dbe
000000d0: 5798 adbd c6ce e8bd 575d 25be 6a18 f2bd
000000e0: 81c5 883c b2c8 83bd fd1e 0abd 4982 38be
000000f0: 4eb3 fcbd b7c2 bbbd 5224 6abc 5dd5 3a3d
00000100: 4bce 0d3d e08d 7cbd 63f8 07be 2383 cf3c
00000110: dada fdbd ecbb dabd 794d d9bd 25b3 c7bc
00000120: 807d 183d cbba 123e 806e 2bbc 9ec3 1b3e
00000130: 022b 8bbd 6bc7 d03c a897 37be 0d8f ff3c
00000140: d3a1 efbc b1ab b53c 4290 b9bd 86e3 6ebe
00000150: 1b7b 4cbe 5b88 2fbe 506f c63b 3b67 1e3d
00000160: c080 063e 2b2d 033e 01ea ddbd ccf0 0dbe
00000170: 6cc4 4f3e f489 1b3e e549 f13c e1fa e2bd
00000180: 2861 e23c 900a 0dbe a634 683d 903b e4bd
00000190: b683 0a3d b77e 953d 84e3 14be ccf8 aabd
000001a0: 0c26 5a3d 1cce 8b3c 7b98 15be 0fae 0a3e
000001b0: 735e 773c 3ce6 d33d 4bf4 1cbd 64bc 793d
000001c0: 6e3f 4bbe 3a0e 04be 23e7 c13c a86c 9dbd
000001d0: 3130 583d 206c 9cbd 5380 433e 5403 cdba
000001e0: a436 403c 57f1 16be d6ba 213d fae5 d53d
000001f0: 32f1 0d3e 5db7 efbb 6212 803d e3d7 d43d
00000200: 669b 27bd 4d14 3cbe 2b24 f5bd 8ebd c63d
00000210: 3d2a 05bd aa1c 253c 54d3 053e a240 ccbd
00000220: b42f 26bd 1f36 8fbd ef9c 41bd fa67 8f3d
00000230: 3ed4 d5bc e5f2 373e bceb 2c3e b45f 68bc
00000240: caf6 353d ea1d 55be a68f 79bd 67c5 e73c
00000250: 3c49 133e b4cb 2b3e 5e5b a63d 4ad1 933d
00000260: 5e56 48bd 57d0 a3bd 4ebd 19be 88ca e3bd
00000270: 16ec 583d ec90 ba3d c0e3 99bd 33f6 9cbd
00000280: 9c12 90bd caa7 ebbd 5d59 6abd a75b ed3d
00000290: c06f f0bd 9109 5e3e 257e ea3d 502d f5bd
000002a0: 5a79 bc3d ad7d 853d 9f82 a8bd 7901 083d
000002b0: 96b5 5dbd 4711 a03c 861b a6bd 63cf 343e
000002c0: 7ee5 82bb 12df 303e d016 80bd 90bf 3a3d
000002d0: c8f5 73be bde6 7bbd 853f 0a3e 535d 28be
000002e0: a2fa b93d d6d7 babd de3f 2f3e 7261 1ebd
000002f0: e55e 83bd 41a6 d73d 91ef dabb 21bf a23d
00000300: 26ed cbbd 6549 263c 98e2 233e 758a 31be
00000310: 4c4c f43b 447c 39bd e40e 313d 5ceb 033d
00000320: 8eb0 f7bc c05d 103d c789 8a3a 7cba a33c
00000330: 8633 453d 30b0 913c adc6 e2bd 80d3 7bbe
00000340: 2698 c23d d005 dd3d b599 a53d ee98 063e
00000350: b426 b63d 0c19 763c 2e4e 013d cdea babd
00000360: 2d3c 9fbd 51bf 143e bafd e23d 0fa7 273e
00000370: 70e3 44bd 993f 6cbe 39b4 43be dd41 b6bd
00000380: f6ec 71be 4812 0f3d 5a71 25bd 1560 893d
00000390: cd7c 69be 65c7 ccbc e622 2ebd b664 42bc
000003a0: 5346 813d 18bd 263d 9245 48be fe3f 083e
000003b0: ae4e ffbc 6e13 d5bd 812b 0c3d cc21 c1bd
000003c0: 6b46 ffbd c71d 43be 7ac6 ae3d 1b0f 31be
000003d0: 7720 c23d 3120 72bc 9bf2 2c3e d147 9fbd
000003e0: d076 03be 5bc8 073e 1c6b 073e 41fe 54bd
000003f0: 63d3 1c3d b6a4 773c 1717 893d 9b13 63bd
