pre_data/cora_infomax_model_128.pt (torch, 821925 bytes, 6 tensors)

layers.0.bias f4 [128]
00000000: f378 663c 2649 11bc a3f3 5dbb eae0 33bb
00000010: b8dc 5d3c 8d9f 6b3c b9dc 6e3c 55fc f3bb
00000020: 9b5b 623c ff4e 94bb 6bf1 3a3c 1b06 413b
00000030: 3406 08bc e359 1fbc 1711 873c 6e76 623c
00000040: 7cef 0bbc 29e1 9d3b a977 963c 1b2c 00bb
00000050: caeb 0ebc 3769 02bc b376 28bc 0c13 693c
00000060: 0656 1bbc a153 8d3c 1839 983c 28ac 10bc
00000070: 9f19 0b3c dfbd 863c bce9 7f3c c22e 423b
00000080: 6b7d dcbb 7ebe 843c cf7f 07bc b07a 6a3c
00000090: 0deb 353c a31b e1bb 7705 29bc d01f 813c
000000a0: 4a4b 913c 4900 ceba d956 1dbc 6b01 bdbb
000000b0: a0f5 943c 8bfe 813c 345f 933c 2042 bcbb
000000c0: 730b 2fbc 9aa4 b6bb 325a 453c 0645 2fbc
000000d0: ac2e 1bbc 5781 983c 6423 bebb 2142 ed3b
000000e0: cd1c f43b 5401 783c 4478 723c 9b46 a3bb
000000f0: 2e69 c8b9 f5c5 16bc 853e f83b 830e 773c
00000100: 1d17 06bc 5565 b6bb 7c7f 783c b991 d0bb
00000110: a715 563c 8535 5c3c f468 c5bb faa5 923c
00000120: 79d2 b73b 4a46 59bb 89b8 4a3c c545 34bc
00000130: bbea 8b3c 9deb 7c3c 3f8c 8bbb 031a a63b
00000140: bf91 8a3c dc7f 853c cf33 96bb 955c 633c
00000150: b92c 8ebb 5398 963c ce43 8b3c 29af 743c
00000160: 44c0 6e3c 60d7 6b3c b0fb 8b3c 3b77 8e3c
00000170: 6667 f5bb ef90 333b bd56 b4bb 95b9 6e3b
00000180: bf80 363b 98df 3d3c cbcb 7b3c d694 833c
00000190: ecc1 ee3a cbc1 663c 5652 a5bb 584c 0ebc
000001a0: 5698 833c 533b 213c 721b 873c 131b 5b3c
000001b0: d5c7 dfbb 97b4 2dbc 7d1e 0fbc c9f6 00bc
000001c0: ae80 6b3c d197 7e3c bbde febb ecf5 723c
000001d0: ab4a 1bbc f868 853c 5423 8e3c 6445 9bba
000001e0: 086a d8bb 5ed7 733c ac8a 883c 816f 513c
000001f0: 55fa 6b3c c8da 40bc 34b0 673c 9556 763c
0.0140669225 -0.008867538 -0.0033867143 -0.0027447292 0.013541393 0.014381302 0.014578992 -0.007445852
0.013815786 -0.0045260186 0.011410098 0.0029453102 -0.00830226 -0.0097260205 0.016487641 0.013822181
-0.008540984 0.004818101 0.018367605 -0.001955754 -0.008723209 -0.0079596555 -0.010282206 0.014225733
-0.009480959 0.017251791 0.018581912 -0.008830108 0.008489995 0.01644796 0.015619691 0.002962992
-0.006728818 0.016204115 -0.008270218 0.014311478 0.011103404 -0.0068697496 -0.010316244 0.01576224
0.017736096 -0.0015716638 -0.009603226 -0.0057679913 0.01818353 0.015868446 0.017989732 -0.0057451874
-0.010683882 -0.0055738213 0.01204543 -0.010697609 -0.009471577 0.018616362 -0.0058025587 0.007240549
0.0074497224 0.015137035 0.014799181 -0.004982782 -0.00038225338 -0.00920247 0.0075758123 0.015079143
-0.008184222 -0.005566279 0.015167113 -0.0063650277 0.013066686 0.013440494 -0.0060244743 0.01790141
0.005609807 -0.0033153468 0.012373098 -0.0110029625 0.017079702 0.015437034 -0.004258662 0.005069019
0.0169152 0.01629632 -0.004583813 0.013877054 -0.0043388274 0.01838318 0.017000105 0.01493434
0.014572207 0.014394611 0.017087787 0.017390838 -0.0074891327 0.002739962 -0.005503504 0.0036426533
0.0027847735 0.011588953 0.015368412 0.016062181 0.0018215752 0.01408429 -0.0050452156 -0.008685194
0.01606385 0.009840804 0.01649258 0.013373154 -0.0068292418 -0.010602138 -0.008735296 -0.007871338
0.014373941 0.015539126 -0.0077780164 0.01482914 -0.009478251 0.016285405 0.01735083 -0.0011846242
-0.006604437 0.0148828905 0.016667686 0.012782932 0.0144029455 -0.0117709115 0.014141131 0.015035291

layers.0.fc_neigh.weight f4 [128, 1433]
00000000: da9f 823d 8c1b 373d eb92 83bd 1127 2c3d
00000010: fba5 01bd 8edb 91bd 707c 553d 3064 cdbc
00000020: 0b73 e8bc 7df4 82bd e66b 6abd 085e 573d
00000030: b8a2 2d3c 3a67 d8ba 1513 b03b 27db 85bd
00000040: f18e d53c 36d7 733c c488 84bd 4c33 8a3c
00000050: 8789 90bd fea0 9b3b 8b1c 45bd 9b52 723d
00000060: dd80 cabb b961 88bc 83ec 603d 2a7b 703d
00000070: 5439 fb3c 1de5 45bd efc4 c3bc 61aa 91bd
00000080: 512c 0a3c 438b 12bd 3ffb 6f3d bd42 053d
00000090: e9f7 69bd 6ef9 02bb bfed 94bd 1da4 8abb
000000a0: 93b2 14bd a260 893d 4748 08bb a9c5 213d
000000b0: 5508 053d 64d7 1dbb a5f5 313d cad4 2c3c
000000c0: 9d03 89bd 1cd3 733d 9718 89bd 4a59 adbc
000000d0: 15bc 3f3d dfc4 20bd 152c aabc 2301 8abd
000000e0: 261a 853c d69a 033c 9fa6 903d 9b00 af3b
000000f0: 9799 ecbb 99a4 12bc 80b0 1abc fe55 403b
00000100: eafa 8dba c9ad 053d 09d3 183d b797 2f3c
00000110: 320a 623d 0db5 ba3a 6e31 663a d3c4 9ebb
00000120: 0492 393d 0d7e 80bd dcda 393d 66cc b33b
00000130: 1476 773c 49a6 66bc 8efa 8cbd 1bb2 3d3d
00000140: 4ec8 6abd 6ccb 883b 7701 b3bc 6128 903d
00000150: 55a6 66bc f9ac c33c b79b 933d 6aae 813d
00000160: 0f63 91bd 41f1 f4bb 3537 43bc c110 b13c
00000170: 1210 f63c 0880 8fbd 8b18 2dbc 5fec 5bbc
00000180: cfd2 25bd af54 81bc 8e10 f33b 7b60 733c
00000190: e600 203d e199 a83b 5a7b 173c 4c88 68bd
000001a0: aaf5 24bc 37ea 503d 036b 733d cf39 2c3d
000001b0: d3fa 2ebd b43a 42bd 4792 16bc cdc5 a93b
000001c0: f245 903d 6c83 583c fe08 45bc bdf8 05bd
000001d0: 160e 79bd 7d13 913d 2a50 50bd 5e45 5c3d
000001e0: baa3 733d 7fc9 0d3d faaa 883d d51a 5e3d
000001f0: 461a 353c 7437 223d 1cc5 70bd fc9c 7dbd
00000200: 8f1f 903d c4a4 3abd ea4b 1e3d c64e 853d
00000210: 76df 783d 495c 5dbb 69f7 2dbd df21 543c
00000220: 23f4 c2bc 117b f8bb 267e 653d 27ea 49bd
00000230: af1d 95bb 6aaf b4bc f84c 4abd b132 0b3d
00000240: 855f 74bd 5d4a 1d3b 68b9 2e3d 65b7 3b3c
00000250: 2f04 edbc d407 88bd f069 8fbd 9564 56bc
00000260: 88ca 0abd c441 f1bb fdde 573d 266f 543d
00000270: 0250 00bd 3917 83bd eae9 8b3d cc60 803c
00000280: 1909 703d c336 63bc c6ba 12bd 5996 09bd
00000290: 6cdb 6abd 3069 733d 8103 523d 4709 a13a
000002a0: 4ab0 d33c 2bb2 4ebd 1ad6 403d c0d5 873d
000002b0: ca6b 143d ce20 673b 18a4 65bd 37b2 5ab8
000002c0: 842a a93c 56b9 b7bc ea8e 10bc 50b1 2a3d
000002d0: 2ade a0bc 3175 6bbc 664f 61bd e931 883d
000002e0: b275 223d 6693 3e3d 5a99 4dbd 5c0d 063d
000002f0: b299 6e3c fc01 453b c07c 5ebd 079f 2dbd
00000300: 6659 8ebd 0b27 9abc c4c4 11bd dc3a 353d
00000310: c7a4 8dbd ba6f 52bd a937 ffbc 19fb 813c
00000320: ed00 d13c a4bd 063c 1179 19bc 88a8 6abd
00000330: 937d ebbc fc32 8d3d 28e9 063d 48c1 29bc
00000340: fd72 f73b 8892 f63a 2585 4a3b d2b2 01bd
00000350: 2f3f 89bd e06c 033c 458e 87bd 302b 863d
00000360: 1743 86bd 79f6 913d 2c1b 58bc b1ee e5bc
00000370: 575a 753c 400d 153d 86d3 d5bb 05b6 20bd
00000380: 6758 343c 16af d3bc ee47 25bd 8959 d1bc
00000390: 154e 5fbd 54c0 c6bc a181 92bd fdcb 49bd
000003a0: 9133 1abd 4b77 053d a1e9 8e3d b9ce be3c
000003b0: 9d4b 093c 8b9d 923b 7003 0ebd a961 073d
000003c0: cc3b c6bb 8f72 3cbd 7f4d b9bc a211 513d
000003d0: 08a1 73bc fea8 0dbd c959 ab3c 27e8 933c
000003e0: d283 2f3c e398 4c3d c3c8 773c 106d 82bd
000003f0: 4bed 643d 4d36 733d 5d39 b93c 4bf6 8a3c
0.063781455 0.044704005 -0.06424507 0.042029444 -0.031652432 -0.07121955 0.052120626 -0.025072187
-0.02837517 -0.06394289 -0.057231806 0.05257991 0.010597877 -0.0016510256 0.0053733685 -0.065359406
0.026069136 0.014882853 -0.064713985 0.016870163 -0.07057481 0.0047494164 -0.048122924 0.05916081
-0.0061799125 -0.01664816 0.054913055 0.05871121 0.030666985 -0.048314203 -0.023897616 -0.07112575
0.008433417 -0.03577734 0.058589216 0.03253435 -0.05712119 -0.0019985097 -0.07271909 -0.0042309896
-0.036303114 0.06707884 -0.0020795034 0.039495144 0.03247865 -0.0024084682 0.043447156 0.01054878
-0.06690142 0.0595275 -0.06694143 -0.02116074 0.04681023 -0.03925025 -0.020772973 -0.06738498
0.01624782 0.008032521 0.070630305 0.0053406483 -0.007220458 -0.008950376 -0.009441495 0.002934813
-0.0010832225 0.032636438 0.037310634 0.010717324 0.055185504 0.0014244631 0.00087811693 -0.0048452406
0.045305267 -0.06274042 0.045374736 0.0054870127 0.015103836 -0.014077731 -0.06883727 0.046312433
-0.05731993 0.0041746404 -0.021851284 0.07038952 -0.014077743 0.02388619 0.072074346 0.06332095
-0.07098972 -0.007475049 -0.011915018 0.021614434 0.03003696 -0.07006842 -0.0105649335 -0.0134230545
-0.040484246 -0.01578745 0.007417745 0.014854546 0.039063357 0.005145297 0.009245718 -0.056770608
-0.0100683365 0.051004615 0.059428226 0.042047318 -0.042719673 -0.047419265 -0.009190149 0.0051810504
0.07044591 0.013214927 -0.01202607 -0.03270792 -0.06080445 0.07083795 -0.0508577 0.05377709
0.059482314 0.03461599 0.06673236 0.054224808 0.011053627 0.039603665 -0.05878173 -0.06191729
0.07037269 -0.04556729 0.038646616 0.065091655 0.060759984 -0.003377693 -0.042472277 0.012947529
-0.023798054 -0.00758303 0.056028508 -0.04929557 -0.0045506577 -0.0220563 -0.04938981 0.03398389
-0.059661407 0.0024000623 0.042657286 0.011457299 -0.028932659 -0.06642118 -0.07002628 -0.013085504
-0.033884555 -0.007362576 0.052702893 0.051863812 -0.0313263 -0.06400914 0.06831725 0.015671156
0.058602426 -0.013868037 -0.035822652 -0.03359065 -0.057338163 0.059426486 0.051272873 0.001228609
0.025840897 -0.050462883 0.047079183 0.066325665 0.03623561 0.0035267356 -0.056064695 -5.2141226e-05
0.020650156 -0.022427242 -0.008823136 0.041673005 -0.019637186 -0.014371202 -0.05500736 0.066501446
0.039663024 0.04652729 -0.050195076 0.032727584 0.014563011 0.0030060997 -0.05431819 -0.04238799
-0.06950645 -0.018817445 -0.03558804 0.044245586 -0.069161944 -0.051376082 -0.03115447 0.015866803
0.025513137 0.008223925 -0.009367243 -0.05728963 -0.028746402 0.0689449 0.0329372 -0.010361023
0.0075515495 0.001881198 0.0030902114 -0.031664677 -0.067015044 0.008021563 -0.06618933 0.06551206
-0.06555765 0.07127089 -0.013190072 -0.028067918 0.014975152 0.03638959 -0.0065254597 -0.039236087
0.011007405 -0.025840323 -0.0403518 -0.025555389 -0.054517824 -0.024261631 -0.07153631 -0.049266804
-0.037646834 0.03258447 0.06978155 0.023291932 0.008379844 0.004474347 -0.034671247 0.03305212
-0.006049609 -0.04600769 -0.02261996 0.051042207 -0.014869936 -0.03458499 0.020916836 0.018055035
0.010712581 0.04995049 0.015123549 -0.06368458 0.055890363 0.059377957 0.02261036 0.016963145

layers.1.bias f4 [128]
00000000: 5d6f 27bc e452 8fbb f145 683c 940b 173c
00000010: 8d5b 5d3c 51e8 ca3a 646e 4abb 078a 69bb
00000020: e536 0c3c 186d 56bc 7d64 3e3c cb1d 5b3c
00000030: 033e 5c3c fdeb 3dbc f7f9 c6bb 34ea 81bc
00000040: 1fe5 4fbb 93a3 4e3c 2798 373c 7822 f7bb
00000050: eb6c 6dbc 7f95 ffbb 1ec1 b5bb 38ae 463c
00000060: 79ce 1d3a c6f2 65bc 85d2 623c c33a ddbb
00000070: c1a0 373c c4c3 483c 01d6 e63a 9198 4cbc
00000080: a507 4ebc 8bd0 593c 9748 55bc dad5 423c
00000090: 310e 4dbc 2cc3 4c3c cdf6 44bc dc61 4c3c
000000a0: 0e20 69bc e6a8 803c 2cf6 0cbb d12a 763c
000000b0: b354 353c 885c 39bc 9e67 40bc 2cf5 bf3b
000000c0: ba61 51bc 1d55 773c 6384 4d3c ee01 883c
000000d0: ed1e 4bbc 7224 cabb af74 343c ee6c 843c
000000e0: 4e7b 2e3c aa8f 3cbc 873d 543c 4ded 7e3c
000000f0: 103d acbb 6053 5b3c 47fd 3e3c 7ccd 7cbb
00000100: dbd9 5f3c 2d79 7f3c e2c5 afbb 6167 2a3a
00000110: cd1d 6e3c 7de9 4c3c 540b 0ebc 6f6e 683c
00000120: 53ed 803c 8fb3 38bc 56fc 85bc 830b 2c3c
00000130: bf9d 553c af5f 62bc 9bba 4fbc 148b 41bc
00000140: aed1 69bc 5cb8 6c3c 3a86 463c c21b c1bb
00000150: 45c7 25bc 1aac 493c 054c f1bb df59 733c
00000160: 6705 28bc ae66 7e3c d60d 1f3c 956e 2e3c
00000170: 5499 4e3c 5fae 57bc 1926 3d3c 19ad 7e3c
00000180: 803d 2cbc 9c13 4b3c 6a9c 2ebc 9776 6bbc
00000190: 10be 423c 8399 8ebc e3bc c23b ec66 66bc
000001a0: f8b8 603c 094f 2bbc 73b8 313c f319 7a3c
000001b0: f20d 793c b23d 6e3c 21a9 45bc 3456 7f3b
000001c0: b416 1fbc 7241 83bc 014e 2c3c 06d0 6bbc
000001d0: cb77 553c 38d1 f6bb 8841 48bc ae1f 513c
000001e0: 8b7e 643c 8861 5bbc badc 49bc 80be 3bbc
000001f0: b57c 0ebc 4a0a e23a 7e8a 78bc b47b 613c
-0.010219422 -0.004373895 0.014176832 0.009219069 0.013510597 0.0015480613 -0.0030888552 -0.003563525
0.00855801 -0.013087533 0.011620638 0.013373802 0.013442519 -0.0115919085 -0.0060722786 -0.015858747
-0.003172226 0.012612241 0.01120571 -0.007541951 -0.0144913 -0.0077998037 -0.005546703 0.012126498
0.00060198415 -0.0140349325 0.013844137 -0.0067513897 0.01120776 0.012253705 0.0017611386 -0.012487547
-0.012575065 0.013294349 -0.013017795 0.0118918065 -0.0125155905 0.0124977045 -0.0120217325 0.012474503
-0.014228834 0.015705537 -0.0021509035 0.015024857 0.011067557 -0.011313565 -0.011743454 0.005858084
-0.0127796475 0.015095976 0.0125437705 0.016602483 -0.01239751 -0.0061688954 0.011014148 0.016165223
0.010649515 -0.011508862 0.012954122 0.015559507 -0.0052563027 0.013386577 0.011657066 -0.0038574627
0.013662781 0.015592855 -0.0053641656 0.000650039 0.014533472 0.01250684 -0.008669693 0.014186486
0.015738165 -0.011273279 -0.016355675 0.0105007915 0.013038098 -0.013816758 -0.012678768 -0.011812944
-0.014271183 0.014448252 0.012116963 -0.0058932016 -0.01011831 0.012309099 -0.0073637986 0.01485297
-0.010255194 0.01552741 0.009707889 0.010646482 0.012609798 -0.013164132 0.011544728 0.015544199
-0.01051271 0.012394812 -0.010657409 -0.014371536 0.011886135 -0.017407184 0.005942927 -0.014062624
0.013715975 -0.010455855 0.010847199 0.015264976 0.015201079 0.0145410765 -0.012064249 0.0038961293
-0.009710003 -0.016022418 0.010516644 -0.014392858 0.013029049 -0.007532265 -0.012222655 0.012763901
0.013946186 -0.0133899525 -0.012320692 -0.011458993 -0.008696725 0.0017245498 -0.015169738 0.013762403

layers.1.fc_neigh.weight f4 [128, 128]
00000000: 85e1 1a3e 76f1 adbd ee04 8cbd f9d6 64bd
00000010: c3c3 efbd bc95 2abe cef8 243e 588a 3dbe
00000020: 7d32 4b3e 6da9 03bd ccc9 a8bd a008 33be
00000030: 585f 34bd e737 fcbd c78f 0cbe 0723 57bd
00000040: 99a8 123e 1eb8 da3d e403 11be a9b8 0bbe
00000050: 0eff 21bd 12fe 533d 8e6c 923d d740 473e
00000060: 5495 bd3d 6f1f 41be 62bb 25be aa7f 40be
00000070: 251e 75bc 452d bc3b 2572 c8bd d14f 30be
00000080: 27bc fcbc 8d3b 83bc 5b67 8c3d 1059 c6bd
00000090: 8a66 f6bd 990c 653d 9fd1 0c3e f4c7 c5bd
000000a0: 23da 1b3e 551c 163e 65c2 963d a7ce 2abe
000000b0: 0d89 e73d d60f dabc 99d7 423e d7ff 42bd
000000c0: 0703 1bbe 4baf 143e ac0d 73bc 6d5b 0b3e
000000d0: a73b b03d 6026 6a3a c0aa 46bd 3c6e 3bbe
000000e0: 1a6e 2b3d 9a26 b93d cc0d 643d 7bbf 483d
000000f0: 5e62 033e 7f24 d3bc c275 49be 9b1c 4dbe
00000100: 2321 35be 849f f73c a40e 49bd 0bf0 48bd
00000110: b0c2 083e 2f6e 4c3e 0aed 343d 5b72 05bd
00000120: 77ac 1a3e f4ff 61bd 2bfe 47be 7848 dc39
00000130: c09a 4dbe 8958 a3bd 52eb 95bd 4106 bf3d
00000140: 08bf 143e e72e 253c aa36 4bbe b4f6 293e
00000150: 0517 4bbe a0e0 45be c853 22be 7d1c 24bc
00000160: 9f8a 74bd bbe1 013e e7e8 933d 03be 43be
00000170: 24d9 14be 6365 27be 86a7 1ebe 8835 d33d
00000180: 28f5 893d 7db8 b0bd 4cd7 84bd 3a88 643c
00000190: 71f7 98bd 98a9 e5bd 8e1d 31bd bb2a 433e
000001a0: d8dc d93c f2d8 9f3d c122 f53d 4f53 9c3c
000001b0: f923 f9bd e48d 4b3c 09da 723d 463b 06be
000001c0: 36fd 1a3e 8a4a 1ebe 9771 92bd 2a6f d7bd
000001d0: 2090 c23c cc83 243e 1406 9b3c 16d6 95bc
000001e0: 70b5 a53d f96f 27ba 8585 743d 7c4e 053c
000001f0: fad3 32bd b2fc 33be f3d5 d3bc 0c00 03be
00000200: fd08 1a3d e4b4 ccbc 052c f3bd b035 8eba
00000210: 7463 4a3e 0b2d 1e3e 5287 a93d ed1e 39be
00000220: e4c0 6c3d 5021 3dbd f96e 16be dc70 05bd
00000230: 66bb 423c aa40 573c a9e8 ea3c bdac 24be
00000240: 9064 14be 8cc8 83bc c5ca 2a3d b85c f93d
00000250: fc17 193d dc64 ad3b a204 6ebc d18e fbba
00000260: cbf0 db3d 03dd 58bd 9570 29bb 08af 0fbd
00000270: ccf7 833d 7a9c 1c3d e2c3 c13d 6892 debd
00000280: ac2a 0c3e 6568 0d3a 94df 48be f87b 453e
00000290: 5b23 b53c 06d2 233e ee89 f93c 6ab6 45be
000002a0: 709a dc3d b90c 8bbd 228a 8f3d a1a5 263e
000002b0: a4a8 5cbd e31f aebd fafa 28be eb37 1cbe
000002c0: acab c63d 01e7 c9bd 7b1c 29be 5ff0 39be
000002d0: aa04 3c3e 4b2c 9c3d eb6c bb3d b42c 6f3b
000002e0: 2419 083b d1e2 ca3c 19a8 433c 44f6 0ebe
000002f0: 624f 15be fcd4 80bd 2824 4cbe d791 393c
00000300: bfde 7a3d fd0b 9c3b 0193 97bd d555 283e
00000310: e2ed 8ebd 26fe 01be eb4c 37be 8be7 b43b
00000320: 857d 91bd 9a2d ddbd 3657 35be b601 1c3d
00000330: 1d87 dd3d 51c2 91bc 3cc5 e83c 9f33 25be
00000340: 6fdf 1e3e 85d6 0a3d b02e 1fbd 7f78 08bd
00000350: cd6e a6bd 9d48 0cbe 692c 75bc 6404 5abc
00000360: edba 143e 37c0 31be fe17 2e3d 3c4b e33d
00000370: d3b0 debb 35a5 18be 82ca 28be 827b c23d
00000380: 447b 163e 9313 46bc b6ba cf3d 2bfd 9cbc
00000390: 8824 62b9 8279 743d 3bf7 27be fc09 cebd
000003a0: 2bc5 03ba 6ff4 fd3d 9a88 10be b5c1 28be
000003b0: d387 40be 9fd9 ff3d 5494 8d3d 7297 893d
000003c0: 3120 103e 53ba 8dbd 2100 54bd 560e 89bd
000003d0: 11cb 31be 3433 6abd 4ae8 00be 4a7d d03d
000003e0: 5261 10be 45c2 1f3c b624 82bd a27a 2dbe
000003f0: 8259 e9bd acf7 c33d 833e 15be f138 17be
0.15125091 -0.08493321 -0.06836878 -0.055869076 -0.117072605 -0.16658682 0.16110536 -0.18509805
0.19843479 -0.032144 -0.08241615 -0.17483759 -0.04403624 -0.1231535 -0.13726722 -0.05252364
0.14322127 0.10679649 -0.1416164 -0.13644661 -0.03954988 0.051755972 0.071496114 0.19458328
0.09256998 -0.18859647 -0.16184762 -0.187987 -0.0149608 0.0057427012 -0.09787396 -0.17217948
-0.030851437 -0.016019607 0.06855651 -0.09684956 -0.120312765 0.055920217 0.13751839 -0.09657279
0.15219931 0.14659245 0.073612966 -0.16680394 0.11305437 -0.02661888 0.19027556 -0.04760727
-0.15137874 0.14519994 -0.014834803 0.13609095 0.08605128 0.000893211 -0.048502684 -0.1830377
0.041853048 0.09040566 0.05567722 0.049010735 0.12830493 -0.025774239 -0.19673827 -0.20030443
-0.17688422 0.03022743 -0.049086228 -0.049057048 0.13355517 0.19963907 0.04417137 -0.03257976
0.15104853 -0.055175737 -0.19530551 0.00042015663 -0.20078564 -0.07975871 -0.073202744 0.09327365
0.14525998 0.010081983 -0.19845071 0.16598016 -0.19833 -0.19323969 -0.15852273 -0.010016558
-0.059702512 0.12683766 0.07222157 -0.19115452 -0.14535958 -0.1634727 -0.15493593 0.10312945
0.06736213 -0.08628938 -0.06486377 0.013948495 -0.07469071 -0.11213988 -0.043241076 0.19059269
0.026594564 0.07805051 0.119695194 0.019082693 -0.12165064 0.012423966 0.059289966 -0.13108549
0.15135655 -0.15458122 -0.07150572 -0.1051925 0.023750365 0.16065902 0.018923797 -0.01829056
0.08091247 -0.00063872297 0.059697647 0.008136388 -0.043659188 -0.17576864 -0.025858855 -0.12792987
0.03760623 -0.0249886 -0.118736304 -0.001084974 0.19764501 0.1544687 0.082777634 -0.18078203
0.057801142 -0.046174347 -0.1469077 -0.032578334 0.0118855 0.013137976 0.028675394 -0.1608152
-0.14491487 -0.01608684 0.041697282 0.12175888 0.03737639 0.0052915644 -0.014527472 -0.0019192343
0.10739287 -0.05294515 -0.0025854458 -0.035079032 0.06443748 0.038235165 0.0946119 -0.108677685
0.13688153 0.0005394279 -0.19616538 0.19285572 0.022111585 0.15998086 0.030461278 -0.19307867
0.10771644 -0.06789536 0.070087686 0.1627412 -0.053871766 -0.08502176 -0.1650199 -0.15255706
0.097007126 -0.098585136 -0.1651477 -0.181581 0.18361154 0.07625636 0.09151634 0.003649515
0.0020766938 0.024766358 0.011941933 -0.1396113 -0.14581063 -0.062906235 -0.19935668 0.011326275
0.061247583 0.0047621713 -0.07401086 0.16438992 -0.06978966 -0.12694606 -0.17900436 0.005520766
-0.07104019 -0.107997134 -0.1770905 0.03808757 0.108167864 -0.017792853 0.028414361 -0.16132973
0.1551492 0.033895988 -0.038862884 -0.03331804 -0.08126602 -0.13699575 -0.0149642015 -0.013306711
0.14524432 -0.1735848 0.04250335 0.11098334 -0.0067959814 -0.14906771 -0.164835 0.094962135
0.1469546 -0.012089628 0.10143034 -0.019163689 -0.00021566649 0.05968619 -0.16402905 -0.10060498
-0.0005026634 0.12400138 -0.1411461 -0.16480143 -0.18801813 0.1249268 0.06913057 0.06718339
0.1407478 -0.06920304 -0.051757935 -0.066921875 -0.1736262 -0.057177737 -0.12588611 0.10180147
-0.14099625 0.009750907 -0.06354658 -0.16941312 -0.113940254 0.09568724 -0.14574628 -0.14767815

fc.weight f4 [37, 128]
00000000: c405 99bd e378 45bd 2a04 6cbc e6fa aa3c
00000010: c228 21bd 16c8 8fbd 7572 a23d ab63 d13d
00000020: 3bbc 24bd 5261 533d 067f b73d 5fa4 a13d
00000030: b722 533d dd68 86bc 758d b1bd 572a 8abd
00000040: c754 88bc d2f5 a93c 4217 b13c ecb3 2c3d
00000050: ff94 94bd d132 98bd a0c6 8abb 3fb2 d83d
00000060: 02ea 1a3d d8d6 1db9 a6b3 6d3a 2673 28bc
00000070: 4292 783d 2f7e a13c 40bb 913c 0dbd 81bd
00000080: e2f8 a1bd 038e ce3d 5c4f 793c bb45 80bd
00000090: d23c dabd 4d7f 88bd 832f d4bd 0e3c d2bc
000000a0: 8617 62bd 7e49 b73c 7870 ae3a 8bed bd3c
000000b0: b44c 603d fe04 493d 5e9c 96bd a418 eb3c
000000c0: b211 6cbd 2dc2 2d3d 8b6f 473d e0bc 2e3d
000000d0: 2696 ba3c 609a b9bd 2e21 933d 4b2d ba3d
000000e0: 345f 7f3d 58fb 31bd f3b8 103d 669f 9d3d
000000f0: 515f 95bc 57c8 513c 95bd b53d 360f bebc
00000100: f275 82bd f223 7a3d 0964 cd3c 7d4a 843c
00000110: 7913 c33d fae5 0c3d 7300 953c 6ec2 82bb
00000120: b75d cb3d f63c 323d d11a 393b 38b7 b6bc
00000130: e413 83bd b93d 2ebd ac82 39bd 7e82 c0bd
00000140: 274c 26bd e942 f5bb 3696 ed3c e214 6abd
00000150: 46c7 7bbd ecf1 313d 6e4f 5fbd fe77 a2bc
00000160: b49f cc3c c2c2 8ebd ff00 413d 5c6c b93c
00000170: d70d a5bc 58a2 a5bd 76ab da3c b0c0 213d
00000180: 0710 85bd 87a1 bf3d a8e1 b1bd 51c7 81bd
00000190: 93dd 893d 4ea3 863c ee98 1cbd 54f8 cdbd
000001a0: 54ba 963d 81c9 73bd be4d 0d3d a096 3e3d
000001b0: 6cc0 9dbd e14c dc3d 7ad8 c1bd 133f ffbc
000001c0: 56c3 013d 2f94 0abd c893 b7bc fec1 f13c
000001d0: eb2b 6c3d 6ed3 c8bc c5a7 c8bd be20 b43d
000001e0: 3dc0 533d f77a f3bb 75d5 253c 76af 203d
000001f0: 3d28 3fbd 242d b1bd 2716 97bc ee54 6f3d
00000200: 5e4e c4bb 1670 fabc 1c66 ba3d 1498 36bd
00000210: df42 9b3d 1d4f 1f3c 5ad0 fd3c 50cc 7ebd
00000220: 8375 6c3c 4692 d2bd 316a e33c 85d9 5d3d
00000230: 166c 843d e20a 52bc 234c a63c 93b0 583d
00000240: 73bb b43c deb3 9b3d 9ef1 d53d 901b b0bd
00000250: d140 c83c 6a9d dcbd 7c76 b03d 9a65 dc3d
00000260: 6d18 6239 609e b9bd 7bbf 10ba b97d f23b
00000270: fc17 da3d 67d5 083d e36d 82bd 7de9 0c3d
00000280: 2f41 cfbd 2331 c53d 111f c6bd a615 a93d
00000290: 6d60 13bd fd03 b13d 0a55 adbb 492a 403d
000002a0: e50e 90bd 32c8 073d 6770 b4bc 37f3 ec3c
000002b0: 79f7 c23d c06d 9fbd 960d 9abd d747 a6bd
000002c0: 8c3f f6bb 04f5 663c 4533 59bd 4dff b23c
000002d0: 259a 0abd 6ad4 07bb 8d53 943d 10b0 223d
000002e0: 4851 923d f402 b1bd 6e54 dc3c 5969 8ebb
000002f0: 2b8f b53c d566 7f3d f393 24bb 7464 a5bd
00000300: f1eb 7e3d 0d3b d43d a456 a43c c027 763d
00000310: 5758 71bd 58a7 a73d 2efd 7c3d bf9e 823d
00000320: db29 83bd 11a1 1bbd 394e 17bd a4d1 8cbd
00000330: 8d21 5e3d 5e73 7cbd 868f c9bd f833 4ebd
00000340: 26ea efbc dded ff3c e841 cfbc 920e b0bd
00000350: 911c dcbd 33af b93d 7abf 1b3d 3c3a db3d
00000360: f9dc 193d 0b5e e03c ab97 69bd e9c6 8f3d
00000370: e9bb 85bd 02f8 5dbd e624 6c3b a4db e6bc
00000380: 1967 2f3d 697f 6dbd 285d ffbb 5175 833c
00000390: ca66 433d 8c3f 2cbc 171c 733d da04 943c
000003a0: a65b 6f3d 7495 313d 837f d73c 00fd e63c
000003b0: e760 633d cecf 7f3d 6b4c 84bd bc52 8a3d
000003c0: a5ee 54bd 4991 b8bb 0b06 883d 936b d83c
000003d0: 2ae7 5b3d 9701 babd 603d bdbc 3bf6 9c3d
000003e0: c84d 743d 9262 6ebd 73d8 48bd 08af c0bc
000003f0: 8b14 e4bc 80cb 25bc af79 cb3c b3cd 833d
-0.07471803 -0.04821099 -0.01440529 0.02087159 -0.03934551 -0.07020585 0.07931987 0.10224088
-0.040218573 0.051606484 0.08959775 0.078926794 0.05154678 -0.016407425 -0.08669559 -0.06746357
-0.016641987 0.0207471 0.021617536 0.042163774 -0.07254981 -0.074315675 -0.0042351037 0.10580873
0.037820823 -0.00015052722 0.0009067602 -0.01028136 0.060686357 0.01971349 0.017789483 -0.06334887
-0.07908799 0.1008568 0.015216675 -0.062633 -0.10656132 -0.06664906 -0.10360625 -0.025663402
-0.055198215 0.022373911 0.0013308665 0.023184558 0.05476065 0.049077027 -0.073540434 0.028698273
-0.057634063 0.04242151 0.04869036 0.042660594 0.022776674 -0.09062648 0.07184063 0.0909067
0.062346652 -0.04345259 0.03533263 0.076964185 -0.018233927 0.012804112 0.088740505 -0.023200613
-0.063701525 0.061069436 0.025072115 0.0161488 0.095251985 0.03439901 0.01818869 -0.003990463
0.09929984 0.043515168 0.0028244744 -0.022304162 -0.06400278 -0.042539332 -0.045290634 -0.093998894
-0.04059997 -0.007484783 0.02900229 -0.05714882 -0.06146934 0.043443605 -0.05451911 -0.019832607
0.024978496 -0.06970741 0.04712009 0.022634678 -0.0201482 -0.08087605 0.026693087 0.0394904
-0.064971976 0.09356981 -0.08685619 -0.06336845 0.06731715 0.016435292 -0.038231783 -0.100571305
0.07359758 -0.05951834 0.03449797 0.046530366 -0.07702717 0.10756851 -0.09465118 -0.031158006
0.031680427 -0.033832725 -0.022409335 0.029511448 0.05765907 -0.02451488 -0.097976245 0.087953076
0.051697005 -0.00743043 0.010121693 0.039229833 -0.046669234 -0.08651188 -0.01844318 0.058430605
-0.0059907874 -0.030571025 0.09101507 -0.044578627 0.07581114 0.009723452 0.030983139 -0.062206566
0.014432314 -0.10281806 0.027760597 0.05416252 0.06465928 -0.0128199775 0.020299977 0.05290277
0.022062039 0.07602666 0.104464754 -0.08599007 0.02444497 -0.10772212 0.08616349 0.107615665
0.00021562139 -0.09063411 -0.0005521697 0.007400241 0.10649106 0.03340664 -0.063686155 0.03440236
-0.10119855 0.09628513 -0.09673894 0.08256082 -0.03598063 0.08643339 -0.0052896785 0.046915326
-0.07034091 0.033149906 -0.022026254 0.028924568 0.09519858 -0.07784605 -0.075221226 -0.08119171
-0.0075148996 0.014096502 -0.05302741 0.021850253 -0.03383841 -0.0020725974 0.072424985 0.039718688
0.071444094 -0.086431414 0.026895728 -0.0043460545 0.022162994 0.062353928 -0.0025112599 -0.080758005
0.06223673 0.103628255 0.020060845 0.060096502 -0.058922138 0.08186215 0.06176489 0.06377935
-0.06404468 -0.0379954 -0.036939833 -0.06875923 0.054231215 -0.06163346 -0.09841828 -0.05034253
-0.029286455 0.031241352 -0.025299981 -0.08596529 -0.10747636 0.0906662 0.038024403 0.10704467
0.03756425 0.027388593 -0.057029407 0.07020361 -0.06529982 -0.054191597 0.0036032735 -0.028180905
0.04282293 -0.057982836 -0.0077930875 0.016047152 0.04770545 -0.010513198 0.05935296 0.01806872
0.058437012 0.04335542 0.02630592 0.028196812 0.055512335 0.062454037 -0.06459888 0.067540616
-0.0519854 -0.0056325537 0.066417776 0.026418483 0.053687252 -0.090823345 -0.023100555 0.07664152
0.05964449 -0.058199473 -0.049034547 -0.023520961 -0.027841827 -0.010119319 0.024838297 0.064357184

fc.bias f4 [37]
00000000: 84c6 2bbd 0820 703d 2dc9 69bd 5296 453c
00000010: 38fb bb3c d8c7 f9bc 7e14 9e3d ae1f 50bd
00000020: 04cf 683d 768a 92bd fc35 95bd b881 91bd
00000030: 2118 433d 7256 a2bd e8d8 843c 2dd7 6d3d
00000040: 79e3 23bd 5a15 153d 8e4a ccbd 1460 14bd
00000050: 8748 13bd e716 7d3d ee12 803d 2ec7 7dbc
00000060: 9218 6e3c f737 94bd 02e2 343d 9a7b d33c
00000070: cbed d9bb e3d3 febc 458f 92bd 9cc2 693d
00000080: d486 303d 6ad1 57bd f34b a0bb 49ed 1a3d
00000090: 0014 4a3d
-0.041937366 0.058624297 -0.05707662 0.012059765 0.022946939 -0.0304908 0.07718752 -0.050811462
0.05683805 -0.071553156 -0.07285687 -0.0710482 0.047630433 -0.079266444 0.01621671 0.058066536
-0.040011857 0.036397316 -0.09975158 -0.03622444 -0.03595784 0.06178942 0.062536106 -0.015489383
0.014532225 -0.07237237 0.04416085 0.025815774 -0.0066506616 -0.031106895 -0.07156233 0.05707036
0.043097332 -0.052689947 -0.0048918664 0.03782395 0.04933548
