pre_data/cora_model_16.pt (torch, 802255 bytes, 4 tensors)

layers.0.bias f4 [128]
00000000: c064 8a3d 279b b93c c050 1f3d 7def 803d
00000010: 91d8 583d bc00 373d 6157 3d3d a237 473d
00000020: eb78 923d ac18 5b3d 1188 bf3c f845 093d
00000030: 3a49 343d eca7 443d a273 893d 4963 d23c
00000040: feef 833d 4997 0f3d 391b 7e3d cbef 103d
00000050: 24d6 333d ed96 703d feba 1a3d 5bc5 483d
00000060: c724 5f3d c5da c03c 5a18 7f3d 4bee 453d
00000070: f7a1 8a3d 04f2 ad3d 3feb 513d a59f 493d
00000080: febe e53c 59f5 5f3d d6e1 8d3d 8728 a23d
00000090: 700e 773d c421 553d 791a 743d ded2 343d
000000a0: 86ac 6a3d d18d 923c be24 653d ad16 bb3c
000000b0: b0b2 1b3d 9499 c53c 71a8 883d 2d50 063d
000000c0: 1a52 233d 73b1 313d 2fe5 1e3d e584 883d
000000d0: 7fed 7c3d 5a24 5f3d 1058 943d 30d3 b83c
000000e0: d879 3e3d d1fe 7a3d 7d24 0d3d 1aae 0f3d
000000f0: d920 ad3d 3ec4 5d3d 1dde 9d3c 6343 213d
00000100: 11d8 a73c 658e 953d c6d7 493d 00a5 5c3d
00000110: b20f 153d d294 793d 1472 873d f010 833d
00000120: 8adc 803d e086 413d 03c6 fd3c c8e5 303d
00000130: 7fde 1d3d 9e1a 873d 8fee fd3c f1b9 703d
00000140: f966 4d3d df49 293d b933 5f3c c3d8 463d
00000150: fd5f 363d 1a66 0a3d 7582 503d b872 2c3d
00000160: 8021 123d 22ae 283d e65a 3b3d e8a6 363d
00000170: ae92 783d 69ad 083d 4d21 613d 19f2 833d
00000180: ed4b 433d 52d3 3f3d d223 4a3d e575 7e3d
00000190: c3b2 9e3d b0f5 ea3c 5dca a23c 37cf 273d
000001a0: 0be3 613d ab1d 343d 7fb8 513d e750 3b3d
000001b0: 73c9 763d 2b7d 1b3d 9693 6e3d 8a41 9d3d
000001c0: 2808 8f3d acf6 123d 72fd 493d 0cde 1c3d
000001d0: 4096 293d 5597 6c3d 9dc2 593d 2cdd 1b3d
000001e0: 7541 523d e5d7 1f3d f5d7 fb3c abcb 663d
000001f0: 1ffa 633d 4e27 9e3d 1bc1 d33c 48f0 8c3d
0.06757498 0.02265699 0.03889537 0.06295679 0.05294091 0.044678435 0.04622591 0.04863704
0.071519695 0.053490326 0.023380311 0.033513993 0.044015147 0.048011705 0.06711508 0.025682108
0.06442259 0.035056386 0.06203768 0.035384934 0.043905392 0.058737684 0.037775986 0.049016338
0.054478433 0.023541817 0.062279083 0.048322957 0.067691736 0.084934264 0.05124974 0.049224515
0.028045174 0.05467734 0.069278404 0.07917886 0.060316503 0.052034155 0.05959556 0.04414641
0.057293437 0.017889889 0.055943243 0.022837961 0.038012207 0.024121083 0.06672753 0.032791305
0.03987322 0.04338212 0.038792785 0.066659726 0.06174993 0.054478027 0.07243359 0.02256164
0.046502918 0.061278168 0.034458626 0.035078146 0.08453531 0.05414223 0.01927095 0.039370906
0.02048877 0.0730255 0.049278043 0.053868294 0.03639192 0.06093294 0.066135556 0.06399715
0.062920645 0.047247767 0.030978208 0.043187886 0.038542267 0.06596874 0.030997543 0.058771078
0.05014703 0.041330215 0.0136231715 0.048546564 0.044525135 0.033788778 0.050905664 0.04210159
0.03567648 0.04118169 0.045740984 0.044592768 0.06068676 0.0333685 0.0549634 0.06442661
0.04767983 0.04683239 0.049350567 0.06212415 0.0774894 0.028681606 0.019871885 0.0409691
0.055148166 0.043973606 0.05120134 0.04573145 0.06025071 0.037961166 0.058246218 0.07678516
0.069839776 0.035879776 0.04931397 0.038297698 0.041403055 0.05776151 0.053164113 0.038052723
0.051331956 0.039024252 0.030742625 0.056346577 0.055658456 0.077223405 0.025848916 0.068817675

layers.0.fc_neigh.weight f4 [128, 1433]
00000000: 110a 83bd c62d 9a3d 136d d4bd a9b2 603e
00000010: 59a6 62be eadb e8bd 9d77 bf3d 353e ebbd
00000020: d308 62bd 2e79 92bd 7078 b2bd 8684 0a3e
00000030: f2f1 85bd 41ec e23d 4351 84bd 1c7c 3e3c
00000040: c886 913d 8a63 3d3d db26 19be 417e f03d
00000050: 6563 69bd a21e f23d 55bb 23be 9da8 5f3e
00000060: 7a6f ac3c 22ec a1bd b366 c1bc a6bc fc3c
00000070: 26b9 2cbd 0c3f d33d 2898 57be e48c 07be
00000080: b888 8b3c 1d93 24bd ca28 1b3e df8a 8bbd
00000090: 0693 7b3c d922 e0bd cf59 e5bd fe43 b43d
000000a0: 2187 63be 0f9c 903d 75ec 963d b665 51bd
000000b0: 1052 71bd 3c59 c8bd ac7d 013e 1b91 233e
000000c0: 569e a7bd 6395 433e 5a6b 87bd 6d2c 00bd
000000d0: 3bd0 3a3e fc77 22bc 96dd 34be 5ad9 23be
000000e0: c73c 453e 82ea da3d 1d11 e13d 63de 073e
000000f0: 59ce 33be 1ccc acba 9eab 28bd 665c d83d
00000100: 2f8f c93d 9e07 b13d f171 0e3e 2fe5 0c3e
00000110: 17d9 933d 19e4 a23d a46b 39bc d207 aabc
00000120: 5846 4f3e 8141 05bc 8e3b f33d 8393 b23d
00000130: 5889 5dbd a5a4 d33d 4106 6cbe 8782 c83d
00000140: a199 f1bc d79f 7f3d 4a7e 39be 73cb ac3d
00000150: a884 dcbd 24b1 b43d e1bf d73c ddd8 85bd
00000160: e5eb 12bb 157c 233d 124f 2bbc 20dc e13d
00000170: f1f0 833d ff87 76be 14f2 29bd cd2d 87bd
00000180: 8756 933d 7071 aabb d52f 3e3d 9e02 eebc
00000190: 6afe 123e 2827 6f3d f4ea 943d e07a d5bc
000001a0: cc23 d83d 5194 1c3c c841 00bd ec72 d13d
000001b0: a82d 63be 55e6 34bc dca2 313c 42b5 aebc
000001c0: af5c 353e 96c1 1c3d 2a0a a33c e21e 22bd
000001d0: 995b 763a 7f40 283d 3c1b 93bd 3472 403d
000001e0: 5f14 373b 727d fcbc 8a41 133e 00a8 0a3e
000001f0: 8fbf 223d c069 373e d08e 5cbc 4b45 13be
00000200: b621 793e 5eeb 7dbd f08d 823d d920 4b3e
00000210: b99e 333e 0dbc 013e 3af9 efbd 04d7 9a3d
00000220: 78e5 2a3d 7e15 a73c 65f9 ed3d 5806 78be
00000230: 7f2e 32bd e87a 59be 8cbe 09be 028c 383e
00000240: 464c c7bd 61f4 0b3d 55a1 1c3e 0d27 65bd
00000250: 28af ea3c 32a4 ecbd 5673 47be 7b56 c73b
00000260: 4a39 afbd da25 4ebd 07aa d33c 2c83 2e3e
00000270: 3ed9 d23d db4d 863d 8e08 ec3d 9b68 8d3d
00000280: c2b0 5d3e 774c 71bd a7eb 683d ac58 123c
00000290: 6962 93bc 858b 743e 48f2 0a3e aab7 45bd
000002a0: 597c 31bc 11ad 5e3d 9c69 cc3c 2676 033e
000002b0: 23e0 9a3d 2710 7dbc 39c4 0bbe c89c bb3d
000002c0: dcc0 0c3e ab01 80bb aba6 4dbd c325 163e
000002d0: ca40 cdbd 1b71 963c c1ec 47be fe30 4bbd
000002e0: dde8 6d3e 2263 683d 3fd7 3ebe 8f41 0dbd
000002f0: 37a7 e0bd 8af2 fe3c ad6c c9bd dd4f 25be
00000300: 8b58 e4bd 8d23 083d f243 81bd 9b4c f23d
00000310: 766f d1bd 46b9 2abe 0094 22bd 6a7d 7e3b
00000320: 716e 14be 6343 8c3d 61da 0dbe 6259 5ebd
00000330: 5f62 5dbd f76f ac3d 2527 bb3c ad2d 093d
00000340: 40f4 263d df51 b63d fbd5 27bd 9af5 e23d
00000350: 1511 9d3d edfb 193d ec52 5dbd 8c7e 263e
00000360: a103 49bd dab1 4b3e 46dd c9bc de71 aabd
00000370: 390d d5bc f6a7 213d 4a99 07bc bb38 13bd
00000380: b767 c2bd 77aa 4b3d 447c afbd 3a54 c13a
00000390: 321f cfbd 92d4 9b3d 4af4 63bd e34e cdbd
000003a0: ad93 81bd ed85 023d 3521 25bd 6cff e83d
000003b0: 6ba5 0ebe d897 283e 197e 193c 6ef5 d1bb
000003c0: c633 79bc a5bc 05bd 6fde ecbd ab15 1b3e
000003d0: 6fde 3dbd a76f 2b3d afa0 593d 99cc bb3d
000003e0: 43ed 0ebd c16b d03d 5ae5 643c aa08 423d
000003f0: 3e3b 7a3e 5711 1d3e 8038 4fbd ae7c 443d
-0.063984044 0.07528262 -0.10372367 0.21943153 -0.22133769 -0.1137007 0.09348986 -0.114864744
-0.055184197 -0.071520194 -0.08714378 0.13527116 -0.06540288 0.11080218 -0.06460812 0.01162627
0.071057856 0.046237506 -0.14956228 0.11742831 -0.056979556 0.11822249 -0.1598943 0.21841665
0.02104925 -0.07906367 -0.023608541 0.030851673 -0.04216876 0.103147596 -0.21054137 -0.1323734
0.017032966 -0.04017936 0.15152279 -0.06813597 0.015354877 -0.10944147 -0.1119877 0.08802031
-0.22219516 0.07061016 0.07369319 -0.05112239 -0.05891615 -0.09782645 0.12645596 0.15973322
-0.08184497 0.19099955 -0.066122726 -0.031292368 0.18243496 -0.009916302 -0.17662653 -0.16000882
0.19261466 0.1068926 0.10989592 0.13268428 -0.17559184 -0.0013183388 -0.041179292 0.105644986
0.09841763 0.08644031 0.13910653 0.13759302 0.07219141 0.079536624 -0.011317167 -0.020755682
0.20241678 -0.008133293 0.118765935 0.08719542 -0.05408606 0.10334138 -0.2304926 0.09790521
-0.029492201 0.062408295 -0.18114582 0.08437242 -0.1076749 0.088228494 0.026336612 -0.06535504
-0.0022418436 0.039913256 -0.010455864 0.11028314 0.0644244 -0.24075316 -0.04149063 -0.06600533
0.07194238 -0.005201511 0.046432335 -0.029053982 0.14354864 0.05838695 0.07271376 -0.026059568
0.10553703 0.009556846 -0.031312734 0.10226998 -0.22185385 -0.011041244 0.010842051 -0.021326665
0.17711137 0.038270555 0.019902308 -0.039580233 0.00093978044 0.041077133 -0.07182929 0.046983913
0.0027935726 -0.030821536 0.1438047 0.1354065 0.039733466 0.17911434 -0.0134617835 -0.14381902
0.24329266 -0.06199204 0.06374729 0.19836749 0.17541017 0.12669392 -0.11717458 0.07560542
0.041722745 0.02039599 0.11619834 -0.2422117 -0.043501373 -0.21238291 -0.13451594 0.18022159
-0.09731345 0.034168605 0.15295918 -0.055945445 0.028647974 -0.11554755 -0.19477591 0.0060833073
-0.08555849 -0.050329067 0.025837911 0.17042226 0.10295342 0.065578185 0.11525069 0.069047175
0.21649459 -0.058910813 0.05686536 0.008932274 -0.017991262 0.23881347 0.13568985 -0.04827086
-0.010832869 0.054364268 0.024952702 0.12838039 0.07562282 -0.015445746 -0.13649072 0.09160763
0.13745445 -0.003906449 -0.050207775 0.14662842 -0.10022123 0.01836448 -0.19523908 -0.04960727
0.23233362 0.056735165 -0.18636797 -0.03448635 -0.10969394 0.031121511 -0.098351814 -0.16143747
-0.11149701 0.03323703 -0.06311788 0.118310176 -0.102263376 -0.16672239 -0.039691925 0.0038832077
-0.14495255 0.068487905 -0.13852836 -0.05428446 -0.054048892 0.08419793 0.022845814 0.033490825
0.04076028 0.089023344 -0.040975552 0.11082001 0.07669274 0.03759377 -0.05403416 0.16259211
-0.049075726 0.19892064 -0.024641644 -0.083225 -0.026007282 0.03946682 -0.008276293 -0.035942774
-0.09492438 0.049723115 -0.08568624 0.0014749833 -0.10113372 0.07608904 -0.055652894 -0.10024812
-0.06326995 0.031866003 -0.04031487 0.11376843 -0.1393029 0.16464174 0.009368443 -0.0064074313
-0.015210098 -0.03265061 -0.11565863 0.15144984 -0.046354707 0.041854527 0.053131755 0.09169883
-0.03489424 0.101768024 0.013970697 0.047371544 0.24436662 0.15338646 -0.050590992 0.047970466

layers.1.bias f4 [128]
00000000: 0dd4 553c 710d 163c 338a 4d3c a2b8 973c
00000010: 1aed 1bbb 35ee 79bc f0b5 9dbc f31a 13bc
00000020: 66ee b23c 290e 9abb e2ac 0bbc 22a2 943b
00000030: dd2c c4bb f0bc 0b3c 8c5e dc3b 7123 0c3a
00000040: faef aa3c 709e f6bb 91f0 17bc 6726 fe3c
00000050: f2ef ce3a 5334 0a3c 688d 8a38 8c3d 4f3c
00000060: 352d 683c b641 403c 16fa 383b bab0 8b3b
00000070: 24f6 9dba 18c5 4e38 b93f 673b 7b63 91bc
00000080: 1a8a bcb8 4451 683c 7f13 d53c e15d cc3b
00000090: 2b0f 0e3d 8703 1b3c 3858 873b 0826 b7bb
000000a0: ed63 28ba 4265 83bc 4bb4 23bc bd91 1c3c
000000b0: b959 27bb 4560 ea3b 3076 81bc b962 a03c
000000c0: f177 e2bb 8284 92bb e1a2 973c 0b98 94bb
000000d0: bc74 ad3b dda4 113c 03f8 06bc 03bb 9d3b
000000e0: 4f0f 2f3c accb b33b 29c6 4d3c cbcd 2ebc
000000f0: 3663 923c 0474 33bc df2f 6bbb b4e3 083b
00000100: a3f4 c03c ed32 243b cbb2 043c 8e45 0b3c
00000110: 887a 6bba 4ddc 783c ddd5 98bc da5a a53a
00000120: cdaa b33a 7adf e23a ccab a3bb d453 1abc
00000130: 88ab 7a3c 423c 41bc 1365 633c f3ec 2abc
00000140: 0fa7 a5ba 0735 1e3c 7b58 5839 cb77 223c
00000150: 67f9 dc3b 7e10 0fbc 5548 fb3b 9c2b 2fbc
00000160: 8f7a 7bbc 83e8 4bbc 5d21 02bc 9df6 00bc
00000170: 63c8 de3c d121 9c3c 3772 d1bb ecd4 773c
00000180: 2ef5 6ebb f2b4 803b 1e41 8bbb ba7e 3fbc
00000190: af21 8d39 22e3 32bb e8e7 b0bc 56f1 5bbc
000001a0: 3d35 c33b 276f b5bc 6533 69bc e53f ca3b
000001b0: dd95 573c e386 14bb 1a0b 863b c951 bebc
000001c0: 00d2 83bc 274a ab3c 1917 163c 57d9 f13a
000001d0: 7641 193c 91cf ecbb 1824 cabb 82ea 21bc
000001e0: 0782 c43c dff9 b73b edee 2f3c 5231 bcbb
000001f0: 336d 80bc b9f0 843c 5d3b 0b3c 7b35 f3bb
0.013051045 0.009158478 0.012545156 0.018520657 -0.0023792447 -0.015254547 -0.019251794 -0.008978593
0.021842193 -0.004701395 -0.008525105 0.0045359293 -0.0059867934 0.008528933 0.006725138 0.00053458574
0.020866383 -0.0075262114 -0.009273664 0.031024171 0.0015788062 0.008435327 6.606692e-05 0.012648951
0.014170934 0.011734417 0.0028225235 0.004263011 -0.0012051505 4.9297785e-05 0.0035285784 -0.017747631
-8.990262e-05 0.0141795315 0.026010273 0.006236777 0.034682434 0.00946129 0.0041303895 -0.0055892505
-0.00064235815 -0.016039494 -0.009991716 0.009556231 -0.0025535657 0.0071525895 -0.015803427 0.019578325
-0.006911271 -0.0044713626 0.018510284 -0.0045347265 0.005293457 0.008889404 -0.008237842 0.0048135533
0.010684802 0.005486926 0.012559452 -0.010669182 0.017869573 -0.010952953 -0.0035886688 0.0020887675
0.023554152 0.0025054768 0.008099268 0.00850047 -0.0008982797 0.015189243 -0.018656665 0.0012615577
0.0013707519 0.0017309033 -0.004994845 -0.0094194 0.015299685 -0.011794152 0.013879078 -0.01043247
-0.0012638288 0.009656197 0.00020632327 0.009916256 0.0067435983 -0.008731959 0.0076685348 -0.01069155
-0.015349044 -0.012445572 -0.007942525 -0.007871297 0.027195161 0.019059094 -0.0063917893 0.015126448
-0.0036462056 0.0039278204 -0.004249706 -0.011687929 0.00026918712 -0.0027296026 -0.021594957 -0.013424238
0.005957274 -0.022147728 -0.014233445 0.0061721676 0.013158289 -0.0022663407 0.004090679 -0.023232358
-0.016091347 0.020909382 0.00916078 0.0018451613 0.009353986 -0.0072268923 -0.0061688535 -0.009882571
0.023987783 0.0056145038 0.010738117 -0.005743184 -0.01567707 0.016228067 0.00849804 -0.007422147

layers.1.fc_neigh.weight f4 [128, 128]
00000000: 599f 363e 25b0 a8bd 0996 c1bd 134e 48bc
00000010: 11cd 31be 1afb 7abe b58d 7d3e 44e8 7bbe
00000020: 76f2 9c3e f0d8 173d 1748 adbd 2d41 40be
00000030: 51b4 15bd 0420 67be accf 32be 2946 aebd
00000040: b4c0 5d3e f83d 243e 0307 17be 720b 49be
00000050: b35b 9dbd 8ffa b83c b388 c63d 7f4b 923e
00000060: 4582 0a3e 94d7 8dbe 5a9f 41be 196e 67be
00000070: 3750 a63c c60d d83c b408 01be 4c65 17be
00000080: ab1f eabc 990c 71bd 43af 1e3e aa59 4bbd
00000090: c55d 5fbe 13b3 7a3c 24eb 5b3e 005e 26be
000000a0: ba6d ef3d 8005 fe3d e1b9 8b3d 4569 4abe
000000b0: 6246 fd3d 089b 9c3d 8ca5 943e c483 d7bd
000000c0: 2f21 7fbe 5a20 783e 2c03 76bc dad8 363e
000000d0: 2117 163e 3ee5 dc3c 0009 a9bd 4c5f 85be
000000e0: 001c 083e 3ecb 1e3e afed ab3c 256a 103d
000000f0: 3e39 583e 728d bebd ff1f 27be ed45 67be
00000100: f142 67be e8f7 8a3d f6d9 d2bd 65ab e3bd
00000110: 270c 0d3e 6bed 913e 6b51 013e 5d2a 22b9
00000120: 80c1 673e 1741 99bd 8821 92be 0fbd 89bd
00000130: 0a53 3fbe 2364 313b 8112 17be 139a 393e
00000140: 3be5 523e 57cc ad3d 6fa2 82be 9311 703e
00000150: 12dc 8abe 135c 65be 7390 7bbe 06c6 8b3d
00000160: f650 0dbe cf9e e33d 3ccc 343c 93d7 8fbe
00000170: 7dff 32be 99c3 74be 0e28 81be 1595 223e
00000180: 7747 0a3e 7013 35be 2414 38bd b309 2abc
00000190: a3b8 9ebd 91b0 21be 0002 babd e494 953e
000001a0: 28c2 663b ba55 873d 38ec 103e ef06 833c
000001b0: 1ae3 edbd c3b2 adbc d119 d23d 40e4 39be
000001c0: b349 6d3e e1ec 26be 48d1 18be 7fb0 9fbd
000001d0: 227d 4a3d 21ad 423e 5bd8 12bd 4fb6 92bd
000001e0: 0896 e13d ebb6 49bd 0447 da3d c0b7 363d
000001f0: 6e47 58bd 6072 85be cb09 82bc 8745 1bbe
00000200: aa9c 8a3d 7856 4dbd 8a59 5cbe 68c4 b43b
00000210: bc93 973e fe67 383e 755e a93d c938 67be
00000220: 83bc fb3d c922 e4bc 2fc7 6bbe 69bc b73c
00000230: e820 303d 22a4 a13d 54de 023d 9cac 4fbe
00000240: 63f9 48be 7c5f 053c ae3c ae3d d1c8 3c3e
00000250: b117 b43d 6ecb b53d af2a 68bd 703a 003c
00000260: fd7f 293e cf07 babd 7a24 1e3d 2dbb 6bbd
00000270: 0031 ba3d 7170 613d 5afa a53d 0f03 19be
00000280: 48a3 833e d62a 583d 4684 87be 7fa3 593e
00000290: 31e7 943d d131 4f3e 00c0 7c3d fe2f 31be
000002a0: 3fdd 4f3e b8b3 d5bd f7e7 023e 529e 643e
000002b0: eaa1 80bd 9a23 18be 321e 70be 1c57 50be
000002c0: 6d3f 243e 43a2 d6bd 5112 52be a378 5fbe
000002d0: 3a4a 743e ace9 d83d fec7 113e b786 10bc
000002e0: 490e f33a c088 a73d 011c 8f3d 42d8 2fbe
000002f0: fdc2 3cbe a894 9abd d156 87be fc8e 8f3d
00000300: 74dc d83d 8c79 1c3c fe98 5dbd 2b56 7d3e
00000310: 7ac4 b0bc 6978 33be 77ad 72be 1856 fd3b
00000320: d52a f2bd 6f46 85bd 1105 89be a34d c53d
00000330: c10f 1e3e ce04 92bd 1251 d43d 02bc 4ebe
00000340: f6e3 5d3e 95c0 733d 444e f53c 311c e13b
00000350: dc15 9cbd da92 21be 2f2e b93b 48d6 973c
00000360: 8c4e 823e 25dc 44be 4596 113e 666a 5f3e
00000370: 59f6 963b c844 e4bd e4f2 2cbe 6da5 b13d
00000380: a499 523e ed16 613d bc71 de3d a3e5 81bc
00000390: bedd 4c3d 4d8e 1b3e b900 31be 0e28 eabd
000003a0: 5907 443d d069 4e3e 7528 4ebe 1b56 47be
000003b0: 2a66 51be 5f43 403e cd1c 543d fa9d 033e
000003c0: 5fb9 3d3e b335 d9bc 076c 82bc 214c f6bd
000003d0: 876c 79be d640 593a 2b25 dcbd e38f 3b3e
000003e0: 2593 47be c644 8d3d a314 a2bd 758b 82be
000003f0: 1484 47be 937b 243e 9854 21be 097c 35be
0.17834224 -0.08236722 -0.09452445 -0.012225646 -0.17363383 -0.2450985 0.24761088 -0.24600321
0.30653733 0.037072122 -0.08461016 -0.18774863 -0.036548916 -0.22570807 -0.17462033 -0.08509476
0.21655542 0.16039264 -0.14748769 -0.19633272 -0.07683506 0.022580413 0.09694042 0.28573224
0.13526256 -0.27703536 -0.18908444 -0.22600593 0.020301921 0.026373755 -0.12600976 -0.14784735
-0.028579554 -0.058849905 0.15496545 -0.049646057 -0.21813114 0.015301484 0.21476418 -0.16246796
0.116908506 0.12403393 0.06822563 -0.1976672 0.1236694 0.07646757 0.29032552 -0.10523179
-0.24915002 0.24231091 -0.015015405 0.1785616 0.1465726 0.02696478 -0.0825367 -0.26049268
0.13291931 0.15507218 0.02098736 0.035257477 0.21115586 -0.09304322 -0.163208 -0.22585268
-0.2258413 0.067855656 -0.10295479 -0.11116675 0.13774167 0.28501448 0.12628715 -0.00015465305
0.22632408 -0.07483118 -0.28541207 -0.06725513 -0.1868402 0.0027067743 -0.14753152 0.18125181
0.20595257 0.0848624 -0.25514552 0.23444204 -0.27121025 -0.22398405 -0.24566822 0.06824879
-0.13800415 0.11114275 0.011035021 -0.28094158 -0.17480274 -0.2390274 -0.25225872 0.15877183
0.13503824 -0.17683196 -0.044941083 -0.010378289 -0.077500604 -0.15790011 -0.09082413 0.29215157
0.003521094 0.06608148 0.1415261 0.015994517 -0.11615582 -0.021203404 0.1025883 -0.18153477
0.23172645 -0.163013 -0.14923584 -0.07797336 0.049435742 0.19011356 -0.035850864 -0.07163679
0.11014944 -0.04924671 0.106580764 0.04460883 -0.052802496 -0.26063824 -0.01587381 -0.15163241
0.067681625 -0.05013129 -0.21518531 0.0055165775 0.296049 0.1800842 0.082699694 -0.22580256
0.12291815 -0.027848618 -0.23025201 0.022428708 0.04300013 0.07892634 0.03195031 -0.20280689
-0.19626383 0.008140441 0.085076675 0.1843598 0.08793581 0.08876692 -0.05668133 0.007826433
0.1655273 -0.090835206 0.038609006 -0.05755155 0.09091377 0.055038873 0.081043914 -0.14942573
0.2571051 0.052775227 -0.26468104 0.21253775 0.07270659 0.20233847 0.061706543 -0.17303464
0.20299242 -0.10434669 0.127838 0.2232602 -0.06280883 -0.14857331 -0.23449019 -0.2034573
0.1603982 -0.10480168 -0.205148 -0.21823363 0.2385644 0.105914444 0.14236447 -0.008821181
0.0018543686 0.0818038 0.06987763 -0.1717234 -0.18433757 -0.07547885 -0.26433423 0.07009694
0.10588923 0.009550463 -0.054100983 0.24739902 -0.021578062 -0.17526402 -0.23698984 0.0077312104
-0.11824576 -0.06507575 -0.26761678 0.09633949 0.15435697 -0.07129823 0.103670254 -0.20188907
0.21668991 0.059509832 0.029944547 0.0068698158 -0.07621357 -0.15778676 0.0056512575 0.018534794
0.25450552 -0.19224603 0.1421748 0.21817932 0.0046070036 -0.111459315 -0.1688953 0.086741306
0.20566422 0.054953504 0.10861537 -0.01585657 0.050016157 0.15191002 -0.17285432 -0.11433421
0.04785857 0.20157552 -0.2013262 -0.1946644 -0.20449129 0.187757 0.05178528 0.12853232
0.18527745 -0.026514864 -0.015920652 -0.12026239 -0.24357806 0.00082875544 -0.10749277 0.18316607
-0.19489725 0.06897883 -0.079140924 -0.25497022 -0.19483978 0.16062765 -0.15754926 -0.17723097
