pre_data/cora_model_128.pt (torch, 802255 bytes, 4 tensors)

layers.0.bias f4 [128]
0.092765786 0.04950642 0.06459258 0.03733618 0.07003845 0.081126854 0.06561935 0.07300208
0.05770683 0.04640491 0.049828116 0.04484306 0.059022848 0.08275254 0.082432 0.057755876
0.07200052 0.033295 0.0710244 0.07138545 0.08517623 0.05657722 0.09247929 0.08301548
0.07993202 0.058071792 0.07807109 0.100103915 0.075791486 0.0900396 0.080610864 0.08284656
0.035737917 0.08609184 0.094272494 0.0885717 0.08610822 0.08114968 0.04963433 0.07673476
0.051097486 0.031409573 0.08338385 0.02911241 0.09259637 0.054307275 0.068105154 0.072824486
0.04312631 0.041013613 0.079583995 0.08108336 0.07006924 0.05697336 0.06328398 0.05330809
0.038518734 0.07479193 0.030645417 0.05064803 0.08319156 0.05764302 0.045471992 0.051779564
0.028158516 0.091212 0.06234225 0.08625033 0.061246973 0.051993713 0.060847025 0.075471446
0.059551958 0.04773719 0.040026143 0.074445486 0.04307002 0.062173463 0.039744385 0.06344847
0.054383963 0.039315052 0.049842346 0.050244417 0.078733094 0.068839714 0.07838661 0.07469143
0.040419415 0.059089903 0.09098215 0.06452139 0.053868268 0.041043833 0.067016274 0.09370118
0.031291913 0.06965726 0.058184903 0.08370909 0.06962585 0.043288887 0.04045154 0.070683196
0.07489819 0.045337003 0.100813925 0.04787205 0.05203821 0.069109246 0.07828128 0.09212155
0.06639996 0.090739295 0.057793792 0.05229074 0.048235893 0.07533978 0.060272202 0.04078228
0.06937877 0.03475761 0.06601642 0.07676906 0.085238546 0.093462825 0.06762533 0.076124705
00000000: fdfb bd3d 3ec7 4a3d 1d49 843d d3ed 183d
00000010: 5270 8f3d d625 a63d 7063 863d 1d82 953d
00000020: ff5d 6c3d 1313 3e3d 9118 4c3d 5bad 373d
00000030: f1c1 713d 2a7a a93d 1cd2 a83d 6d91 6c3d
00000040: 0275 933d 5760 083d 3e75 913d 8932 923d
00000050: e070 ae3d 84bd 673d c865 bd3d 0504 aa3d
00000060: 66b3 a33d b0dc 6d3d bce3 9f3d 4803 cd3d
00000070: 9138 9b3d af66 b83d 4f17 a53d 75ab a93d
00000080: ec61 123d eb50 b03d f011 c13d 1465 b53d
00000090: 8259 b03d ce31 a63d 5e4d 4b3d 1d27 9d3d
000000a0: 994b 513d 53a7 003d 27c5 aa3d 267d ee3c
000000b0: 2aa3 bd3d 4e71 5e3d b77a 8b3d 0125 953d
000000c0: 37a5 303d e4fd 273d effc a23d 080f a63d
000000d0: 7680 8f3d e65c 693d 089b 813d 9559 5a3d
000000e0: d2c5 1d3d 832c 993d 190c fb3c 4f74 4f3d
000000f0: 5660 aa3d 161b 6c3d d740 3a3d cf16 543d
00000100: b0ac e63c 5bcd ba3d 965a 7f3d 03a4 b03d
00000110: 1bde 7a3d 5cf7 543d bb3a 793d c690 9a3d
00000120: c1ec 733d 1288 433d 74f2 233d e076 983d
00000130: 306a 303d 9aa9 7e3d 02cb 223d 45f1 813d
00000140: b8c1 5e3d d208 213d 7d27 4c3d 17cd 4d3d
00000150: d13e a13d d6fb 8c3d 2989 a03d d2f7 983d
00000160: d48e 253d 4108 723d d954 ba3d ca23 843d
00000170: f9a4 5c3d 941d 283d d43f 893d 67e6 bf3d
00000180: f32b 003d 77a8 8e3d 4b53 6e3d ac6f ab3d
00000190: ff97 8e3d b04f 313d 84b0 253d 5ac2 903d
000001a0: 3964 993d 4bb3 393d 8877 ce3d 7c15 443d
000001b0: 0526 553d 2689 8d3d f051 a03d 39aa bc3d
000001c0: b4fc 873d 86d5 b93d 2fb9 6c3d d12e 563d
000001d0: 0093 453d be4b 9a3d fcdf 763d 520b 273d
000001e0: 7516 8e3d ff5d 0e3d 9e33 873d 1939 9d3d
000001f0: 8c91 ae3d 7069 bf3d 267f 8a3d 45e7 9b3d

layers.0.fc_neigh.weight f4 [128, 1433]
0.024177544 0.14378339 -0.05497761 0.14287692 -0.20771994 -0.10191464 0.08059559 0.008958354
-0.030146092 -0.077919975 -0.06739885 0.13685344 -0.012584944 0.107316874 0.036351282 -0.06498038
0.06609231 -0.017800685 -0.12032469 0.11819262 -0.034649603 0.10824386 -0.07806509 0.18076594
-0.0069599706 -0.031992394 0.07024423 0.09348982 0.025746405 0.06316273 -0.07351992 -0.09663034
0.06489227 -0.041227743 0.13909303 0.019772649 0.0034558384 -0.017176867 -0.019421874 0.08655743
-0.21246961 0.10491489 0.0710058 0.041104976 0.031278953 -0.0019448634 0.07797249 0.105230525
-0.06285433 0.15142778 -0.082853496 -0.030421706 0.17569938 -0.020492217 -0.11305853 -0.11981711
0.13572918 0.08141942 0.13538471 0.11390043 -0.06504555 -0.0033699584 -0.015990796 0.063053444
0.08602182 0.1384374 0.14365469 0.063410036 0.11021744 0.03076226 0.010943824 -0.008097415
0.09218474 -0.015581965 0.07986036 0.07037518 0.0565069 0.07374761 -0.13252914 0.092120394
0.031643804 0.03096715 -0.08481325 0.11412362 -0.10069594 0.11605332 0.124385156 0.03527293
0.011236432 -0.00046540922 0.007904293 0.07247007 0.066560775 -0.1582631 -0.00791975 -0.047047947
0.03690261 0.008523343 0.069045834 0.014367375 0.0846708 -0.0019963635 0.06834004 -0.011322479
0.08334949 0.10163316 0.054933123 0.11516635 -0.1036329 -0.037640255 0.018925631 0.04402431
0.12942386 -0.013609861 0.00059233553 -0.020251054 -0.053786173 0.117493264 -0.07612114 0.09256622
0.06425658 0.046063144 0.09634622 0.1041082 0.044823352 0.13891293 -0.07184745 -0.097798325
0.19913353 -0.022862278 0.09647776 0.19033642 0.15605344 0.077650405 -0.07788109 0.09689443
0.07153851 0.018107772 0.11398912 -0.085109726 -0.04743141 -0.121263616 -0.07831205 0.114842914
-0.01896066 0.05857718 0.122404374 0.02972564 -0.05684335 -0.06982491 -0.10100853 0.050791558
-0.09151788 0.008412347 0.038249627 0.15207903 0.050624833 0.058888577 0.06437207 0.006082069
0.18163362 -0.01633468 0.060550153 -0.095600106 -0.10399662 0.21966317 0.11606887 -0.080432326
0.08174922 -0.0038087755 0.02054813 0.17638771 0.09627491 0.05162417 -0.05865992 0.08216005
0.10325899 0.001468201 -0.008487644 0.11955774 -0.070550136 -0.017466178 -0.12800363 0.076291226
0.15728238 0.034431536 -0.10734847 0.022425232 0.027878888 0.013187847 -0.08644493 -0.16015491
-0.09202898 0.0037492549 0.015990784 0.08093622 -0.08444577 -0.093725264 -0.009086985 0.045562554
0.013337436 0.06392113 -0.10268307 -0.04600459 -0.0122812 0.13337174 0.036159024 0.023641216
0.024680665 0.038417812 -0.019014454 0.092207 0.040743615 0.06330671 -0.029991476 0.14369026
-0.033606745 0.18001264 -0.0051370636 -0.037826177 0.004702272 0.056465484 -0.018604113 -0.080436766
0.011685384 -0.0014289576 -0.083210535 -0.022040728 -0.092794135 0.024649546 -0.045436196 -0.052460343
-0.06558601 0.07844492 -0.0074754353 0.077518374 -0.07351186 0.15450633 0.032784484 0.027761595
0.0039408696 -0.013953211 -0.11487632 0.10013943 -0.030217508 0.0045974352 0.042245533 0.08424727
-0.029154098 0.103155635 0.05499998 -0.027984202 0.15041755 0.1344094 0.07469013 0.01906693
00000000: fc0f c63c f43b 133e 3430 61bd 544e 123e
00000010: 89b4 54be 9fb8 d0bd 4d0f a53d 0fc6 123c
00000020: f0f4 f6bc 8294 9fbd 6908 8abd 4f23 0c3e
00000030: 1531 4ebc f3c8 db3d 15e5 143d 6f14 85bd
00000040: 685b 873d bed2 91bc cb6c f6bd f90e f23d
00000050: beec 0dbd f5ae dd3d 97e0 9fbd b51a 393e
00000060: 7710 e4bb 750a 03bd 35dc 8f3d 9777 bf3d
00000070: 20ea d23c 765b 813d 9d91 96bd 21e6 c5bd
00000080: 3de6 843d 6cde 28bd 676e 0e3e 40fa a13c
00000090: 597b 623b 80b6 8cbc 9f1a 9fbc 0645 b13d
000000a0: a291 59be 9edd d63d 7d6b 913d b15d 283d
000000b0: 5c1e 003d c9ea feba 0ab0 9f3d 1a83 d73d
000000c0: c5b9 80bd e20f 1b3e 18af a9bd f136 f9bc
000000d0: 8aea 333e 4bdf a7bc 3b8b e7bd ac62 f5bd
000000e0: 97fc 0a3e 3abf a63d 4aa2 0a3e a144 e93d
000000f0: 9a36 85bd 85da 5cbb 21ff 82bc 2a22 813d
00000100: 352c b03d 89c2 0d3e 371a 133e 1fdd 813d
00000110: aeb9 e13d 2301 fc3c ba4d 333c 05ab 04bc
00000120: 5acb bc3d 804b 7fbc d48d a33d dd20 903d
00000130: c773 673d fd08 973d b8b5 07be 9ea9 bc3d
00000140: ef9c 013d d2ae fd3c 92b2 adbd a5b9 e93d
00000150: ac39 cebd 5dad ed3d a5bd fe3d 597a 103d
00000160: 0319 383c 2b02 f4b9 0281 013c 306b 943d
00000170: 0451 883d b90f 22be d7c1 01bc 59b5 40bd
00000180: 3127 173d 7ea5 0b3c e767 8d3d 2365 6b3c
00000190: e267 ad3d 6cd5 02bb ddf5 8b3d eb81 39bc
000001a0: 23b3 aa3d 0c25 d03d 8e01 613d 56dc eb3d
000001b0: 7c3d d4bd ab2c 1abd ed09 9b3c d652 343d
000001c0: b087 043e e5fb 5ebc f746 1b3a 8ae5 a5bc
000001d0: e44e 5cbd 4fa0 f03d 66e5 9bbd 5c93 bd3d
000001e0: f498 833d b5ac 3c3d 2b51 c53d ae36 d53d
000001f0: b198 373d 313f 0e3e c224 93bd 7d4a c8bd
00000200: a9e9 4b3e ac49 bbbc 2296 c53d 8de7 423e
00000210: 79cc 1f3e 2d07 9f3d 1f80 9fbd 9670 c63d
00000220: c882 923d c056 943c 2173 e93d 024e aebd
00000230: 7047 42bd 0f59 f8bd 1162 a0bd c332 eb3d
00000240: 6353 9bbc a0ee 6f3d 25af fa3d 2f83 f33c
00000250: 93d4 68bd 5d00 8fbd 8fdd cebd cf0a 503d
00000260: ba6d bbbd f1d3 093c a4ab 1c3d 9bba 1b3e
00000270: fc5b 4f3d 2635 713d 81d5 833d 184c c73b
00000280: 2afe 393e 4fd0 85bc 7003 783d fdc9 c3bd
00000290: 2efc d4bd 62ef 603e 84b5 ed3d b4b9 a4bd
000002a0: 236c a73d a69c 79bb 8d54 a83c fb9e 343e
000002b0: c82b c53d de73 533d 6245 70bd 8743 a83d
000002c0: 7379 d33d a770 c03a c20f 0bbc b0da f43d
000002d0: 977c 90bd 3b15 8fbc 6213 03be 933e 9c3d
000002e0: a20e 213e 1508 0d3d 84d9 dbbd 1fb5 b73c
000002f0: 4462 e43c d711 583c 0a0a b1bd a6ff 23be
00000300: b179 bcbd 0fb6 753b 1bff 823c e4c1 a53d
00000310: e7f1 acbd 08f3 bfbd 94e1 14bc cd9f 3a3d
00000320: 4385 5a3c 15e9 823d 804b d2bd 4f6f 3cbd
00000330: 1637 49bc 9a92 083e 7c1b 143d 39ab c13c
00000340: 1b2f ca3c ff5b 1d3d 33c4 9bbc 06d7 bc3d
00000350: c7e2 263d f3a6 813d afb0 f5bc 8a23 133e
00000360: 3aa7 09bd 3c55 383e d054 a8bb 9fef 1abd
00000370: 8415 9a3b 5a48 673d a767 98bc 08bc a4bd
00000380: 0e74 3f3c dc4b bbba 496a aabd c28e b4bc
00000390: da0a bebd d8ed c93c 4e1b 3abd a8e0 56bd
000003a0: f551 86bd bba7 a03d 7ff4 f4bb f4c1 9e3d
000003b0: 638d 96bd e836 1e3e 0649 063d 496c e33c
000003c0: 6922 813b 029c 64bc 4744 ebbd e715 cd3d
000003d0: b58a f7bc 15a6 963b a709 2d3d d589 ac3d
000003e0: 93d4 eebc 4343 d33d a947 613d 203f e5bc
000003f0: 0f07 1a3e 9ea2 093e 24f7 983d 4032 9c3c

layers.1.bias f4 [128]
0.01313751 0.0147128925 0.01464737 0.00627747 -0.00048001128 -0.00795574 -0.005380597 -0.010632143
0.014180486 -0.002343368 -0.0046688737 0.006626903 -9.035554e-05 0.0066469912 0.009614079 0.0057676476
0.014637571 -0.007267737 -0.0038221953 0.011005458 0.004953082 0.003887855 -0.008060416 0.009545684
0.010795105 0.011598007 0.008071912 0.0034717745 -0.0050063757 0.0072602048 0.0057394677 -0.009109664
0.0062803193 0.0055117705 0.0027025451 0.005935086 0.018426262 0.005723084 0.003584979 -0.004232017
0.002749419 -0.00861225 -0.00920962 0.0071393806 -0.0006806291 0.004707968 -0.009634722 0.013708123
-0.008698308 -0.0069421097 0.0065966165 -0.0033955227 0.0018919158 0.003938818 -0.010730765 0.004472656
0.008636929 -0.0014981478 0.005453756 -0.0024933817 0.010056759 -0.007931762 -0.002577013 -0.0021484457
0.009040032 0.0012816665 0.005239422 0.004020397 -0.0051769163 0.003910348 -0.0085580135 0.0023079477
-0.008351658 0.008179958 0.00042863336 -0.0027155632 0.009614421 0.001471509 0.009444647 -0.008453845
0.006102124 0.0051640426 -0.006520578 0.0063483547 0.010526067 -0.008984594 0.0038574457 -0.00897093
-0.0060623907 -0.007710615 -0.005208977 -0.009772868 0.01799267 0.00864654 -0.0028560255 0.011865926
-0.004313965 0.0041737054 0.0016314326 -0.009054185 0.006119409 -0.00049053656 -0.010056135 -0.0019576664
0.004989817 -0.010877947 -0.008838438 0.004108476 0.0049204617 -0.0037243112 0.001974988 -0.011485133
-0.009324447 0.013427204 0.006365328 -0.007835924 0.007880947 0.0018805317 -0.004926081 -0.0030654226
0.014789217 0.004319625 0.011531614 0.004323044 -0.014577726 0.013339221 0.005665758 -0.0093999775
00000000: b63e 573c 580e 713c 86fb 6f3c 3cb3 cd3b
00000010: 06aa fbb9 cb58 02bc b84f b0bb 7132 2ebc
00000020: 4555 683c 3193 19bb 5afd 98bb 7e26 d93b
00000030: 437d bdb8 01cf d93b 5f84 1d3c 89fe bc3b
00000040: 6cd2 6f3c 3226 eebb cc7d 7abb 3d50 343c
00000050: 774d a23b 62cb 7e3b d60f 04bc 8065 1c3c
00000060: f4dd 303c 9105 3e3c 0e40 043c b686 633b
00000070: 860c a4bb 03e7 ed3b 2512 bc3b b340 15bc
00000080: 23cb cd3b 159c b43b 2f1d 313b 1c7b c23b
00000090: acf2 963c b588 bb3b f8f1 6a3b bbac 8abb
000000a0: 992f 343b 651a 0dbc f2e3 16bc 77f1 e93b
000000b0: 3f6c 32ba 4c45 9a3b f4da 1dbc 0998 603c
000000c0: 5983 0ebc a37a e3bb 6e28 d83b 6b87 5ebb
000000d0: 29fa f73a 3311 813b 17d0 2fbc 5c8f 923b
000000e0: e881 0d3c 805d c4ba 6cb5 b23b 0168 23bb
000000f0: 1bc5 243c 39f4 01bc 1be3 28bb f0cc 0cbb
00000100: a41c 143c 97fd a73a 75af ab3b 89bd 833b
00000110: 1fa3 a9bb 6022 803b e936 0cbc f040 173b
00000120: 64d5 08bc 3b05 063c 32ba e039 97f7 31bb
00000130: ce85 1d3c a6df c03a b8bd 1a3c ff81 0abc
00000140: 54f4 c73b 2137 a93b 93aa d5bb dc05 d03b
00000150: 8675 2c3c 1e34 13bc 33cd 7c3b cffa 12bc
00000160: 05a7 c6bb 54a9 fcbb 11b0 aabb 611e 20bc
00000170: 5d65 933c 38aa 0d3c 282c 3bbb 4d69 423c
00000180: 295c 8dbb 94c3 883b cbd5 d53a 0158 14bc
00000190: 5385 c83b 5a97 00ba 7dc2 24bc 314c 00bb
000001a0: 9e81 a33b 6b39 32bc 19cf 10bc 65a0 863b
000001b0: d33b a13b 9313 74bb cd6e 013b 242c 3cbc
000001c0: 91c5 18bc c7fd 5b3c 3e94 d03b 3f62 00bc
000001d0: 161f 013c 2c7c f63a f66a a1bb 42e5 48bb
000001e0: 794e 723c a48b 8d3b 18ef 3c3c 52a8 8d3b
000001f0: 6ad7 6ebc bf8c 5a3c d3a7 b93b 5d02 1abc

layers.1.fc_neigh.weight f4 [128, 128]
0.22696997 -0.093236 -0.084802255 -0.049773015 -0.13719869 -0.1957853 0.21698806 -0.22070889
0.28349748 0.0053021545 -0.10090782 -0.17645197 -0.05032167 -0.14991726 -0.17183135 -0.03908957
0.21323213 0.17025286 -0.15561779 -0.16416866 -0.050590295 0.08955882 0.1257887 0.27249476
0.15325233 -0.23503642 -0.18827693 -0.22735181 0.011807907 0.04621103 -0.12643047 -0.20880845
-0.018740261 0.011840834 0.12589028 -0.11023505 -0.14383245 0.10122383 0.2037282 -0.11499653
0.18700697 0.15828758 0.12055347 -0.2084955 0.16905044 0.02196113 0.26756063 -0.06783399
-0.21923387 0.22524062 0.014365752 0.20167269 0.14059296 0.049156323 -0.058041506 -0.21897994
0.08642234 0.14984936 0.07013655 0.091387495 0.19308041 -0.034038913 -0.21666059 -0.23791079
-0.21006471 0.06376235 -0.03649517 -0.047597215 0.19742326 0.27129272 0.101502344 -0.0069701616
0.21426763 -0.061301216 -0.26283324 0.016142063 -0.21874134 -0.07289206 -0.12080858 0.15132411
0.20376953 0.047985148 -0.23471938 0.23650469 -0.24170454 -0.23635478 -0.19347683 0.030088367
-0.0804191 0.18222709 0.11487227 -0.2417104 -0.17502251 -0.19692978 -0.20215632 0.16133092
0.11465551 -0.098825164 -0.07698536 0.05705511 -0.06553558 -0.11997397 -0.07194269 0.26474965
0.080661036 0.12033579 0.17715484 0.031576477 -0.15030423 0.047512084 0.09783557 -0.16624048
0.22996414 -0.17657828 -0.09056544 -0.10859431 0.04949825 0.24140058 0.028899316 -0.009017014
0.10510524 -0.005589437 0.11116514 0.04593923 -0.01117553 -0.21311177 0.0057943333 -0.15697508
0.07781533 -0.04901593 -0.17278004 0.017355287 0.27771375 0.22881773 0.12285304 -0.21913138
0.10391221 -0.060956355 -0.20403305 0.019886227 0.049744263 0.05100996 0.061095852 -0.20988105
-0.18425101 0.0123679545 0.069573626 0.1924412 0.1036134 0.059572063 -0.00068862236 0.019630875
0.16833417 -0.09001282 0.021925889 -0.036098827 0.10934802 0.072889484 0.15278049 -0.14581223
0.23547952 0.045714438 -0.24463467 0.2653841 0.06658189 0.2510753 0.072172984 -0.23187615
0.20090786 -0.067976125 0.12909114 0.24564779 -0.034852367 -0.13188295 -0.213295 -0.19316442
0.16462891 -0.118459634 -0.18334651 -0.20735973 0.25905088 0.12441075 0.15656696 0.023872672
0.0119074825 0.06746627 0.08528108 -0.13563049 -0.17235136 -0.08658264 -0.25981218 0.056360897
0.12668808 0.052321695 -0.08191706 0.23326749 -0.0685309 -0.14980333 -0.24386081 0.028779348
-0.0983785 -0.07743737 -0.23467915 0.097031444 0.16962697 -0.039929666 0.11645028 -0.1999738
0.22098836 0.07799794 0.017249806 -0.024879228 -0.08009073 -0.17715001 0.015602797 0.020625653
0.24020243 -0.2064963 0.09822909 0.19176272 0.009538001 -0.14365187 -0.19931816 0.15290786
0.21111795 0.0363709 0.15835302 -0.0020392374 0.020624295 0.12235664 -0.17494494 -0.11160467
0.040023353 0.21082148 -0.17653269 -0.20096602 -0.2308151 0.19823813 0.11745555 0.13151407
0.20685852 -0.06800109 -0.04314529 -0.10219728 -0.23389532 -0.06012538 -0.12737215 0.18476501
-0.17164007 0.06902936 -0.074823044 -0.21477705 -0.15137543 0.15642078 -0.1900034 -0.18957692
00000000: d16a 683e 84f2 bebd ceac adbd cade 4bbd
00000010: d07d 0cbe f17b 48be 1e32 5e3e 8301 62be
00000020: 9526 913e b2bd ad3b c2a8 cebd d3af 34be
00000030: 181e 4ebd e983 19be 8ff4 2fbe 631c 20bd
00000040: 8659 5a3e c456 2e3e 455a 1fbe d41b 28be
00000050: c537 4fbd 9d6a b73d c1ce 003e 6f84 8b3e
00000060: 2eee 1c3e 63ad 70be abcb 40be eace 68be
00000070: f475 413c c747 3d3d fd76 01be e2d1 55be
00000080: 2d85 99bc 0f00 423c 62e9 003e eac2 e1bd
00000090: d048 13be 704e cf3d 209e 503e 4d83 ebbd
000000a0: c17e 3f3e 2416 223e bde4 f63d d87f 55be
000000b0: 8f1b 2d3e d4e7 b33c b5fd 883e 8cec 8abd
000000c0: d87e 60be 7aa5 663e 555e 6b3c 4983 4e3e
000000d0: 9af7 0f3e 2458 493d eebc 6dbd 473c 60be
000000e0: 32fe b03d 1c72 193e c0a3 8f3d 5e29 bb3d
000000f0: dfb6 453e 636c 0bbd 46dc 5dbe e39e 73be
00000100: 341b 57be d695 823d f67b 15bd 4cf5 42bd
00000110: 5329 4a3e e1e6 8a3e 76e0 cf3d f465 e4bb
00000120: f968 5b3e fc16 7bbd 1492 86be 5c3c 843c
00000130: bbfd 5fbe 6f48 95bd 7d6a f7bd b5f4 1a3e
00000140: f6a8 503e 138c 443d 475a 70be 492e 723e
00000150: 6581 77be fd06 72be ca1e 46be e17b f63c
00000160: c5b2 a4bd bd99 3a3e 2742 eb3d ee82 77be
00000170: 1a39 33be f6a7 49be 1102 4fbe ef33 253e
00000180: 82d0 ea3d d964 cabd 80aa 9dbd 9eb2 693d
00000190: 8537 86bd eab4 f5bd b056 93bd 448d 873e
000001a0: 9d31 a53d 9c72 f63d 1468 353e 5656 013d
000001b0: 5ae9 19be 089c 423d 045e c83d f23a 2abe
000001c0: b87b 6b3e f0d0 34be 607a b9bd b266 debd
000001d0: adbe 4a3d b731 773e 42be ec3c 19bc 13bc
000001e0: 6b41 d73d 9927 b7bb 8daa e33d c62a 3c3d
000001f0: 9219 37bc f939 5abe 64de bd3b 13be 20be
00000200: a55d 9f3d eec4 48bd 40ed 30be ad2c 8e3c
00000210: 7f30 8e3e 324f 6a3e 609a fb3d fa63 60be
00000220: edcf d43d 5fad 79bd 0aee 50be 71e8 a23c
00000230: a4c0 4b3d d2ef 503d a53f 7a3d 0feb 56be
00000240: 4cac 3cbe f6a2 4a3c 9e7c 8e3d 4e0f 453e
00000250: 4333 d43d d601 743d aa84 34ba eed0 a03c
00000260: cb5f 2c3e a458 b8bd ec9d b33c 5ddc 13bd
00000270: dbf1 df3d 1547 953d 7d72 1c3e cd4f 15be
00000280: 8b21 713e 103f 3b3d 8381 7abe 6de0 873e
00000290: 165c 883d f18c 803e 6ecf 933d f170 6dbe
000002a0: caba 4d3e 1137 8bbd 7830 043e 188b 7b3e
000002b0: 5bc1 0ebd 530c 07be 016a 5abe e5cc 45be
000002c0: 7b94 283e f79a f2bd 30bf 3bbe 1c56 54be
000002d0: 51a2 843e 10cb fe3d 1753 203e 9f90 c33c
000002e0: 9a17 433c c12b 8a3d d9a7 ae3d b8e2 0abe
000002f0: e07c 30be 3d52 b1bd 1a06 85be afda 663d
00000300: 85ba 013e 464f 563d 22c4 a7bd acdd 6e3e
00000310: ee59 8cbd 0b66 19be a6b6 79be abc2 eb3c
00000320: ab7a c9bd 7c97 9ebd bb4f 70be 6cb8 c63d
00000330: b1b2 2d3e 4a8d 23bd 7c7d ee3d efc5 4cbe
00000340: c64a 623e 62bd 9f3d 774f 8d3c 86cf cbbc
00000350: 9c06 a4bd d066 35be e0a2 7f3c 21f7 a83c
00000360: a0f7 753e c473 53be 552c c93d 725d 443e
00000370: 4745 1c3c 7a19 13be 0f1a 4cbe e193 1c3e
00000380: 4e2f 583e a7f9 143d 4b27 223e baa4 05bb
00000390: 48f4 a83c 1e96 fa3d c424 33be fd90 e4bd
000003a0: 87ef 233d 96e1 573e fcc4 34be 09ca 4dbe
000003b0: cb5a 6cbe f0fe 4a3e 898c f03d a0ab 063e
000003c0: b8d2 533e 2844 8bbd 1eb9 30bd cf4c d1bd
000003d0: 4182 6fbe 0846 76bd d86d 02be 0a33 3d3e
000003e0: 6ac2 2fbe 445f 8d3d d33c 99bd 84ee 5bbe
000003f0: 2902 1bbe c52c 203e 4090 42be 7420 42be
