pre_data/cora_model_128GCN.pt (torch, 802131 bytes, 4 tensors)

layers.0.weight f4 [1433, 128]
00000000: ac42 bf3d 9592 5bbd d277 9a3d 23e1 d0bc
00000010: 5a17 4dbd 4578 c5bc 9956 443c 692f 0f3d
00000020: 2017 b93c 07e1 a4bc 4412 673d 253f 163c
00000030: ff44 dc3d 991b 1cbd 0c49 a53c 20a0 28bc
00000040: e7c1 3a3d dae1 17bc 1138 bbbd 8475 7e3d
00000050: c0a8 8a3c 996e ca3b 15c0 f4bd a5e9 58bd
00000060: ce95 803d 8539 453e 8b5c 4b3d 1d0f f1bc
00000070: dc1b bd3d 8abe e8bb 1c79 c0bd 0790 203e
00000080: e891 04be 8adb 613d e0e6 fb3b 660a f13b
00000090: 5d24 083d 416d 26bd 2e17 bb3c 4054 7b3d
000000a0: c9d0 ef3c cd00 27bd a9f3 b63c 84f5 26bc
000000b0: 8f69 583d 3652 343b 87e5 e4bd 957b e7bd
000000c0: c5eb dfbd c3f0 99bd 9f63 8bbc 24ed 1ebd
000000d0: da24 aebb e487 423c e21a 823d 775d a63d
000000e0: 9307 48bd a889 51bd 059a ff3d df4f 99bd
000000f0: 38cb 88bd 6cb9 24bd 41cc bebc d587 a23a
00000100: 68fd 223e de1a a9bd f311 8f3c deba b03d
00000110: 150d 58bd 646d ebbc 4025 e5bd 7990 663d
00000120: 62a4 9fbd 9c7e 1f3d 6fd7 153d 6aff ccbc
00000130: 1ab0 263a e13c 333e 343d d7bc 51ce 903d
00000140: 954c bdbd 7ce3 67bc 140f c93c 88b6 763d
00000150: 4467 a4bc 2850 3b3d ab33 51ba 04bf 733d
00000160: f8e0 e33d e9b2 4a3c de74 a53d e318 a6bd
00000170: ba2c 093d 633f 293d 384a 873c f441 df3c
00000180: e9e6 0bbe 0d02 b7bd c40e 2cbd adc9 0abd
00000190: 8f1e 043d 10fa 7f3d 7888 513a 9222 eb3c
000001a0: a6df c2bc 96dd 42bd 9dd5 523c 05d8 a03c
000001b0: 5fae 56bd 39ff 303d 6c83 e33c e24c d03c
000001c0: e569 cd3d f61b 373d ab27 823c 5d68 353d
000001d0: e53c 873d b59a 213e 242e 1dbd 2214 bd3c
000001e0: 7625 acbd a69d 0d3b 2c5c 37ba 8513 0b3e
000001f0: 5104 bd3d 116d d53c 880b 893d 728f adbd
00000200: 739a 833d 27b2 d9bd 970b ab3c 3a6b 003e
00000210: 776c 72bc f754 4dbe a045 c5bc 8bb1 f4bd
00000220: 3c01 23bc d2dc 413e e65f 163d 2ad8 3dbd
00000230: dafd 6d3c 5a18 08be cbbb 373e 1f1c 193e
00000240: 1687 1dbc 78ec 85bc 91a9 88bd a6f0 b73c
00000250: 3dd5 ed3d c2f9 993e b202 abbd be57 b9bd
00000260: d757 b93d 88ec 8bbd fcab cfbd bd91 29be
00000270: 398a ca3d b1b2 8cbd dc9d 8fbd e492 b9bd
00000280: fe2a 13be b31f 50be b47b 653d 15df ab3d
00000290: 5d97 a3bd 6c77 10be 0e3b 493e cda3 213d
000002a0: 1817 26be a35d 873d 211a 09be f992 5cbd
000002b0: 23fb ad3d e8e0 26bd efe2 0d3e 0f72 2fbe
000002c0: 853d a4bd d753 0dbe fff8 a63d 0d86 7bbd
000002d0: d066 db3d e3df 0e3e 0c47 163e 2c6f 06be
000002e0: c8e3 123d 7333 9abd 373a 263e 3c0d 9bbd
000002f0: 4beb ebbc ec3b 3dbd e09f 983d c509 2d3c
00000300: 782a fd3d 23aa e6bd 19b8 d33d 4dbb 0bbd
00000310: 4b36 f9bd f846 823d 7866 0d3e 7518 883d
00000320: a49f d6bd 8d2a e73d 2b0b 203d ab7d 8c3c
00000330: 3785 123c 88db c1bd 106e b5bd 7354 413e
00000340: 8385 363e 9ae8 033e 5089 473c 2f30 0f3e
00000350: a580 123b fe9e 013e 5dea db3d 7f83 3e3e
00000360: 0842 433c 692e dcbd ed12 b53d 5f54 f9bc
00000370: c5b7 c13c a916 c7bd 7694 4f3e b24e b7bd
00000380: 3966 d3bc 1420 e13d ec1a 0a3c b521 c5bd
00000390: 6550 133d 3f47 2e3e 037b 02be d42b b53d
000003a0: a708 af3c a528 d7bd 36f8 cd3d f54e 9ebc
000003b0: 9693 55bd cb66 fcbc 5995 e63d 3f46 1cbc
000003c0: a832 ba3d 0b3d adbc 2801 d33d 78d6 72bc
000003d0: 1da4 f73d 0527 cebc 9c04 473c d110 b7bc
000003e0: 2300 e6bd 5146 013e 1b8f 72bd 98a0 fe3c
000003f0: 9ae8 cd3d bf9a 0e3e 862d fdbd 8542 77bd
0.093388885 -0.05360659 0.07542385 -0.025497979 -0.050071098 -0.0241052 0.011983537 0.034957323
0.022594035 -0.020126833 0.056413904 0.009170328 0.107553475 -0.038112257 0.020176433 -0.010292083
0.045595076 -0.009270156 -0.09141553 0.06212379 0.01692617 0.006177735 -0.11950699 -0.052957196
0.06278573 0.19260223 0.049648803 -0.029426152 0.092338294 -0.007102792 -0.093981 0.15679942
-0.12946284 0.05514101 0.0076874346 0.007355976 0.033237804 -0.040631536 0.022838201 0.061359644
0.029274361 -0.040772248 0.022332983 -0.010190371 0.052835044 0.0027514822 -0.11176591 -0.11302868
-0.10933641 -0.07516625 -0.017015276 -0.038800374 -0.0053144516 0.011873219 0.06352784 0.08123296
-0.04883535 -0.05115667 0.12480549 -0.07485937 -0.06679386 -0.040215895 -0.023290755 0.00124001
0.1591698 -0.08257078 0.017464614 0.08629392 -0.05274685 -0.028738685 -0.111887455 0.056290124
-0.077950254 0.038939103 0.036582407 -0.025024135 0.00063586386 0.17503692 -0.026274301 0.07070602
-0.092431225 -0.014153358 0.024543323 0.06023267 -0.020068772 0.04573074 -0.00079804164 0.05950834
0.11126894 0.012371757 0.08078931 -0.081102155 0.03348992 0.041320216 0.016514882 0.027253129
-0.13662304 -0.08935938 -0.04200627 -0.03388374 0.032255705 0.062494338 0.0007993053 0.028703008
-0.023788285 -0.047574602 0.012868312 0.019634256 -0.052412387 0.04321215 0.027772628 0.025427286
0.100299634 0.0447044 0.015888056 0.04428898 0.066034116 0.15781672 -0.03837408 0.02308089
-0.084055826 0.0021608858 -0.00069946307 0.13581665 0.09229339 0.026052983 0.066916525 -0.08474626
0.06425943 -0.10629683 0.02087955 0.12540904 -0.014796368 -0.20051943 -0.024081051 -0.11947926
-0.009949025 0.18931893 0.03671255 -0.04634873 0.014525855 -0.1329054 0.17942731 0.14952134
-0.0096147265 -0.016348109 -0.06672967 0.022453617 0.116129376 0.30073363 -0.083501235 -0.090499386
0.09049957 -0.06832224 -0.10140225 -0.16559501 0.09889645 -0.0687002 -0.07012531 -0.0906122
-0.14371869 -0.20324592 0.056026176 0.08392159 -0.07987855 -0.14108056 0.19651434 0.039462853
-0.16219747 0.06609657 -0.13388874 -0.0538511 0.08495166 -0.04074183 0.138561 -0.17133354
-0.080195464 -0.13801514 0.08152961 -0.061407138 0.10712969 0.13952594 0.1467554 -0.13128346
0.03586176 -0.075293444 0.16233145 -0.07570884 -0.02879872 -0.046199724 0.07452369 0.010561411
0.12361616 -0.1126292 0.10337848 -0.03411417 -0.12168559 0.063611925 0.1380862 0.0664529
-0.10479668 0.11287413 0.03907315 0.017149767 0.008942894 -0.094657004 -0.088588834 0.18879871
0.17824368 0.12881699 0.012178734 0.13983224 0.002235451 0.12658307 0.107380606 0.1860485
0.011917599 -0.107510395 0.088415004 -0.03043574 0.023647198 -0.09721119 0.20271477 -0.08950557
-0.02580558 0.109924465 0.00842927 -0.0962557 0.035965342 0.17019366 -0.12742238 0.0884625
0.02136643 -0.10505799 0.10057108 -0.019324759 -0.052142702 -0.030810734 0.112589546 -0.009538232
0.09091693 -0.021147272 0.10302955 -0.014821641 0.12091849 -0.02516509 0.012147095 -0.022346886
-0.11230495 0.1262448 -0.059218507 0.031082436 0.10054131 0.13926218 -0.123621985 -0.060366172

layers.0.bias f4 [128]
00000000: e026 703c c024 a93c e189 893c b15b ba3c
00000010: 46b5 4f3c c649 923c 2930 303c 857d b33c
00000020: c361 8b3c 1e9f c13c 6f87 8e3c 9a12 083d
00000030: c1e3 c13c 74a5 e03c a367 cd3c fa13 673c
00000040: be13 c73c 2e56 8b3c 63d8 5a3c d2aa 9c3c
00000050: 4f84 8f3c 16b8 f43c 343c 803c 48e8 803c
00000060: 2ad6 a83c bf31 773c 0773 613c 3ed1 e53c
00000070: ee7b 873c 3091 5c3c f17c 933c 6b50 c83c
00000080: 4771 513c 6cbb 753c 0200 a43c 6e8f 9d3c
00000090: 3d2e a83c fb9a 8e3c c69c bc3c c2b6 ac3c
000000a0: 865b c63c 5abd 2f3c 5857 ab3c 2d61 9d3c
000000b0: 4109 b73c 7a95 bd3c 3806 193d 4de8 6b3c
000000c0: 4601 bf3c 8741 073d 70e0 e23c c3ab d83c
000000d0: 1404 173c 2b06 cd3c ecc0 ce3c dce3 313c
000000e0: 13f5 af3c 4bff 773c 6412 6a3c 30a3 f93c
000000f0: 9e18 cd3c 0e01 eb3c cb93 ab3c bbfb 993c
00000100: 357c e93c 74a4 aa3c 5402 493c 7e0c a53c
00000110: 4003 313c e362 6f3c 21ec 123d c930 a03c
00000120: 6b03 793c 6cca 963c c14d 8d3c c9be 0c3d
00000130: 3d43 7d3c b03b 7e3c d2a5 db3c 5948 753c
00000140: 6ea3 693c 8858 273c 3453 9d3c 449b 843c
00000150: be9d 983c 998b a23c ac55 503c 7f2f 9b3c
00000160: 7b3f 333c 828a b63c 506b f43c d32f 783c
00000170: b26f bd3b 021c 1c3c afa1 b03c aa91 a63c
00000180: e95e 613c ac83 413c d219 853c 4c06 b13c
00000190: 0764 a73c 24da 5b3c 687e 863c aa90 c83c
000001a0: da2d 233c 7f4a 9d3c bbf3 9e3c 24b3 783c
000001b0: 7958 b23c d816 913c 3573 0c3d c9f7 9d3c
000001c0: faaf b83c a900 8a3c a5ce 9f3c 18d4 563c
000001d0: 720d ae3c 820b b73c 1e53 963c 595a 463c
000001e0: 9f1d 623c d0fe 4b3c 3b95 803c 7cef a73c
000001f0: f411 8d3c 19f3 a13c 104a 823c 2098 a43c
0.014657706 0.020647407 0.016789379 0.0227488 0.012677496 0.017857444 0.01075367 0.021910438
0.01701439 0.023635443 0.017398564 0.033220865 0.023668172 0.027422644 0.025073832 0.014103884
0.024301406 0.017008867 0.013357255 0.019124422 0.017519144 0.029872935 0.015653707 0.01573576
0.020609934 0.015087544 0.013760335 0.028053876 0.016538586 0.01346235 0.018003913 0.024452409
0.012783355 0.014998298 0.020019535 0.019233432 0.02052986 0.017407885 0.023023974 0.02108324
0.024213564 0.010726297 0.020915672 0.019211376 0.02234328 0.023142565 0.037359446 0.014398647
0.023316037 0.033021476 0.02769491 0.02644909 0.009217281 0.025027355 0.025238477 0.010857549
0.021479165 0.01513655 0.014286611 0.030473322 0.025036152 0.028687026 0.020944497 0.018796792
0.02850161 0.02083037 0.0122686215 0.020147558 0.0108039975 0.014610979 0.03586972 0.019554513
0.015198569 0.01840707 0.01724899 0.034361634 0.015457925 0.01551716 0.026812468 0.014970862
0.014260156 0.010213979 0.019204713 0.016187318 0.018629905 0.019841956 0.012715738 0.018943546
0.010940428 0.022282843 0.029836327 0.015148121 0.0057811374 0.009528162 0.021561472 0.02033313
0.0137555385 0.011811178 0.016247664 0.021609448 0.020433439 0.013418708 0.016417697 0.024483044
0.009959662 0.019200562 0.01940333 0.015179429 0.021770703 0.017711088 0.034289557 0.019283192
0.02254485 0.016846018 0.019507715 0.0131120905 0.021246646 0.022344355 0.01835018 0.0121065015
0.0138010075 0.012450889 0.015696159 0.020499937 0.017220475 0.019769238 0.015904456 0.02009207

layers.1.weight f4 [128, 128]
00000000: 491d 453e b209 3a3e a8cc bdbd b3d8 fa3d
00000010: 0321 18be 0eea a4bd f7c6 c03d 96a6 e8bd
00000020: 35a6 38bc e706 e7bd 758b f5bd 77b0 1d3e
00000030: 82b8 febb 6a7c 953d 962e 1bbd 4b3e f9bd
00000040: 6ec5 0f3d 460f 8a3d 52ad fdbd 90c3 1c3d
00000050: 3ad8 53be b0ff 1fbd 4c33 f9bd d47e 653e
00000060: c78c 93bd ae0a 64bd 27c4 0f3e dd5f 3c3e
00000070: 13dc 233d bc90 dbbd b09d e7bd 4512 2ebe
00000080: 2830 ffbc ce3e 84bd ec3a 783e 7d31 fe3d
00000090: f2e3 27be e862 babc 0d94 27be 2a22 b7bc
000000a0: 229d bfbd 0afd 413e 0700 b1bb a129 0c3d
000000b0: 535e bd3d 09e8 0fbc 931f 1a3e 1317 9ebc
000000c0: 06ae 1abe 488d 3c3e 0e61 26be fab7 02be
000000d0: 8dfb 023e 1761 87bd 2139 d2bd 2050 4bbe
000000e0: b680 5b3d 9260 c53d 8ddf 3a3e d71a c13c
000000f0: 9c93 1abc 8267 89bd d6a0 a5bd f857 d23b
00000100: ac8c 09bd 74b3 053e 62cb de3d df86 cabd
00000110: 0e3c 4f3e ea01 1fba f855 a93d 130f 08bc
00000120: 301e ec3d 04b7 56be 1cf0 103e 02f7 78bd
00000130: 313e 493d 3203 fdbc 2536 cebd 2527 713d
00000140: 38c0 3cbe dd19 b83b 70f8 11bd 968a 133e
00000150: 3248 2cbd 031c 4a3d 2b3f 193e b554 2b3e
00000160: df38 23be d92f 04bd 390e eabd 3218 9c3c
00000170: e680 353c 7ab0 16be 0756 ea3b 781d 273d
00000180: aa0f 22be 5afe c2bd a531 bb3b 1e41 35bd
00000190: 0cc1 543d eb3a eabb 4814 313d 8890 06be
000001a0: 0f14 0bbc 9b05 2a3e 025e 003e 9bc9 b93d
000001b0: 28ff b9bd 5c75 20be 517d a6bd 9cd5 e93d
000001c0: 5093 733e 8409 d73c ed7e acbd 2861 cbbd
000001d0: 2d15 18be 16bd f03d 20a4 27be ddb3 293e
000001e0: 993b 483e af72 1e3e c3c9 293e e9a9 1e3e
000001f0: e779 ba3d c890 d93c 30f3 f6bd 4f72 f3bd
00000200: a993 be3d 1325 08be 337f f83d ecbe 473e
00000210: 5d02 d63d 3fb7 9a3c 146e 32be e3b8 173d
00000220: 6970 7dbd c12d 9dbd 04ff 1b3e 1e23 04be
00000230: 8d56 debb 277a 22be 53d2 d6bd f2cb 113e
00000240: 2fea eebd b2bf 34bd add9 1c3e 892d 573d
00000250: 58f6 1abd e148 57be 8ced 59be e728 97bc
00000260: 2ae7 72bd 27bb 28b8 5686 4e3e dbe9 163e
00000270: 0184 fbbd 7945 38be 0779 373e 0b0e e73d
00000280: e44f 9c3d ccc5 06bd 9a58 c2bd 2549 2abe
00000290: f64d a1bd 079f 483e 1e83 333e b74c e4bc
000002a0: 8386 aa3d c6d0 3fbe d8f5 3b3e 6235 313e
000002b0: 67c8 243e 83d1 82bd a170 2cbe ee7e 18bd
000002c0: 5ecf 733d e14e 4abd 65b9 eabd 1727 813d
000002d0: 0b2b b6bc 7273 dcbb fbb9 edbd 41a1 463e
000002e0: 4393 4c3d 482d 4f3d 3fd5 26be 22a9 df3d
000002f0: 115a 7dbb 7e2f ff3b ccaa 37be 7f98 09be
00000300: 1b55 5dbe 3454 bbbd 676a 96bd 6522 273e
00000310: ef6e 67be 7b79 1ebe c62c bbbd 0d4f 853c
00000320: 23b1 4fb8 353d 79bc bdb9 8abd 1894 48be
00000330: 8c36 78bd 5f44 5b3e 2480 b03d 64d7 d6bd
00000340: 48c5 88bb 8eb4 a83d 55ab 33bd a8fc cbbd
00000350: 7eea 4cbe 5c38 3ebd dca0 40be b941 243e
00000360: bcab 2abe 37b0 5a3e eadd ce3c 4d36 acbd
00000370: 2606 543d f224 fa3d c520 34bd be81 34be
00000380: 61fc 863d 0178 8dbc bac5 02be 2d14 cbbd
00000390: 1a23 3bbe 5ef8 a6bd d268 6cbe fb26 5fbd
000003a0: 59c9 1ebe 619d 173e 0c55 543e 27fc be3c
000003b0: b68c 113d e24f 91bc dac7 d4bc a041 ed3d
000003c0: 3c71 58bd 2ac1 bbbd a154 293c 1e72 de3d
000003d0: 49f1 8fbd 0a44 74bd d1da 693d 008c 1f3d
000003e0: 14af 3bbc b461 9a3d a407 af3d 892c e7bd
000003f0: 9ac4 1c3e df8c cd3d 9193 ac3d b881 e03d
0.19249453 0.18167761 -0.09267551 0.12248363 -0.14856343 -0.08052455 0.094129495 -0.11359899
-0.011270096 -0.112806134 -0.1198949 0.15399347 -0.00777346 0.07299121 -0.037886225 -0.121700846
0.035100393 0.067411944 -0.12386574 0.03827244 -0.20687953 -0.039062202 -0.12167987 0.22411662
-0.072045855 -0.055674247 0.1403967 0.18395944 0.0400048 -0.10720965 -0.113093734 -0.16999157
-0.031150892 -0.064572915 0.24241227 0.12411783 -0.16395548 -0.02275224 -0.1636507 -0.022355158
-0.093561426 0.18944183 -0.0054016146 0.034219388 0.092465065 -0.008783349 0.15051107 -0.019298112
-0.15105447 0.1841327 -0.16247961 -0.12765494 0.12791272 -0.06610315 -0.10264803 -0.19854784
0.053589545 0.0963756 0.1824934 0.023572369 -0.009434607 -0.06709196 -0.08087318 0.006419178
-0.03358142 0.13056737 0.10878636 -0.09889006 0.20237753 -0.0006065654 0.0826835 -0.008304375
0.11529195 -0.20968252 0.14154094 -0.06078244 0.049131576 -0.030885313 -0.10068921 0.05887522
-0.184327 0.0056183175 -0.03563732 0.14408335 -0.04206104 0.04934312 0.14965503 0.16731532
-0.15939663 -0.032272194 -0.11428494 0.019054506 0.011078095 -0.14715758 0.0071513685 0.040799588
-0.15826288 -0.0952117 0.005712705 -0.044251554 0.051941916 -0.007148137 0.043232232 -0.13141072
-0.008488669 0.16603701 0.12535861 0.09071656 -0.0908187 -0.15669769 -0.08129371 0.11417696
0.23786664 0.026249655 -0.08422647 -0.099306405 -0.14851828 0.11754815 -0.16371202 0.16572519
0.19553985 0.15473436 0.16580872 0.15494503 0.09105282 0.026558295 -0.12058103 -0.11887037
0.09305508 -0.13295393 0.12133636 0.19506425 0.104496695 0.018886207 -0.17424804 0.037041556
-0.06187478 -0.076747425 0.15234 -0.12904021 -0.00678522 -0.1586691 -0.10489335 0.14237955
-0.11665761 -0.044128127 0.15317412 0.05253366 -0.037832588 -0.21023895 -0.21282023 -0.018452121
-0.059302486 -4.022862e-05 0.20168433 0.14737646 -0.12281037 -0.17995252 0.17917262 0.11281975
0.076324254 -0.032903478 -0.09489556 -0.16629465 -0.07876198 0.19591914 0.17530486 -0.027868612
0.08326437 -0.18731984 0.183555 0.1730552 0.16092072 -0.063876174 -0.1683984 -0.037230425
0.059523933 -0.04939163 -0.114611425 0.06306284 -0.022237321 -0.0067276293 -0.116077386 0.19397451
0.049945127 0.050580293 -0.16292284 0.109209314 -0.003865842 0.007787644 -0.17936248 -0.13437079
-0.21614496 -0.0914692 -0.073445134 0.16321714 -0.22600912 -0.15476029 -0.09139399 0.016273046
-4.9517617e-05 -0.015212347 -0.06773708 -0.19587743 -0.060598895 0.214128 0.08618191 -0.10490301
-0.0041739084 0.08237563 -0.043864567 -0.099603 -0.20011327 -0.046440467 -0.18811363 0.16040696
-0.16667074 0.21356283 0.025252301 -0.084087946 0.051763676 0.12214078 -0.043976564 -0.17627618
0.06591106 -0.017269136 -0.12770739 -0.099159576 -0.18275109 -0.08152841 -0.23086861 -0.054480534
-0.15506496 0.14806129 0.20735568 0.023313595 0.035534583 -0.017738286 -0.025974203 0.115847826
-0.052842364 -0.091677025 0.0103351185 0.1086161 -0.07028443 -0.0596352 0.057093445 0.038951874
-0.011455316 0.07538167 0.08546379 -0.11287791 0.15309373 0.10036635 0.084265836 0.10962242

layers.1.bias f4 [128]
00000000: 35cb 97bb 51d2 e1b9 6f30 4abb 3902 1bba
00000010: 4ef8 8e3b 1068 86bb 85b5 eebb b82a 66bb
00000020: 10a8 8d3a 1886 a53b bedf ffbb 4bfc aebb
00000030: 1c39 713b 34c0 1dbc b0dc d4ba 8dba ef3b
00000040: 4113 cfbb 736a 943a 5140 f83b 952c 8a3b
00000050: 0a03 5a3c a8b9 c7ba e940 353b f2e4 e5bb
00000060: e483 5cbb ff2d 3ebc 1594 bf3b f54c 17bb
00000070: f0a4 393b 7a65 bcbb 6d41 fe39 a417 2d3c
00000080: fc6e 5e3b deff 023b 895c 92bb 4695 90bb
00000090: a4f8 233c dbec ce3a 1101 75bb 5449 fa3a
000000a0: 53f9 ce3a bec5 c8bb 86fd 34bb 8367 7c3b
000000b0: e35e c73a f676 b13b 1c79 f1bb d6ec b3ba
000000c0: a8c4 643c d74c 8abb e744 b83b dd6e 1fbc
000000d0: afcc 4abb f27a e6bb 9e21 4abb c2c8 25bb
000000e0: c822 233b 2db5 0cbc 2cbf c6bb a1b7 953b
000000f0: fe9c a8bb b2d9 cd3b a8ac b03b c6a7 f13a
00000100: e610 6e3a b317 9abc 7286 0539 198d f63b
00000110: e326 02bc 41f6 e83b a99b 433b 9aae 4fbc
00000120: 6b81 54bc 138e cfba fd36 e839 43c1 05bb
00000130: 09a0 f6ba 828f 653b 61b9 c9bb bb74 793b
00000140: d124 403c 74cd 3eb9 021a 15bc e78e 173c
00000150: 10ac debb bf2b b0ba d714 c23a ba6f a1bb
00000160: 9256 d7bb 7bc7 453c b107 7b39 43bf bc3b
00000170: eb2d 1c3b 6666 2ebc 5cd5 1b3b 2539 30bc
00000180: 9b35 963b 37c9 05bb 9319 2fbc affc 043b
00000190: e04e c1bb 38a8 253a 96dc b5ba 308e 2cbb
000001a0: 1e4c 383b b0f5 82bb f606 2d3a 7c9f b13a
000001b0: a5d9 9d3b 32fd 7c3a 406c 893c 1667 e0bb
000001c0: c5b5 8637 f98e d4bb ac56 b23b c3a1 143c
000001d0: 8785 2c3a fbc6 603c 360a 883c ca70 033c
000001e0: b8ed 41ba 7063 12bb e60d afbb 2f2c b6bb
000001f0: 5f29 963b 10b2 cabb 013e f73b d07e 21bc
-0.0046323785 -0.00043072042 -0.0030851623 -0.0005913112 0.0043630963 -0.0041017607 -0.0072848224 -0.0035120677
0.0010807533 0.0050513856 -0.0078086546 -0.0053401343 0.0036807721 -0.009628344 -0.0016240086 0.0073159398
-0.006319434 0.0011323228 0.0075760265 0.0042167404 0.013306389 -0.0015237825 0.0027657098 -0.007015818
-0.003364795 -0.011607646 0.00584651 -0.0023086641 0.002832707 -0.0057494016 0.000484954 0.010564718
0.0033940664 0.0019988935 -0.0044665975 -0.004412326 0.010008011 0.0015787141 -0.0037384669 0.001909534
0.0015790857 -0.0061270883 -0.0027616932 0.0038513846 0.0015210774 0.0054157926 -0.0073691737 -0.0013727199
0.013962902 -0.004220586 0.005623448 -0.009731022 -0.0030944755 -0.007033699 -0.0030842791 -0.0025296663
0.0024892557 -0.008588118 -0.00606527 0.0045690094 -0.005145668 0.006282055 0.005391676 0.0018436841
0.00090814976 -0.018810129 0.00012733953 0.0075241444 -0.007943842 0.007109434 0.002984742 -0.012675906
-0.012970309 -0.0015835188 0.00044291458 -0.0020409382 -0.0018816005 0.0035028164 -0.006156132 0.0038063962
0.011727528 -0.00018196349 -0.009100439 0.009250379 -0.006795414 -0.0013440772 0.0014807236 -0.004926649
-0.0065715993 0.012071486 0.0002394009 0.005760105 0.002383108 -0.010644531 0.0023778295 -0.010755812
0.004584027 -0.0020414123 -0.01068725 0.0020292213 -0.005899295 0.0006319317 -0.0013874944 -0.0026329868
0.0028121541 -0.0039965734 0.00066004635 0.0013551558 0.004817205 0.0009650766 0.01677525 -0.0068482263
1.6058688e-05 -0.00648677 0.005442461 0.00907177 0.00065811764 0.013719316 0.016606431 0.0080224965
-0.00073977886 -0.0022337101 -0.005342233 -0.0055594663 0.0045825685 -0.0061857775 0.0075452332 -0.009856895
