pre_data/cora_joint_model_128.pt (torch, 802259 bytes, 4 tensors)

layers.0.bias f4 [128]
00000000: 68f9 27ba a2e2 483b 07e0 e13a 4b9d 18b9
00000010: 7e47 25bb ad31 2c3a cd71 77ba 6613 89ba
00000020: e8e6 f4b9 5436 16bb 3337 003b 9806 ac37
00000030: 5ff2 edba e484 833a a428 3639 02dc b139
00000040: 3617 9cb9 24be f9b9 84c8 48ba a6ec fbba
00000050: e397 483b 9176 213a 4459 793b a404 2eba
00000060: 9a7f e13a 8959 a8ba da08 6a3b c2a6 963a
00000070: 888f 373a 72b9 aa3a d72d afb8 e4f2 583b
00000080: b7c5 723b b81f a5b9 b45a 21b9 c93d 6cbb
00000090: 96b0 0f3b abf7 12bb 0440 083b f131 903b
000000a0: 7fb6 42ba 6936 cf3a 32c5 d7ba 456d a6ba
000000b0: 6cfc 73ba ebef 1ebb 69e6 9bba ffd8 523a
000000c0: 3b50 253a 2ac2 4fbb c0a4 183b 208c 55ba
000000d0: d5e1 cc3a 0d24 ac3a 2ef2 f2ba aab1 5ebb
000000e0: 7057 383b edb5 013b 554e 093b 4c86 f1ba
000000f0: fc19 573a f8cb baba ca71 033b 8add 85b9
00000100: 7b00 6ab9 c037 1dbb 90fb 833a 0e75 04ba
00000110: 59c3 983b ed7b 6f38 69c5 1cbb 7dc9 613a
00000120: ee08 8fba 018f 87b9 6ccc 28ba a287 9639
00000130: e64e 37ba 131e acba 837d 6f3a 007d 4e3a
00000140: e3ad 4fba 7189 433b fd55 c838 b382 cc3a
00000150: a1e7 713b 3249 4e3a 320b d1ba 4fbf b53a
00000160: 92de c93a f839 5bba 467d 0d3b aac5 e73a
00000170: 3d60 3f3b 2a84 c1ba f43c 90ba 2c61 0e3b
00000180: 5605 043b be27 83ba d8b3 02ba 4742 b7ba
00000190: d502 54ba 28c1 1f39 e625 f6ba 9b6f 0fb8
000001a0: 9761 40b9 c0c6 073b 97a1 13bb 6271 1ebb
000001b0: 563f 42b8 40ea 3abb f4d3 853a e90d baba
000001c0: c68e fa3a 4df5 3abb 60bf 78bb 17fb c0ba
000001d0: 350a 3fba 3e94 0fbb bece 753b 2042 48bb
000001e0: dca6 b63a a298 583b 4031 95ba acd8 7eba
000001f0: 6914 5ab9 50b5 80ba 9e30 873b 3a12 8fb9
-0.0006407709 0.0030652662 0.0017232903 -0.00014554446 -0.0025219615 0.00065686816 -0.000943926 -0.0010458052
-0.00046711345 -0.0022920566 0.0019564151 2.0507068e-05 -0.0018153897 0.0010034111 0.00017372012 0.0003392399
-0.00029771932 -0.00047634647 -0.00076592737 -0.0019220307 0.003060811 0.00061593304 0.0038047591 -0.0006638265
0.0017204166 -0.0012844066 0.0035710842 0.001149379 0.0007002284 0.0013025238 -8.3531886e-05 0.0033103758
0.0037044117 -0.00031494885 -0.00015387946 -0.003604757 0.0021925322 -0.0022425454 0.002079011 0.0044004847
-0.0007427707 0.0015809062 -0.0016461967 -0.001269736 -0.0009307328 -0.002425189 -0.0011894229 0.0008043199
0.0006306206 -0.0031701424 0.0023291558 -0.00081461854 0.0015631268 0.0013133303 -0.001853531 -0.0033980408
0.0028128289 0.0019792274 0.002095123 -0.0018426864 0.0008205471 -0.0014251461 0.0020056837 -0.00025532796
-0.00022316158 -0.0023989528 0.0010069478 -0.0005052843 0.004661959 5.7097455e-05 -0.0023921377 0.0008613093
-0.0010912695 -0.00025855753 -0.00064391526 0.00028711284 -0.0006992653 -0.0013131521 0.0009135829 0.0007876903
-0.00079223345 0.002983656 9.55276e-05 0.0015602916 0.0036911743 0.00078691833 -0.0015948771 0.0013866219
0.0015401414 -0.0008362825 0.0021589561 0.001768281 0.002920165 -0.0014764119 -0.0011004494 0.00217254
0.0020144782 -0.0010006351 -0.0004985905 -0.0013981544 -0.000808758 0.00015235378 -0.0018779605 -3.4197798e-05
-0.00018346902 0.002071783 -0.0022526735 -0.0024176468 -4.631219e-05 -0.0028520972 0.0010210262 -0.0014194819
0.0019116036 -0.0028527558 -0.0037955865 -0.0014723268 -0.0007287593 -0.0021908428 0.003750726 -0.0030556992
0.0013935226 0.003304996 -0.0011382475 -0.00097216177 -0.00020797703 -0.000981966 0.0041256687 -0.00027288665

layers.0.fc_neigh.weight f4 [128, 1433]
00000000: b227 ad39 2c1c 2d37 0e5d b7b9 5f4a e336
00000010: fe0e b2b3 8e5f 41ba f5d4 7b38 315f 8eae
00000020: bcb2 27b2 ecc6 acb9 38b0 0eb9 a997 8038
00000030: 2170 592b d386 352d c579 16ab 405a d4b9
00000040: cce0 c02f 6051 1d2d e3b9 b7b9 4d51 37af
00000050: b802 34ba eec9 85ab 5be2 c1b7 a266 3639
00000060: d6d9 472a dd17 5dad 7c41 c038 3147 2639
00000070: e119 5733 f319 cab7 15fa abb1 a9c8 3cba
00000080: 805a 01ab b054 ffb4 bad6 2a39 8abe db33
00000090: 128e 01b9 4dee 8228 4b3c 52ba aceb a6ae
000000a0: 61b3 1bb5 91cd 033a f017 5e2c 90a4 d335
000000b0: fc5f c531 6acd d32a a6e4 0a37 b60e 21ac
000000c0: 5f96 f1b9 7694 4739 0924 fab9 6fbe 84b0
000000d0: 87ba b136 ac9b 13b6 5ef0 7daf 8e33 01ba
000000e0: 2cb5 bc31 171d 45ad fb82 343a 763c 00ac
000000f0: 22be ca2b fb89 e4ad 2c49 092c d5fc 40ab
00000100: e407 b8ab 30e1 6c34 ac5f 5d35 fba8 c72f
00000110: d6cf c738 f469 c0ab 1752 f9ac 6463 f5ab
00000120: 6c76 5037 c0cb 9cb9 0e8f 5737 d152 06ab
00000130: d4a0 d0ab 6156 55ab 34c3 05ba 8e73 8037
00000140: 223f d2b8 d26b 1faf e03e d22e 7a95 213a
00000150: 2bfb 7d2d b130 0630 4ea6 473a 71c5 ce39
00000160: 1c87 39ba 2144 65af 633e 8c2a b425 1c2e
00000170: 25f8 0031 0918 10ba 607d 482b 6ac4 6dab
00000180: e4b5 2db6 b183 4e2d 70dc 252c 3149 062d
00000190: b484 bc35 d7d1 dea8 b06b d029 ee45 e1b8
000001a0: a3d9 9229 ffb4 4438 a9ca 4b39 2f3f a036
000001b0: 16b2 e9b6 dd78 a7b7 821f 86ab a2f6 a8a7
000001c0: 7920 2e3a 9787 29a2 890d 5b28 dc75 ceb3
000001d0: ee51 69b9 af17 383a 3c86 16b8 b10d 9638
000001e0: 5fe9 3839 3a89 b534 c226 ff39 9909 ac38
000001f0: b843 afa6 2711 bcb0 ed6a 15b9 5729 82b9
00000200: 9db2 2c3a 414f 65b7 40e8 3033 27cd f939
00000210: 27fa b435 8f04 b32b d917 c0b6 f965 d12e
00000220: 3a02 0631 a9ac 11aa c41e da38 514f e2b7
00000230: bc0b e0ad 142b e1ad d92f 07b8 f07d 5f34
00000240: e451 44b9 2d62 5fae 3bf7 cf36 a96e cf2a
00000250: 51bb 88b2 ee1c f0b9 8d5a 23ba f1c3 dda9
00000260: a71c 14b4 8b48 b4ad a3d8 8438 3f1b 6e38
00000270: 5a78 92b3 5fa0 b3b9 198d 113a 7daa 67a9
00000280: 2beb 1e39 d4b5 11af 88f3 a5b4 276b 1bb4
00000290: 9c40 07b9 499b 4339 bfed 2c38 a453 4aaa
000002a0: bae9 73ad a4c1 2eb8 77a7 aa37 2d65 013a
000002b0: 9539 2535 1f19 0bac d0fe eab8 a06e a62e
000002c0: eb06 6e2b 50ca f32d 9111 e1a9 c19b 8735
000002d0: 7dcb 852b 6762 33ac ec6f c5b8 9339 e539
000002e0: 1424 2636 ba2a 6f37 11eb 10b8 0e4a f030
000002f0: d282 9028 6703 0cad a6a4 a8b8 acdd 54b6
00000300: f853 21ba 7e73 0c2b 728e cfb4 c06b 4f37
00000310: b155 11ba 7e63 42b8 0850 58b3 815b 2c29
00000320: 7973 caae 702e 1129 864b 892c 5752 19b9
00000330: 7c17 04b2 4b2e 4a3a df4b 1f34 cd96 202d
00000340: af39 032e 9223 94ad 394d 6d28 7f4c c0b4
00000350: 41ec eeb9 552b 922c 28a1 e6b9 2381 cf39
00000360: 0b39 d6b9 0466 343a 02a7 5b2b 2581 3fb1
00000370: 1fd5 6ca9 3306 1935 7245 812b ab3b 05b6
00000380: 4215 1a2c ee75 a7b1 86a5 3eb6 0aa7 2fb0
00000390: 18d5 97b8 4a12 5aaf 6c1b 38ba d1b2 0db8
000003a0: c831 92b5 d5a5 da33 3a80 213a 7f59 4c2e
000003b0: 3822 4729 bdea d5ac e7e7 0bb5 2dfa 2d34
000003c0: 94ac 03ac fa44 7eb7 85b5 21ae 7fd1 1938
000003d0: 59ec b02a fba8 8fb4 cc67 03ad f488 4c2c
000003e0: e32f f3a9 c4d6 f437 5c5c 732d c133 aab9
000003f0: c7c9 ec38 cbea 3b39 6f22 b72f e73b 08a9
0.00033026707 1.0318163e-05 -0.0003497381 6.773785e-06 -8.291498e-08 -0.00073766045 6.0041395e-05 -6.474322e-11
-9.761319e-09 -0.00032954605 -0.00013607822 6.1317645e-05 7.7249497e-13 1.0318596e-11 -5.3459694e-13 -0.00040503033
3.5084324e-10 8.942486e-12 -0.00035042976 -1.6672637e-10 -0.000686686 -9.506265e-13 -2.3112798e-05 0.00017395106
1.7750328e-13 -1.2567694e-11 9.167471e-05 0.00015857515 5.0082125e-08 -2.409236e-05 -5.005186e-09 -0.00072015316
-4.59556e-13 -4.755907e-07 0.00016292455 1.0232641e-07 -0.00012355324 1.4536246e-14 -0.00080198486 -7.59067e-11
-5.800303e-07 0.0005027885 3.1561385e-12 1.5768619e-06 5.7443668e-09 3.7623664e-13 8.278677e-06 -2.2887642e-12
-0.00046079137 0.00019033425 -0.00047710564 -9.658389e-10 5.2967257e-06 -2.199532e-06 -2.3095612e-10 -0.0004928642
5.492117e-09 -1.1204613e-11 0.00068859727 -1.8223457e-12 1.4405736e-12 -2.5981875e-11 1.950949e-12 -6.856298e-13
-1.3076176e-12 2.2061135e-07 8.2468136e-07 3.6317957e-10 9.527772e-05 -1.3671828e-12 -7.0861195e-12 -1.7435883e-12
1.2425338e-05 -0.00029906444 1.2848306e-05 -4.7721294e-13 -1.4823928e-12 -7.5792676e-13 -0.0005102635 1.5312598e-05
-0.0001002534 -1.4499271e-10 9.560863e-11 0.00061639363 1.44371555e-11 4.881811e-10 0.0007616029 0.00039438487
-0.0007077323 -2.0851633e-10 2.4912285e-13 3.550378e-11 1.8767505e-09 -0.00054967456 7.1228266e-13 -8.4471893e-13
-2.5884883e-06 1.1738986e-11 2.3570278e-12 7.63327e-12 1.4045713e-06 -2.4737955e-14 9.2557364e-14 -0.000107418615
6.5214564e-14 4.6898607e-05 0.00019435085 4.775727e-06 -6.964673e-06 -1.9964233e-05 -9.530018e-13 -4.6896767e-15
0.0006642412 -2.2975552e-18 1.2159877e-14 -9.614061e-08 -0.00022251133 0.0007022572 -3.5887802e-05 7.1551076e-05
0.00017634545 3.3813723e-07 0.00048666267 8.203387e-05 -1.216142e-15 -1.3683675e-09 -0.0001424958 -0.00024826333
0.0006587895 -1.3667916e-05 4.1189423e-08 0.0004764583 1.3483849e-06 1.271998e-12 -5.724822e-06 9.5223336e-11
1.9500832e-09 -1.293849e-13 0.000104007806 -2.6978234e-05 -2.5471063e-11 -2.5598669e-11 -3.223107e-05 2.0814309e-07
-0.00018722523 -5.0791527e-11 6.197862e-06 3.6847372e-13 -1.5917665e-08 -0.00045797921 -0.00062314497 -9.848362e-14
-1.3793998e-07 -2.0495846e-11 6.334602e-05 5.6768997e-05 -6.8205466e-08 -0.00034261026 0.0005552336 -5.144018e-14
0.00015155661 -1.3252272e-10 -3.0910837e-07 -1.4474482e-07 -0.00012898672 0.00018654497 4.1229414e-05 -1.7970223e-13
-1.38648485e-11 -4.1665175e-05 2.0343561e-05 0.0004936036 6.155108e-07 -1.9767033e-12 -0.00011205452 7.568457e-11
8.4564186e-13 2.7715746e-11 -9.9950545e-14 1.0103614e-06 9.506698e-13 -2.5492054e-12 -9.414539e-05 0.0004372118
2.4756928e-06 1.4255458e-05 -3.4551198e-05 1.7483346e-09 1.6043946e-14 -7.958834e-12 -8.0415324e-05 -3.1719492e-06
-0.0006154175 4.989827e-13 -3.8660397e-07 1.2363249e-05 -0.000554408 -4.6345864e-05 -5.0364207e-08 3.827104e-14
-9.2064086e-11 3.2236746e-14 3.902159e-12 -0.00014621891 -7.688751e-09 0.00077125867 1.483563e-07 9.1284315e-12
2.9837185e-11 -1.6841448e-11 1.3172888e-14 -3.5818445e-07 -0.0004557092 4.1543804e-12 -0.0004398909 0.0003957833
-0.0004085976 0.00068816566 7.80362e-13 -2.7867568e-09 -5.258738e-14 5.700596e-07 9.185276e-13 -1.9853276e-06
2.1896517e-12 -4.8737467e-09 -2.8408554e-06 -6.3902006e-10 -7.239933e-05 -1.9833482e-10 -0.0007023129 -3.3783555e-05
-1.0892336e-06 1.0181581e-07 0.000616077 4.646372e-11 4.4216556e-14 -6.0798853e-12 -5.2119e-07 1.6202894e-07
-1.871202e-12 -1.515564e-05 -3.6768383e-11 3.667315e-05 3.142788e-13 -2.6758775e-07 -7.469535e-12 2.9066168e-12
-1.0799675e-13 2.9187075e-05 1.3833459e-11 -0.00032463486 0.00011290941 0.00017921177 3.3311973e-10 -3.0250023e-14

layers.1.bias f4 [128]
00000000: 8146 853a a668 15ba b51a 0bb9 51c1 cd3a
00000010: f58f 093a 5c4d b139 1bef 273b 45df 9db9
00000020: 3dbc b2ba 4017 d8ba d558 703a 1979 fbb9
00000030: 3cc6 bbb9 dc81 baba 0ba9 8bba 8090 23bb
00000040: 4ad1 e5ba 5bac 4639 5cbb b339 0f38 8939
00000050: ba0b 813a be3c d63a 61c2 1f3a 38c2 24bb
00000060: a745 2e3a d866 9fb8 6dea bc39 5fca 9a3a
00000070: 5c22 413a b1d6 dc38 aedd 9839 906b de3a
00000080: 7437 77bb 70a1 05ba c074 2e3a c5b5 0abb
00000090: fb28 aaba 6b2c 8ab9 c8eb 9b3a 9877 983a
000000a0: 839d 22ba ba5a b138 fc0a f1b9 b4aa 04bb
000000b0: 3c75 bfba a0ac a739 bac3 b738 ce64 5cb9
000000c0: 3102 71b9 c77f a33a 0617 7f3a a308 af3a
000000d0: c6a9 e1b9 dc5e c3ba 2c0a 8bb9 feeb b53a
000000e0: ca85 38ba 28a2 03bb 2619 06b9 be21 d6ba
000000f0: e97e 873a 143e 8eb8 52a1 0eba 6c7a 26bb
00000100: 6f49 b93b 0a96 a93a 2526 2939 7534 ce3a
00000110: d663 97ba 9972 08ba 92db 29ba 04df 86ba
00000120: c4df 233b 575e 40b9 7f64 a7ba ade2 9a38
00000130: eece 36ba 0698 76ba 74c2 04ba d96a 223a
00000140: c6a6 6fba 3867 863b f93c 6e3a f729 c1ba
00000150: da4f f339 defc 773b 3515 67bb feba b5b9
00000160: 0f4e 94ba 3c1e 8339 9289 e6b9 114f 753a
00000170: 5b91 82b9 7d0d 45ba 7b1d 0dba 0e11 beb9
00000180: 5db0 683b 874e 66bb a278 6fb8 3285 d0ba
00000190: 47ac 0f39 83ac 213b 3532 abba 99e9 f839
000001a0: 49e6 cf39 b00e 6d38 267f 4a3a e0a9 043a
000001b0: 92f3 793b 42fd c1b9 fa72 ba3a 7849 84ba
000001c0: 9e93 013b e39f 2cba 37d8 a9ba fea3 833a
000001d0: 7314 aeba 4277 6a3b 8bc2 913a d490 dc3a
000001e0: 726d 81bb ec26 313a 47fc 263a 8b54 deb8
000001f0: 27cd b0b9 a355 c5bb d17c 55bb 20fb 8b3b
0.0010168107 -0.0005699493 -0.00013266022 0.0015697872 0.00052475865 0.00033817708 0.0025624696 -0.00030111722
-0.0013636422 -0.0016486421 0.00091685104 -0.00047964675 -0.00035815116 -0.0014229375 -0.0010655237 -0.0024957955
-0.0017533686 0.00018946959 0.00034281134 0.00026172443 0.0009845414 0.0016345007 0.00060943334 -0.0025140177
0.0006647952 -7.600867e-05 0.00036032815 0.0011809579 0.00073674857 0.00010530407 0.00029156863 0.0016969312
-0.0037722262 -0.00050976034 0.00066549703 -0.0021165472 -0.0012982184 -0.00026354505 0.001189583 0.0011632321
-0.00062032806 8.456917e-05 -0.00045975286 -0.0020243349 -0.0014607082 0.00031981338 8.762577e-05 -0.00021018388
-0.00022984367 0.0012473994 0.0009730909 0.0013354014 -0.00043041835 -0.001490559 -0.00026519725 0.0013879535
-0.0007038979 -0.0020085666 -0.00012788604 -0.001633696 0.0010337505 -6.7826506e-05 -0.0005440909 -0.002540256
0.005654506 0.0012938392 0.00016131306 0.0015732186 -0.0011550139 -0.00052050647 -0.0006479557 -0.0010289853
0.00250052 -0.00018345691 -0.0012771039 7.385514e-05 -0.0006973584 -0.00094068085 -0.0005064376 0.0006195731
-0.00091419776 0.00410166 0.0009088065 -0.0014737238 0.00046408066 0.003783993 -0.0035260443 -0.0003466233
-0.0011314767 0.00025008793 -0.00043971516 0.000935779 -0.0002490383 -0.00075169635 -0.0005383116 -0.0003625233
0.0035505511 -0.003514202 -5.709439e-05 -0.0015908836 0.00013701721 0.0024669475 -0.0013061228 0.0004747629
0.00039653693 5.6518882e-05 0.0007724635 0.0005060714 0.0038139564 -0.0003700052 0.001422494 -0.0010092696
0.0019771825 -0.0006585104 -0.0012958114 0.001004338 -0.0013281241 0.003577665 0.00111206 0.001682783
-0.0039498145 0.0006757814 0.000636999 -0.00010601532 -0.00033722186 -0.0060221716 -0.0032575617 0.00427188

layers.1.fc_neigh.weight f4 [128, 128]
00000000: f001 de3c 1ea4 18bb 3846 08ba f8c9 87b8
00000010: 13e8 20bc 29f2 11bd f851 053d f46c 47bd
00000020: 121f 6d3d f176 b8a7 1475 d6ba 7a53 2abd
00000030: 0b00 0ab7 e00a 59bc 6b9f 9fbc d1d7 2434
00000040: 0972 b93c 3abc ea3b fe3d b3bc 0e59 9cbc
00000050: d45d 86b5 ba1d 5038 3217 453a ce61 623d
00000060: 5728 663b 0f15 51bd d1f2 06bd 045b 4fbd
00000070: eba5 18b4 9795 82b4 302e 7bbb d329 22bd
00000080: 18a2 92b4 ea23 c4ae d5d4 0a3a f195 86bb
00000090: c8d0 2dbc 171c 0039 b732 9f3c b584 63bb
000000a0: 9b91 e23c a29e c93c 892b 6d3a a352 15bd
000000b0: 482e 1a3c d932 daab af8a 553d 4b5f 8fb7
000000c0: a2ca dfbc b08c c03c 98e2 4c35 f88d 993c
000000d0: 665e 153b c432 4734 4076 d2b7 7fab 3ebd
000000e0: 392b 5d36 43da 453b 7377 d838 57e4 f237
000000f0: 09fc 783c 6652 20aa 3cae 69bd 1284 71bd
00000100: 00ce 2fbd 1927 0133 1c6a 27b4 8a9d 0ab3
00000110: 256e 913c 09f2 6e3d e69f 0337 d1b1 ad33
00000120: 6958 dc3c 2e3d 1cb7 dc6e 63bd 3708 c6b3
00000130: 31c6 74bd d006 cbba 757d 40ba 0784 6a3b
00000140: 1d87 c13c 90cb 92b4 7ce3 6dbd d1b4 103d
00000150: b7fe 6ebd 1bbe 5bbd 97f9 fbbc 4a19 7eb4
00000160: a528 2ab8 2378 6d3c 830e 603a 9d80 56bd
00000170: 6bab c4bc bda9 0bbd 715c efbc 8eca cd3b
00000180: c67a f639 dd5b baba 08ff 91b9 8c44 49a9
00000190: 5f35 3eba 0967 07bc 6184 86b5 b336 563d
000001a0: 056a 7231 9d76 b33a 1bc0 3d3c 9bc6 a5a6
000001b0: d63a 4dbc 7d3e 2e26 3664 3239 5ee0 87bc
000001c0: f864 d93c e6c5 e9bc 5eb3 51ba 7563 b5bb
000001d0: 264e aeac af7e 043d 512c 3034 4bcd aaa5
000001e0: 8dc8 dd3a 5aae 4fb5 a58d 4939 13cc 0729
000001f0: 4e54 eeae 8881 2dbd 31ea 3ab5 b75e 67bc
00000200: c8e7 af35 60fe 0535 e652 38bc 9b6c d6b2
00000210: a673 6a3d c79f ef3c 1d3b 053b 1ec6 3abd
00000220: 71ad 1d39 ee8c ccb6 e55b c7bc ab69 1bb4
00000230: 3af0 0faa ad14 aab3 19f9 0334 059a 03bd
00000240: 2fbf c1bc 043e 54ad f081 a536 c17a 503c
00000250: a6d0 2236 774d c0b3 ca22 afb5 2c85 2c2e
00000260: 18d3 f13b 19e4 09b8 c739 8935 aa67 adb4
00000270: 0a9b c639 6f6e d335 93e3 883b 1378 f5bb
00000280: e506 a13c c5f8 b02e 9bb9 66bd 2d31 5c3d
00000290: 9f78 a234 5bb7 033d 4be6 ba34 ac2c 5dbd
000002a0: 3f47 f73b 33e0 cfb9 ca0b 2c3a cf16 0e3d
000002b0: 4158 beb6 515e 01bb c65a 0dbd f3e9 e1bc
000002c0: 6946 933b 6876 a0bb dfa3 0ebd f9be 3dbd
000002d0: 5675 433d e8fd a53a a6e1 563b 84a5 e7a8
000002e0: 7608 b9b4 3dad d735 b048 27b5 151c aabc
000002f0: a113 c2bc 41ff 8bb9 9383 6ebd d3a1 24b0
00000300: 69fe 8a39 756f 83af b02a 1fba e87d 0f3d
00000310: ecb2 38b9 e3c1 6abc ba8a 34bd be8d 7d33
00000320: c01b 17ba 97c9 f1bb 9623 2fbd db1b 9635
00000330: 5949 f73b 9c3b aeab e2b8 d534 b61a 02bd
00000340: 4a08 ed3c 33bb 98b4 8a7e 1933 74ec 9232
00000350: 123c b7ba 5810 99bc 1191 caaa b25c 08b5
00000360: a45d c43c 077f 24bd 06d7 dc36 5d57 0d3c
00000370: 466a b634 59fb cebc 097f 0fbd 244c 8b3b
00000380: 32f9 cb3c b865 89ac 4184 b93b fa06 5fab
00000390: ff02 812d f6fb 5c39 e761 0bbd 5345 afbb
000003a0: 9f04 6fae 7697 603c d14f b0bc 6ffe 0cbd
000003b0: cebd 4ebd 3bf0 623c 80f1 183a dbfc 033a
000003c0: 4ef4 ac3c a380 9db9 bf2a 36b8 88d4 63b9
000003d0: 6559 27bd 49f6 01b9 5e72 62bc 4183 c73b
000003e0: 7d95 afbc c167 52b4 33c9 61b9 70f6 18bd
000003f0: 9f14 16bc 7fc1 8b3b 9cd2 c1bc fb9c c8bc
0.027100533 -0.002329118 -0.00051984517 -6.474921e-05 -0.009820956 -0.035631333 0.032548875 -0.04868789
0.05789096 -5.1199216e-15 -0.0016361796 -0.041583516 -8.225451e-06 -0.013247222 -0.019485196 1.5352204e-07
0.022637384 0.0071635516 -0.021880146 -0.019085433 -1.0011086e-06 4.961875e-05 0.000751841 0.055269055
0.003511926 -0.051045474 -0.03294641 -0.05062391 -1.4216464e-07 -2.4323228e-07 -0.003832709 -0.039590668
-2.7312558e-07 -8.919428e-11 0.00052959967 -0.00410723 -0.010608859 0.00012217496 0.019433362 -0.003471655
0.02765732 0.024611775 0.000904732 -0.03645576 0.009410448 -1.5503945e-12 0.052134212 -1.7091303e-05
-0.027318303 0.023504585 7.632566e-07 0.018744454 0.0022791862 1.8551788e-07 -2.5089015e-05 -0.04655027
3.2956725e-06 0.0030189909 0.00010321932 2.8954977e-05 0.015196809 -1.4239442e-13 -0.05705093 -0.058963843
-0.042921066 3.0070712e-08 -1.559169e-07 -3.227391e-08 0.017752716 0.05833629 7.845438e-06 8.088285e-08
0.026897626 -9.312569e-06 -0.055525646 -9.221588e-08 -0.059759323 -0.0015489701 -0.00073429133 0.003578426
0.023623997 -2.734273e-07 -0.058078274 0.03532869 -0.058348384 -0.053648096 -0.030758662 -2.3664794e-07
-4.056901e-05 0.014493975 0.0008547084 -0.05236875 -0.02400752 -0.034097422 -0.029218884 0.00628025
0.0004701225 -0.0014218051 -0.00027846568 -4.469042e-14 -0.0007255878 -0.008264312 -1.0022305e-06 0.05229826
3.52759e-09 0.0013691966 0.011581446 -1.1503007e-15 -0.012526235 6.0453064e-16 0.00017012734 -0.016586479
0.026537403 -0.028536748 -0.0007999445 -0.005535538 -4.9540537e-12 0.032347377 1.64074e-07 -2.962941e-16
0.0016920731 -7.7367224e-07 0.0001922162 3.0153028e-14 -1.08379625e-10 -0.04235986 -6.9631193e-07 -0.014121703
1.3105973e-06 4.9916525e-07 -0.011250233 -2.4962267e-08 0.057239197 0.029250992 0.0020329424 -0.045599096
0.00015037299 -6.09608e-06 -0.02433581 -1.4473942e-07 -1.2784297e-13 -7.920003e-08 1.2290947e-07 -0.032129306
-0.023650734 -1.2064575e-11 4.93251e-06 0.012724579 2.426133e-06 -8.9547875e-08 -1.3048641e-06 3.9226553e-11
0.0073799007 -3.2875778e-05 1.0224111e-06 -3.2299187e-07 0.00037881016 1.5752865e-06 0.0041775196 -0.0074911206
0.019656608 8.047744e-11 -0.05632935 0.053757835 3.0262615e-07 0.032157283 3.481276e-07 -0.05399768
0.007546335 -0.00039649158 0.0006563036 0.03468972 -5.6727154e-06 -0.0019740055 -0.034510396 -0.027577376
0.0044944775 -0.0048969276 -0.03482425 -0.046324704 0.047719322 0.0012664171 0.0032788306 -2.5717933e-14
-3.446509e-07 1.6069167e-06 -6.231812e-07 -0.020765344 -0.023691 -0.00026702325 -0.058230948 -5.989282e-10
0.00026510961 -2.3907956e-10 -0.00060717296 0.035032183 -0.00017614261 -0.014328453 -0.044077612 5.9035067e-08
-0.0005764328 -0.0073787677 -0.042758547 1.1183978e-06 0.0075465855 -1.2379989e-12 3.9808862e-07 -0.031763755
0.028934617 -2.8448412e-07 3.5738175e-08 1.7104163e-08 -0.0013979694 -0.018684551 -3.5983068e-13 -5.079884e-07
0.023970433 -0.040160205 6.581543e-06 0.008626786 3.3977466e-07 -0.025266336 -0.03503326 0.00425102
0.024899099 -3.9050672e-12 0.005661518 -7.9235197e-13 1.4666933e-11 0.00021074698 -0.034028914 -0.0053488403
-5.4346413e-11 0.013707986 -0.021522434 -0.034422334 -0.05047398 0.013851221 0.0005834326 0.0005034932
0.021112587 -0.00030041215 -4.343199e-05 -0.00021727581 -0.040856738 -0.00012394147 -0.013821213 0.0060886447
-0.021433586 -1.959552e-07 -0.00021532625 -0.037344396 -0.00916019 0.00426501 -0.023659997 -0.024488917
