pre_data/pubmed_infomax_model_128.pt (torch, 326693 bytes, 6 tensors)

layers.0.bias f4 [128]
00000000: dc04 a03c 34e4 bd3c 81da a5bc 4ca9 c83c
00000010: 38b4 953c 24fd 623c 9208 fb3c 291c 743c
00000020: 7d68 563c f6fc 083d 781a a73c 4cf6 493c
00000030: d65a a43c 5c79 003d fe11 f13c 0aae 923c
00000040: ccbc 553c a968 b73c 23e9 5e3c a5bd dd3c
00000050: c8d8 223d d88b ff3b 0e27 9f3c a472 9c3c
00000060: 9423 813c 5b25 bb3c 03c2 043c 01d9 dd3c
00000070: a7db 843c f8cb 443c 6622 873c de7e a53c
00000080: e9e5 9e3c 69b4 e43c b699 853c 54c6 8d3c
00000090: 732e e53c f3b9 8a3c 32ff e43c 376c b73c
000000a0: fdc1 a03c b802 bb3c 50a8 843c 4427 b83c
000000b0: 68bb b13c 1a59 ee3c e25e 963c b40c d63c
000000c0: e28a d43c f419 8a3c a44c ee3c 7f57 0e3c
000000d0: 896f 523c cf4f b43c 144d b73c 881a a93c
000000e0: deee 093d cdd0 803c ea7c a23c 0654 dd3c
000000f0: 61c6 8c3c a2ed bf3c 6748 043d 2ee0 f63c
00000100: d16e a83c d512 7c3c f8df da3c 6fd3 bf3c
00000110: 0b4b e93c 0948 a9bc 949b 973c c85f 913c
00000120: 21c5 ae3c 1bb1 4c3c 3825 d23c bf49 b83c
00000130: d026 6bbb a33e e53c 6824 82bc 7f64 5f3c
00000140: 727a a13c b461 a23c 1f7c b73c 1544 a33c
00000150: 0cc7 af3c ca99 503c d3e6 973c caca cc3c
00000160: 4267 793c 4094 ae3c b6ca a13c f7f6 c43c
00000170: e64d c03c 52ec 41bc d334 9c3c 58a4 b33c
00000180: 5127 9c3c 5673 7d3c 609e 78bc af85 5c3c
00000190: d167 993c 5b9f a63c 4090 783c 5a29 b53c
000001a0: dd65 cf3c d3f9 8c3c d2c1 e53c 6cc6 b43c
000001b0: b956 a73c f9ba 80bc 4ff6 003d 170f cd3c
000001c0: 177d bd3c 59de bf3c 98d3 773c 208b e73c
000001d0: c0f8 e13c 0187 723c 2220 e13c 2d00 833c
000001e0: 773d d63c 7cde 1abb 52d2 803c ede9 843c
000001f0: 2f9f b03c 8382 883c 039a c53c 5e0e dc3c
0.019533567 0.023180105 -0.020245792 0.02449479 0.018274412 0.013854299 0.030643735 0.014899292
0.013086435 0.033444367 0.020398363 0.012326788 0.020062845 0.031365737 0.029427525 0.017905254
0.013045501 0.022388773 0.013605389 0.027067969 0.03975752 0.007798653 0.019427802 0.019097634
0.015764035 0.02284496 0.008102897 0.027081015 0.01621802 0.012011521 0.016495895 0.020202097
0.01939674 0.027918058 0.016308647 0.017306484 0.02797625 0.01693437 0.027953718 0.022390468
0.01962375 0.022828445 0.016193539 0.02247966 0.021695808 0.029095221 0.01835579 0.026129104
0.02594513 0.016858079 0.02908928 0.008687853 0.012843975 0.022010712 0.02237562 0.020642534
0.033675067 0.015724564 0.019834954 0.027017605 0.017184438 0.023428742 0.03229561 0.030136194
0.020560654 0.015385349 0.026718125 0.02341625 0.028478166 -0.020664232 0.018506803 0.017745867
0.021334233 0.012493397 0.025652513 0.022496102 -0.0035881288 0.02798397 -0.0158865 0.0136348
0.019711707 0.01982198 0.022398053 0.019929925 0.021457218 0.012731979 0.018542683 0.024999041
0.0152223725 0.021310925 0.01974998 0.024043543 0.023474645 -0.011836128 0.019068157 0.021928951
0.019061716 0.015469393 -0.015174478 0.013459607 0.018726261 0.020339658 0.015171111 0.022114445
0.025317127 0.01720897 0.028046522 0.022067271 0.020427095 -0.015714156 0.0314849 0.02503161
0.023130937 0.023421453 0.0151261315 0.028264582 0.027584434 0.014802695 0.027481142 0.015991295
0.026152356 -0.0023631146 0.015725289 0.016224826 0.02156028 0.016663795 0.02412129 0.02686232

layers.0.fc_neigh.weight f4 [128, 500]
00000000: 8e31 01be 8ab9 e9bb 5da1 dfbc 8a48 abbb
00000010: 94c1 963c c5b1 053d d053 6ebd f8f8 c53b
00000020: 26d6 7cbd b162 ea3b 6fab 273d 01b5 2dbd
00000030: 4835 d33c 065c 82ba f48d edbc 597a 94bd
00000040: bcbc 3c3e f441 c4bc 3ec7 c1bb 6f34 11bd
00000050: 0a2a 353d f71a 10be 572f 8fbc fa1c 1cbe
00000060: 9823 98bc c015 b6bd 0890 adbc a217 70bb
00000070: da52 13bc c884 acbc e2e2 f53c a088 4fbc
00000080: da11 dcbc be29 78bd ec1d bc3c 9066 8b3c
00000090: 9682 89bc 9719 98bc 0068 f2bb 42ed a2bd
000000a0: 1e6d 833c 1067 7e3b 0cf5 41bd 771d b43b
000000b0: e9b6 533d 340a 223d 9a15 023d 810a 913c
000000c0: 307f 32bd f8b9 db3d a018 d53b 0ea1 af3c
000000d0: 53fb f83c 552b 5abd 0dd5 1bbd fb44 c7bd
000000e0: cfcf 223b 3f40 233c f6eb 983d 47aa 96bc
000000f0: 1d15 23bd 4d4b a5bc 5ffa 18bd 4289 6ebd
00000100: 60d0 9bbc c24f c03b 88ca fdbc a15e 853d
00000110: 5c29 923d 045e 5d3d 8a61 b63d c956 99bc
00000120: 42a1 ebbb d18f b53d 735b 50bd 1086 ffbc
00000130: cb7c 73bd 5bf5 51bd 8236 1e3c dea0 333c
00000140: 9e1a a93c 584b fc3c d964 74bd dce7 5ebd
00000150: 8192 563b c7af d03d 90b5 1abd e48e 893d
00000160: 538f 053d 8b9d 163d 4302 f5bc ca23 85bd
00000170: 9687 afbd 2c81 17bd 000c 84bc e9a5 253c
00000180: 1a0f 1a3d 7951 06bc 6667 49bb ef83 21bc
00000190: ac85 c4bb e77b 283d b045 383d 5ae8 81bc
000001a0: a332 56bd 42e9 8c38 297a d4bb 30ae 8cb8
000001b0: d533 efbc 59e1 ecbb 21a8 e5bb 42e7 53bd
000001c0: 9f09 4bbc 4134 d8bc e142 fbbc e9ae 5dbc
000001d0: 05ab b73c 48e1 813c 2666 863b 4bc8 34bc
000001e0: 9e93 13bc 693c 4cbb cc7e c5bc 561f 483d
000001f0: 39e7 b63c 9ed1 f23c 170a 103d b074 eebc
00000200: 2130 14bc b134 b33c f029 e6bc 26d4 a93c
00000210: 9f48 813d 3d1e 4d3c 1b63 33bb fb88 0c3c
00000220: a6a3 a63c 5fae db3d 0d87 58bc e86a c4bd
00000230: e8ff 0bbd 2279 7ebd 780f a1bc 6ec8 233c
00000240: 896b 253d 26f3 8bbc e83d 7ebd 4820 b03a
00000250: c1c6 8dba 1656 05bc 6b08 e9bc 1f9d c738
00000260: 47af 213d 9672 f9bc 8965 07bd 1364 4cbc
00000270: cec9 e2bc 0935 f2bc 7440 933d 6180 c7bd
00000280: cd6b 363c d875 f63c 8b14 713c b4dd 3dbc
00000290: 4f22 eabc 8cd9 883c cd5f 9fbd da7d aa3d
000002a0: 9c71 a13c add7 0cbd ac89 bfbc fa63 3038
000002b0: 951d 04bd 2b6d eabc f26e 8cbc b623 253d
000002c0: c7d3 1f3c 9ca1 2bbd a028 ae3a 59a0 9f3a
000002d0: 491f 283d c2bf 9d3c 0fa3 153d 3f62 2fbd
000002e0: 7f9c 24be 1d12 47bd 33e0 c03b 2747 a23c
000002f0: ef05 613b 71ef 8bbb 74a3 a63c e70a 88bc
00000300: a35d abba bb23 2fbd 5170 f5bc c538 c53c
00000310: 707b e4bd ecd9 f93b 745e 98bb c5d1 80bc
00000320: 10bf eebd 5fa7 d63c 9669 3ebd 11a3 873d
00000330: 1105 8f3c 071f 373c 10b1 513d 95ff 8f3c
00000340: 086b 36bc fe8f 18bb 8c8f 293d 3266 c23d
00000350: d02f 163e 9b5d 9a3d ee30 4ebd 0546 0abc
00000360: a192 4c3d 2ac2 733d 6464 78bb ed48 bb3d
00000370: 9193 0bbd e1ca c43d ba10 f7bc 1251 86bc
00000380: 09b8 eb3b 98a2 063d 81c4 8abc bbf1 5fbc
00000390: dd6c d0bc b37d 073d 698b 5d3d 35c6 e7bb
000003a0: 2591 963d 19c0 d8bc e58e ae3c 5786 0e3e
000003b0: d242 75bc 6b63 d7ba c03c f53c 0c28 403e
000003c0: df8f ca3c 2d40 b3bc 9cbe 193c daeb 8a3d
000003d0: 2b73 6abb fc1e 483c 342d e9bb c383 57ba
000003e0: c051 debb 5b04 8d3c 6e4a f6bb d9ec 0e3d
000003f0: 290b 0cbd 5688 003d f14d a5bb 69f9 743c
-0.1261656 -0.0071327137 -0.027298624 -0.005227153 0.018402852 0.032640237 -0.0581854 0.0060416423
-0.061727665 0.007152878 0.040934976 -0.042408947 0.025782242 -0.0009945638 -0.028998353 -0.072498985
0.18431371 -0.02395723 -0.005913644 -0.035450395 0.044229545 -0.14072786 -0.017478628 -0.15245429
-0.01857166 -0.08890867 -0.021186844 -0.003663518 -0.008991921 -0.021059409 0.030015413 -0.012666851
-0.026863981 -0.060586683 0.022963487 0.017016679 -0.016785901 -0.01856689 -0.0073976517 -0.079554096
0.016043242 0.0038818754 -0.047352836 0.0054966765 0.05168811 0.03956051 0.031758882 0.017705204
-0.043578327 0.1072883 0.0065031797 0.021439102 0.030393278 -0.05326398 -0.038044978 -0.09729954
0.0024843102 0.009964048 0.07466881 -0.018391741 -0.039815057 -0.020177508 -0.037348147 -0.058236368
-0.01902026 0.005868883 -0.030980363 0.0651219 0.07136795 0.05404474 0.08905323 -0.01871814
-0.0071908543 0.088653214 -0.050868463 -0.031191856 -0.059445184 -0.05125938 0.00965655 0.010963647
0.020642575 0.030797645 -0.05966649 -0.054420337 0.0032741132 0.10189777 -0.037770808 0.06716707
0.032607388 0.03677134 -0.029908305 -0.06500967 -0.08570783 -0.036988422 -0.016119003 0.010110357
0.03761206 -0.0081981355 -0.0030731796 -0.009858116 -0.0059973802 0.041133787 0.044988334 -0.015857864
-0.052294385 6.719168e-05 -0.006484289 -6.708165e-05 -0.02919952 -0.007229012 -0.007008568 -0.051734217
-0.012392431 -0.026392104 -0.030671539 -0.013530471 0.022420416 0.015854493 0.0041015325 -0.011034082
-0.009007363 -0.0031163937 -0.024108313 0.04885801 0.022327052 0.029640969 0.035165872 -0.029108375
-0.009044678 0.021875711 -0.02809617 0.020731043 0.063126795 0.012519416 -0.0027372304 0.008577581
0.020341706 0.10726618 -0.013215792 -0.09590703 -0.034179598 -0.06212724 -0.019660696 0.009996517
0.040385757 -0.017083716 -0.062070757 0.0013437355 -0.001081668 -0.0081382 -0.028446397 9.5183255e-05
0.039473798 -0.030450147 -0.033055816 -0.012475031 -0.027684119 -0.029566305 0.07190028 -0.09741283
0.0111341 0.03008549 0.0147143705 -0.011588503 -0.028580813 0.016705297 -0.077819444 0.083247855
0.019707493 -0.034385372 -0.023381077 4.205478e-05 -0.032254774 -0.028616508 -0.017142747 0.04031726
0.0097550815 -0.04190217 0.0013287254 0.0012178525 0.04104546 0.019256476 0.036532458 -0.042818304
-0.16075324 -0.04860126 0.0058861016 0.019809319 0.0034335812 -0.004270487 0.020341612 -0.016606761
-0.001307417 -0.042758685 -0.029960783 0.024074921 -0.11156356 0.0076248553 -0.0046499316 -0.015725026
-0.11657536 0.026202856 -0.046487413 0.06622899 0.01745847 0.011176831 0.05119425 0.017577926
-0.011133917 -0.0023279185 0.041396663 0.094921485 0.14666677 0.07537385 -0.05033963 -0.0084395455
0.049944524 0.05951134 -0.0037901634 0.09144769 -0.034076277 0.096090086 -0.030159343 -0.01639608
0.0071935696 0.032869905 -0.016939403 -0.013668473 -0.025442535 0.03307886 0.05408803 -0.0070731887
0.07351903 -0.026458787 0.021308372 0.13918434 -0.0149695445 -0.0016432827 0.029936194 0.18765277
0.024726806 -0.021881187 0.009383824 0.06783266 -0.0035774212 0.0122144185 -0.0071159843 -0.0008221233
-0.0067846477 0.01721399 -0.007516197 0.034893844 -0.03419033 0.03138002 -0.0050446917 0.014952042

layers.1.bias f4 [128]
00000000: da4a 293c 7520 f03c 059e 95bc 18b3 5a39
00000010: 304b c03c eae6 90bc 75b4 903c 1ed7 ee3c
00000020: 131d 5b3c e508 163c 5edf a13c 3ee0 cbbc
00000030: 5f00 933c f1c8 f5bb df5e 933c 68a1 5e3c
00000040: e2be 15bd 7561 e93b 3707 00bd 7629 71bc
00000050: 64ec efbb 430a 743c 9686 293d 079f 45bc
00000060: cae1 b23c e694 1d3c 84b2 743c 13e6 88bc
00000070: 3389 74bc d08c afbb 9505 5c3c 1673 83bc
00000080: 8941 adbc c001 ba3a e82a 09b9 08d9 64bc
00000090: 47df dd3c 7157 5e3c f706 903c 334f 113c
000000a0: 13b1 b8bc 4580 ee3c 344e de3c 4a80 9d3b
000000b0: c1ab b63c 8d4f 4b3b 98bc 64bc 2c56 c5bc
000000c0: 4c64 cebc 7560 b839 c660 8d3c c6e7 493c
000000d0: 75ff c53c 2ac8 10bc 8da3 56bc 7d6a 363c
000000e0: 7620 953c e5e4 0bbd 2144 da3c 6906 86bc
000000f0: ddfb 0ebc c406 363c 071e 423c 0bc3 a23c
00000100: e15b fa3c 09e5 c73c 57b5 c5bc b388 4b3c
00000110: 8b22 24bc 3ae4 25bd 0a96 1dbc ef6d 13bc
00000120: 9982 883c 1403 62bc 3b1c 723c 0ba3 c23b
00000130: a1a1 ce3c 33c2 82bc 6a26 13bc f7f7 eabc
00000140: 4097 253c 9ef3 e43c 8e7d 82bc 368a 1e3c
00000150: c286 873c f045 95bc ae7b 7bbc a7d8 883c
00000160: 6ff6 beba 7445 6f3c 1e19 cb3c 1558 46bc
00000170: bd29 493b 20f0 77bb 9b4b ebbc 5a4b 40bc
00000180: 50b7 1cbc b10b 67bc bf50 ca3c d1e2 46bc
00000190: bbd5 7c3c 7ac4 d13c b94e 0fbc 9aeb 8d3c
000001a0: 6cda 943c 1403 e13c 5e9d e4bb f688 113c
000001b0: 41fa 803c d8f8 153c abe1 50bc fa89 203c
000001c0: 6768 fbbc 7354 c5bc a119 eb3c a14b 65bc
000001d0: 82c0 f3bc fe60 3fbc ecc4 babc 304c d4bb
000001e0: 2318 5d3c cc39 d63c 8596 0b3d a90d f5bc
000001f0: 5e61 9b3b 0b74 5d3c 2f50 b2bb 0ca6 eb3b
0.010332787 0.029312352 -0.018263826 0.00020856818 0.023473352 -0.017688233 0.017664174 0.02915531
0.013373631 0.009157394 0.01975983 -0.0248872 0.017944513 -0.0075007607 0.017989574 0.013588287
-0.036558993 0.0071222135 -0.03125688 -0.014719358 -0.007321881 0.014895025 0.041388117 -0.012061841
0.02183618 0.00961802 0.01493514 -0.01671127 -0.014925289 -0.0053573623 0.013429065 -0.016046088
-0.021149414 0.0014191195 -0.00013081322 -0.01396776 0.027084006 0.013570652 0.017581446 0.00886898
-0.022545373 0.029113898 0.0271369 0.004806553 0.022298696 0.0031022758 -0.01396098 -0.024088942
-0.02519431 0.0003516708 0.01725806 0.0123233255 0.024169663 -0.008836785 -0.013100517 0.011133787
0.018203955 -0.034153838 0.026643815 -0.016360478 -0.008727041 0.0111100115 0.011847979 0.019868394
0.03056139 0.024401205 -0.024134321 0.012422728 -0.010018001 -0.040500857 -0.009618292 -0.008998378
0.016663836 -0.013794679 0.0147772385 0.0059398464 0.025223555 -0.015961742 -0.008981327 -0.028682692
0.010106862 0.027948197 -0.01592901 0.009676507 0.01654375 -0.018221825 -0.015349312 0.01670487
-0.0014569293 0.014603961 0.02479225 -0.012105961 0.0030695044 -0.0037832335 -0.028722575 -0.011736715
-0.0095651895 -0.014101909 0.024696706 -0.012139038 0.015431817 0.025606383 -0.008746796 0.017324258
0.018170558 0.027467288 -0.0069767674 0.008882752 0.01574433 0.009153567 -0.012749116 0.009798521
-0.030689431 -0.02408812 0.028698744 -0.013995082 -0.02975488 -0.01168084 -0.022798978 -0.006478809
0.013494524 0.026150607 0.034079093 -0.02991374 0.0047418317 0.013516436 -0.0054416875 0.007191425

layers.1.fc_neigh.weight f4 [128, 128]
00000000: 91e6 733c 6c67 98bd bf02 943b e0e7 a8bd
00000010: 31a0 603e 288f 613d 3c14 02be 1c70 08be
00000020: afd8 79be 9ef1 db3d 4537 7c3e e528 58bd
00000030: 90f7 73bd 3970 edbd 70f6 523d b637 233e
00000040: 9edd aebd 818d e5bc c8d9 263e 274f 07bd
00000050: 8ffe 5ebe 6232 8a3d 6f37 153e 803c e6bc
00000060: 0986 253d 0ff2 303e 4e9d 9f3d 5506 8fbd
00000070: 3080 7cbd fb79 22be cbf1 79bd b75d 4bbd
00000080: 222a ba3b cd35 8c3d 568c 43be c8b4 16be
00000090: 4411 923b 867a e83d 3906 283e da93 4dbe
000000a0: 41d1 4d3e f282 713d f1d1 34bd 6e51 143d
000000b0: 01a9 30be d10c f63d 82c3 983d 12e3 183e
000000c0: f0c2 61bd 88b3 053e df2e 80bd f69a 1ebe
000000d0: af44 683e f6fe bb3d 0329 a43c 531d 33be
000000e0: 230a f8bc 867d b93d b7db 613e a910 323e
000000f0: cbdb d7bd e2b2 133e 9c10 253d d959 193d
00000100: 46ea 2dbe 201d aabd f103 c63d 9203 9f3d
00000110: 86cf 51be 7f67 0932 23af c2bd 02c5 06bd
00000120: 076f 2d3e 8a6e 41be f6b2 383d a142 ee3b
00000130: c09c 69bd 45c9 0bbe e85f 0f3d 61f3 80bd
00000140: 03aa f53d 9812 703d b2c8 f33c 9e5c cdbd
00000150: f44a 3c3d 205d 4c3d e647 0f3b f23b 613e
00000160: 0450 a7bd 906c e93d 0f5c cb3d e8ea 67be
00000170: e5b8 9bbd 9dbd c7bc 32dc 01be c18d 293e
00000180: b149 35be 0ab7 2e3e 3b38 9bb5 16cd 20be
00000190: f2dc 7bbc 7c95 aabd 7042 253e 5d83 583d
000001a0: b609 85bd 721d 86bd 9a9a 44be 4f22 183e
000001b0: ae92 633d 9728 22bd 9960 403e 6afe 2a3e
000001c0: ceb9 49be dddf 73be 0870 83bd 288e b73c
000001d0: cc09 b8bd 3f5e c3bd 0dfc 00bc 3da5 bdbc
000001e0: 628c cb3d 32ad a83c 3369 d53d 6ee3 833b
000001f0: b98e 0fbd 1999 743e 7a9b bbbd ed76 90bd
00000200: 89a3 f6bd 1bf7 0abd 530b f5bb 3fef be3d
00000210: c040 0e3d c6d0 32be cfbb d23d e2fb f43c
00000220: e8ca 54be cb42 3e3c 1f68 373c 11f0 09be
00000230: 9f66 983c f697 99bd 3640 93bc 4dc5 41bd
00000240: 7009 ddbd 69a6 f8bd 7ed8 b43d e2ba 1abd
00000250: d151 e0bd 6b13 223d b881 39bd 5930 d5bc
00000260: e435 4abd 37cc 2cbc 95fd 8f3d e5b6 babd
00000270: e67a a1bb 71bd 14be e972 f33d 4105 2ebd
00000280: 981e 9e3d ae0c 29be 65f9 5e3d 3954 c23d
00000290: 2d37 023d 7014 b23d 9e5c 17bd f640 43bd
000002a0: f3be 90bd 05c3 3abe d91c 2abd e52e 503e
000002b0: 187b 643d 4ce7 3abe 6bec 9abd 6692 4c3d
000002c0: 22dc d33d 473a 883c 23f6 f5bd ed4c ebbd
000002d0: c1fa dbbc dc18 5c3d 7a1e 29bd 9233 d3bd
000002e0: 0e12 4ebd 0a6b a53d ae22 e63c 05a2 81bb
000002f0: 229b 5abe 1edf d13d 6f3c c9bd 54fd a8bd
00000300: 41a4 41bc f34f 57be b9da f5bd 4cf9 a73d
00000310: 1f42 233e 0be9 4d39 a9fe 0e3d a946 57bd
00000320: 40fc 393d e4f7 1cbe 9955 89bd cd22 f03d
00000330: 9d1d 0139 1c9b b7bd 09c6 1c3d cd97 483d
00000340: d89d 713b ec3e 8abd 2dbd dc3d 89cd f63c
00000350: 9913 4c3e 1254 59be 3948 083d 2684 0a3d
00000360: 0df3 003d 1099 0d3d de12 033d fbb4 203d
00000370: 7b55 453e 0f59 c63c ae46 4ebe d381 5b3e
00000380: 44db 24be 53be 533d f156 883c 396a f1bc
00000390: 8f1a 3abe 9fee 9c3d 0e88 ca3d 2cc5 5f3c
000003a0: c6be ed3d 33d6 81be cb2f 363e d214 89bc
000003b0: 9485 903d 2d4a ea3c 0f8f 613e 7513 59bc
000003c0: 3fb7 3b3c 6b71 3c3d bff4 203a 54a1 903d
000003d0: 496c 363c 184f 3d3d af51 48be 4766 3abe
000003e0: 83b3 853c c81a d13b 13b9 503d 24d8 d7bd
000003f0: 146e e3bc 077a 883d 4ecd 133c 7106 2abd
0.014886514 -0.07441601 0.004516929 -0.08247352 0.21936108 0.055068165 -0.12703031 -0.13324016
-0.24399064 0.10739444 0.24630459 -0.052773375 -0.059562266 -0.115936704 0.051504552 0.15939221
-0.08538364 -0.028021576 0.16294014 -0.03303447 -0.21776794 0.06747891 0.14571927 -0.02810502
0.04041103 0.17279838 0.07793675 -0.069836296 -0.061645687 -0.15866844 -0.061021607 -0.04964992
0.005681292 0.06846199 -0.19096503 -0.147174 0.0044576246 0.113514945 0.16408624 -0.20075932
0.20099355 0.05896277 -0.04414553 0.03621047 -0.1725197 0.12014163 0.07459165 0.1493037
-0.055117548 0.13056767 -0.0625894 -0.154888 0.2268245 0.09179489 0.020039087 -0.17491655
-0.030278271 0.09057145 0.22056471 0.17389168 -0.10539969 0.14423707 0.040299043 0.0374392
-0.169839 -0.083063364 0.096687205 0.07764353 -0.2048932 7.997982e-09 -0.09506061 -0.032902725
0.16936885 -0.18889824 0.045092545 0.0072711264 -0.057034254 -0.13650997 0.035003573 -0.06296421
0.11995318 0.058611482 0.029758785 -0.10027431 0.04596992 0.0498935 0.0021862923 0.21995524
-0.08169559 0.1139766 0.09929668 -0.22648203 -0.07603625 -0.024382407 -0.12681654 0.16557981
-0.17703892 0.17062011 -1.1564765e-06 -0.15703234 -0.015372502 -0.08329293 0.16138625 0.052859653
-0.06495993 -0.06548585 -0.19199601 0.14856838 0.055559807 -0.03958949 0.18786849 0.16698614
-0.19699785 -0.23815866 -0.06417853 0.022406653 -0.089862436 -0.095394604 -0.007872594 -0.02315008
0.09938885 0.020590398 0.10420456 0.0040249145 -0.03504822 0.23886527 -0.09160514 -0.07053933
-0.120429106 -0.033927064 -0.0074781566 0.09322976 0.03472972 -0.17462453 0.10289728 0.029905263
-0.20780528 0.011612604 0.011194258 -0.13470484 0.018603621 -0.074996874 -0.017974954 -0.0473073
-0.10792816 -0.12141115 0.08830355 -0.03777588 -0.10953105 0.0395693 -0.045289725 -0.02602403
-0.0493678 -0.0105467355 0.07030789 -0.091169156 -0.0049279807 -0.14525391 0.11887152 -0.04248548
0.07720679 -0.16508743 0.05443706 0.094887204 0.0317909 0.086953044 -0.03695356 -0.047669373
-0.07067671 -0.18238457 -0.041531418 0.20330389 0.055781454 -0.18252295 -0.075646244 0.049944304
0.103447214 0.016629351 -0.120098375 -0.11489282 -0.026852967 0.053734645 -0.04128883 -0.10312571
-0.050310187 0.08077057 0.028092708 -0.003956082 -0.21348241 0.10247634 -0.0982598 -0.082514435
-0.011818946 -0.21026592 -0.12004609 0.082018465 0.15943192 0.00019637139 0.03491083 -0.05255762
0.04540658 -0.15328938 -0.067057796 0.11725388 0.0001231343 -0.08965132 0.0382748 0.048972894
0.0036867764 -0.06750283 0.1077827 0.030127304 0.19929351 -0.21223477 0.033272002 0.033817433
0.03148179 0.0345698 0.032000415 0.039235096 0.1927089 0.024212388 -0.2014415 0.21436243
-0.16099268 0.05169518 0.01664302 -0.029469596 -0.18174194 0.07662701 0.098892316 0.013657849
0.11608653 -0.25358734 0.17791669 -0.01673356 0.07056728 0.028599823 0.22027229 -0.013249268
0.0114572635 0.0460066 0.00061399856 0.07062021 0.011134216 0.046218008 -0.1956241 -0.18203078
0.01632095 0.0063813664 0.05095775 -0.105392724 -0.02776245 0.066639 0.009021116 -0.04151005

fc.weight f4 [3, 128]
00000000: e6c6 44be 49f3 193e d649 483e 64d3 5a3e
00000010: 4d5a 0c3e efd3 2abe d419 423e 0a48 693e
00000020: a5b9 293e e8d3 c3bd 51d5 553e d7cc ba3d
00000030: c418 3f3e 9d72 44be 08b6 48be 013b fcbd
00000040: d6c9 b9bd 0e71 32be d30a f7bd 0c9b 39be
00000050: 129d 49be 0d53 6f3e cb47 1e3e 21a0 583e
00000060: b4b9 1bbe 712c 583e b01b f13d 5db8 5ebe
00000070: cff5 d7bd 0a08 683e 4a4b ed3d 0658 27be
00000080: 28d9 d7bd f0e7 3e3e 2e3d 3cbe 78bb 69be
00000090: 7820 e53d 66ed 573e 3d3d 6abe e3af 19be
000000a0: 62a9 1fbe 35a5 1f3e 424c 063e c75c 66be
000000b0: 70f6 2f3e 1c04 6dbe 6523 13be 6298 27bc
000000c0: 9647 14be 49b7 f13d babe 333e 963b 4b3e
000000d0: 1693 0e3e 490c e13d 6a2a 44be 92b8 243e
000000e0: 631c 363e 8341 2cbe 3377 363e ade1 31be
000000f0: 877d f5bd a99c 5e3d 215a 663e 9b1d 183e
00000100: 37cc 9b3d d040 183e 2837 1ebe 18a4 193e
00000110: 24ff 88bd 5b0a d9bd f33d 02be 1d52 7cbe
00000120: c237 fe3d b7ca 4d3e 8559 5bbe b38b 5e3e
00000130: af93 e83c 3fc4 5fbe 94fd 52be 2c39 5bbe
00000140: 0a17 69be d488 fcbc 6797 1abe dfbc 31be
00000150: 185a 623e 5d82 57be 8262 47be 69c8 0a3e
00000160: e643 353e fb84 293e 8dfb d13d 8773 65be
00000170: 35ba 33be ea6c 343e 6392 3dbe fc59 4dbe
00000180: b306 29be 25e4 47be 58f1 0a3e 8ff0 3d3e
00000190: ff0a 153e 892d 533e 9f7d 3bbe 1d82 533e
000001a0: 989c e33d e791 8b3d c268 4dbe 72c7 16be
000001b0: eb18 3b3e 80f5 a63d b5fa cdbd 3cc6 4ebe
000001c0: f9fc dabd 9ada a1bc ddd1 f93d 7f3b 733e
000001d0: 4a1f 14be e106 29be e979 3abe 2770 6ebe
000001e0: d460 573e c68c 463d b5cc 013e 99f9 19be
000001f0: f266 763e 30fd 4c3e 4661 6a3e cc24 3e3e
00000200: 3a87 74be d8fb 87be 95ac 59be cc27 293e
00000210: 458f 4cbe 6111 613e ca76 293e d43d 19be
00000220: cd66 54be e7ec 493e 2fb9 e0bd f572 63be
00000230: cfc9 4f3e c184 e23d 16d6 6b3e 76d8 823e
00000240: 5604 73be 26d1 083e 5a38 5ebe 3fea dd3d
00000250: 5858 0b3e 8866 c7bd bf59 1cbe 7c0a 793e
00000260: b5e3 5d3e ba1a 5a3e 921f 75be 1009 6d3e
00000270: 0689 e33d 71b4 40be b13c 41be be64 0e3e
00000280: 3328 693e e8f5 36be 2c11 49be 9cb6 12bd
00000290: cc76 913d 4fcb 64be 2bf4 673e a3ec 6f3e
000002a0: 9054 d3bd c666 66be 5249 70bd d184 fe3d
000002b0: 923c 35be 4da1 84be 9d3c 803e fba7 e5bd
000002c0: dd2b 65be 9bfa 45be e07d 5abe c444 1cbe
000002d0: 80ff 9e3d bd3b 81be 76f5 4c3e 66ee 083e
000002e0: ef30 1bbe bee1 3e3e 355c 7cbc aefa 313e
000002f0: 0a0c 91bd da8e 30be 93c9 f8bd 7e16 1c3e
00000300: 9ec4 df3d a29b 5bbe 2461 a13d ab0b 2c3e
00000310: b04e 813e 251a 20be ab8f 26be 034b e53d
00000320: 4c9d 813d 38dc 383e 4b70 033e 43fa 2bbe
00000330: 376d 1c3e f5e6 5dbe a26c 5ebe 9e33 183e
00000340: efbf 1e3c ba2b 813e 46d2 2d3e 9225 7a3e
00000350: 50dd 2fbe 664d 383e ded6 1c3e 6491 80be
00000360: eb07 6abe 44bc 52be 1b6b 073e 1033 3a3e
00000370: 2e84 6f3e 384d 68be 2ab8 59be 01ab 1e3e
00000380: cb98 5bbe 4c41 f7bd ba4c 263e a55f 5dbe
00000390: 8d94 83be 91fe dcbc d0ba 10be 1f90 3abe
000003a0: bcac 7ebe d253 2f3e 7df8 723e adf5 503e
000003b0: 5802 573e 7892 6b3e c6ee 6a3e 1321 793e
000003c0: 80c0 823e 437b 1fbe 4455 59be d951 14be
000003d0: c69f 7bbe 9797 823e da88 2f3d 8a09 3ebe
000003e0: 2698 65be ffb5 343e 9467 4bbe 1334 603e
000003f0: 99b7 04be 53b5 3b3e b6fe 40be fcaa 13be
-0.19216499 0.15034212 0.19559416 0.21369702 0.13706322 -0.16682409 0.18955165 0.22781387
0.16574724 -0.09561902 0.20882155 0.09121101 0.18661791 -0.19184346 -0.1960069 -0.123159416
-0.090717 -0.1742594 -0.120626114 -0.18125552 -0.19688824 0.23371525 0.15457074 0.21154834
-0.15207559 0.21110703 0.11772859 -0.21750017 -0.10544931 0.22659317 0.11586626 -0.16342172
-0.10539466 0.18643165 -0.18382713 -0.2282542 0.111878335 0.21086654 -0.22874923 -0.15008502
-0.15591958 0.15590365 0.13115028 -0.22496329 0.17183852 -0.23146099 -0.1436897 -0.010229202
-0.14480433 0.11802537 0.17553225 0.19846949 0.13923296 0.10988671 -0.19156805 0.16086033
0.17784266 -0.16821866 0.17818908 -0.17371245 -0.11986833 0.05434862 0.22495319 0.14855044
0.0760731 0.14868474 -0.15450728 0.15004003 -0.06689289 -0.10597678 -0.12718944 -0.24640699
0.12412979 0.20096861 -0.21420868 0.21732979 0.028390734 -0.21852206 -0.20604545 -0.21408528
-0.22762695 -0.030826963 -0.15096818 -0.17357205 0.2210468 -0.21045823 -0.19471171 0.13553013
0.17701682 0.16554634 0.10253058 -0.22407351 -0.17551501 0.17619672 -0.18512873 -0.20053858
-0.16506462 -0.19520624 0.13568628 0.18548797 0.14554976 0.20622839 -0.1830964 0.20655103
0.11113852 0.06814938 -0.20059493 -0.1472452 0.18271224 0.08152294 -0.10057584 -0.20192808
-0.10692782 -0.019757558 0.12198231 0.23753165 -0.14465061 -0.1650653 -0.18210568 -0.2328497
0.21033031 0.048474096 0.12675746 -0.1503662 0.24062708 0.20018458 0.2288867 0.18568724
-0.2387971 -0.2655933 -0.21257241 0.16519088 -0.19976528 0.21979286 0.1654922 -0.14964992
-0.2074234 0.19719277 -0.10972821 -0.22211821 0.20291828 0.11060477 0.23030886 0.25555772
-0.23732123 0.13361034 -0.21701184 0.108356945 0.13607919 -0.09736353 -0.1526861 0.24320406
0.21668895 0.21299258 -0.23937824 0.23147988 0.111101195 -0.18818833 -0.18870808 0.13905618
0.22769241 -0.17867243 -0.19635457 -0.03581868 0.07102737 -0.22343181 0.22651736 0.23430113
-0.103188634 -0.22500142 -0.058663674 0.124276765 -0.17698887 -0.25904313 0.25046244 -0.1121368
-0.22380014 -0.1933388 -0.2133708 -0.15260607 0.077635765 -0.2524089 0.20015511 0.13372192
-0.15155385 0.18640801 -0.015402843 0.17380783 -0.070823744 -0.17241994 -0.12147822 0.15242955
0.109261736 -0.21446088 0.07879856 0.16801326 0.25255346 -0.15634973 -0.16265742 0.11195948
0.0632883 0.18052757 0.12835805 -0.16794686 0.15276037 -0.21670134 -0.21721128 0.1486344
0.009689315 0.25228673 0.16974744 0.24428394 -0.17174268 0.17998275 0.1531634 -0.25110924
-0.22854583 -0.2057963 0.13224451 0.18183541 0.23390266 -0.22685707 -0.2126166 0.1549492
-0.21445005 -0.12073001 0.16240206 -0.21618517 -0.25699273 -0.026976855 -0.14133763 -0.1821904
-0.2487058 0.17121819 0.23727603 0.20406218 0.20996988 0.23005092 0.22942647 0.24329023
0.2553749 -0.15574364 -0.21223933 -0.14484347 -0.24572667 0.2550628 0.04285512 -0.18558326
-0.22421321 0.17647551 -0.1986373 0.21894865 -0.12960662 0.18330888 -0.18847165 -0.14420694

fc.bias f4 [3]
00000000: 1826 78bd 9205 843d 645f 063e
-0.060583204 0.06446375 0.13122326
