pre_data/pubmed_model_128.pt (torch, 324559 bytes, 4 tensors)

layers.0.bias f4 [128]
0.032865267 0.05831162 0.049258627 0.038979992 0.037964735 0.034051515 0.043545894 0.04226268
0.09117866 0.037684314 0.07995728 0.030252406 0.03263487 0.045585845 0.04103524 0.026485456
0.040187493 0.065537125 0.04336969 0.041402973 0.047576316 0.042647764 0.04259217 0.07297671
0.04340566 0.037376806 0.040651925 0.0397182 0.040098093 0.029959982 0.063158534 0.024393909
0.043791037 0.032924168 0.041358333 0.09605606 0.040989168 0.03040358 0.11447922 0.07610921
0.034837507 0.038848076 0.04184186 0.034605842 0.035447054 0.07061435 0.08877938 0.03349477
0.04271736 0.065465204 0.03428618 0.04170439 0.09816296 0.04341129 0.112271346 0.104011364
0.052324902 0.041727167 0.043892007 0.034408987 0.045418024 0.034326565 0.035793625 0.041293055
0.03563612 0.053855076 0.034257162 0.054108165 0.039810345 0.048154343 0.08818285 0.030729063
0.04647979 0.0549403 0.028632432 0.06093291 0.035531797 0.036372148 0.036833413 0.037796523
0.054719564 0.028561423 0.06321166 0.04094487 0.09077938 0.09421343 0.044976 0.040051788
0.091192305 0.07558898 0.054747194 0.09787831 0.03912755 0.03958771 0.062124938 0.037002563
0.043598812 0.031665187 0.043601505 0.035900477 0.029979436 0.058385715 0.09878618 0.105368234
0.04182851 0.05043601 0.04119724 0.08959776 0.041345347 0.04020703 0.044807244 0.042946484
0.12400192 0.076163895 0.046075378 0.09962904 0.10725258 0.037714962 0.040232737 0.05352833
0.025037821 0.042504266 0.038100984 0.05431854 0.10727558 0.09940923 0.03534027 0.04101807
00000000: bb9d 063d 2ad8 6e3d 6ac3 493d 7ca9 1f3d
00000010: e980 1b3d 9a79 0b3d 2e5d 323d a21b 2d3d
00000020: e1bb ba3d de5a 1a3d a4c0 a33d e5d3 f73c
00000030: 24ac 053d 39b8 3a3d 9114 283d 07f8 d83c
00000040: a49b 243d 5438 863d 6ba4 313d 2a96 293d
00000050: 62df 423d 6caf 2e3d 2175 2e3d d074 953d
00000060: 22ca 313d 6c18 193d a282 263d 8daf 223d
00000070: e63d 243d a36e f53c 4359 813d bcd5 c73c
00000080: 3b5e 333d 7edb 063d 5b67 293d 0ab9 c43d
00000090: 42e4 273d ee10 f93c 1574 ea3d 25df 9b3d
000000a0: c6b1 0e3d 291f 1f3d 5f62 2b3d dbbe 0d3d
000000b0: ee30 113d 429e 903d f7d1 b53d d031 093d
000000c0: 66f8 2e3d 9f12 863d aa6f 0c3d 39d2 2a3d
000000d0: a909 c93d 09d0 313d 85ee e53d e903 d53d
000000e0: a352 563d 1bea 2a3d 1bc8 333d 70f0 0c3d
000000f0: 4008 3a3d 039a 0c3d 569c 123d e822 293d
00000100: 2ef7 113d 2497 5c3d 3d51 0c3d 86a0 5d3d
00000110: 2c10 233d 7d3d 453d 3699 b43d 84bb fb3c
00000120: 9861 3e3d 1409 613d 908e ea3c c994 793d
00000130: ca89 113d f6fa 143d a2de 163d 87d0 1a3d
00000140: 9f21 603d a5f9 e93c 1d75 813d cfb5 273d
00000150: 8aea b93d f9f2 c03d c138 383d 580d 243d
00000160: 08c3 ba3d 65ce 9a3d 983e 603d 6c74 c83d
00000170: 3644 203d b926 223d b876 7e3d 0090 173d
00000180: ab94 323d 5bb3 013d 7e97 323d 610c 133d
00000190: 6f97 f53c dc25 6f3d 6950 ca3d 4dcb d73d
000001a0: 5f54 2b3d fd95 4e3d 70be 283d 087f b73d
000001b0: bd59 293d 20b0 243d cd87 373d a7e8 2f3d
000001c0: b8f4 fd3d d1fb 9b3d 89b9 3c3d 4f0a cc3d
000001d0: 3ea7 db3d 017b 1a3d 15cb 243d 8640 5b3d
000001e0: 1e1c cd3c f418 2e3d c70f 1c3d 1e7d 5e3d
000001f0: 4db3 db3d 1197 cb3d f5c0 103d 9002 283d

layers.0.fc_neigh.weight f4 [128, 500]
-0.2759832 -0.003950124 -0.16876903 -0.22146553 0.060519345 -0.30781144 0.1198441 0.0037199429
-0.071934484 -0.24843173 -0.11387934 -0.1110077 -0.050834674 0.17745143 -0.16893853 -0.0802517
-0.0581808 0.136051 -0.027838461 0.056771293 -0.044769783 -0.32034323 0.029101381 -0.3735466
-0.02481232 -0.1962535 -0.10417686 -0.058633327 -0.46173835 -0.22192055 0.064410105 -0.25298598
-0.13297611 0.040376015 -0.1488995 -0.04059221 -0.24175839 -0.21619958 -0.052841928 -0.3442657
-0.20115387 0.062842764 -0.027320731 0.13636257 -0.091188565 0.015634304 0.108780324 -0.13234219
0.12837172 0.10780739 0.09861659 -0.024475778 0.25846076 -0.1510343 -0.08471614 -0.069795035
-0.10603066 -0.108581655 0.08401855 -0.020566547 -0.16162264 0.04185867 -0.13239421 0.051179152
0.1711577 0.16485101 -0.06456429 -0.00095088565 0.16893534 -0.044687826 0.19266872 -0.17722435
-0.015584729 0.18144245 -0.029136673 0.05486571 -0.01462776 -0.21298224 0.08889114 -0.11983039
0.24300542 0.16153967 -0.009406838 -0.072624795 0.13750027 0.12577534 -0.4492678 0.11218078
0.028187204 -0.11836127 0.010602314 0.12899254 -0.09111496 -0.14160039 0.23345542 -0.09743349
-0.20705795 0.081796266 0.027199337 -0.08509251 0.11007208 0.0009194541 0.012992294 -0.14837348
-0.09032492 -0.07824026 0.10496061 -0.24233435 -0.26038778 -0.050640658 -0.024364494 0.20927866
0.046397407 -0.037614953 -0.07008153 -0.05942357 0.07520675 -0.04997725 0.034517955 0.12672919
-0.20070551 -0.20299858 -0.3645829 -0.20763575 0.1269672 -0.1524115 -0.19588436 -0.18041034
-0.097846575 -0.034994382 -0.3763673 0.3593171 0.29256928 -0.06772188 -0.028542437 0.050587155
-0.062377598 -0.03680285 -0.0641139 0.315667 -0.14589894 0.19752361 -0.21659254 0.20482866
-0.13118796 -0.06619954 -0.21098517 -0.027844857 -0.06427013 -0.02630336 0.036100574 0.056056872
0.15197389 0.036879938 -0.02639619 0.080603465 -0.10351789 -0.16564865 -0.20694081 -0.11091863
-0.105488785 0.07832458 0.00031065164 0.039417602 -0.13410817 -0.045957126 -0.098493434 -0.14162084
0.17864718 -0.13781537 -0.087981135 -0.25995922 -0.113583855 -0.24531457 0.21450925 -0.15291725
0.18899617 -0.07929496 -0.14168476 -0.15680009 0.19265246 0.0665001 0.027332827 -0.1893534
-0.34064972 -0.01470772 0.22036798 0.043631725 0.045939457 -0.22339801 -0.079856284 0.029013602
-0.11228951 -0.010998433 -0.19620967 0.13285594 -0.069002934 0.23184179 -0.16293614 0.10387185
0.04803626 -0.014392906 -0.13279052 -0.1173594 0.3124144 -0.0911156 0.05496207 0.13266118
0.017166276 0.17426835 0.15144536 0.10384771 0.22951755 -0.17325702 -0.41060558 -0.32059258
0.15446901 -0.12116985 -0.33815172 0.021374311 0.072103344 -0.20512606 -0.09290937 -0.18282622
0.0008647033 0.13577533 -0.057717357 -0.009513985 -0.15556026 -0.014367031 0.23123991 -0.104291305
0.3415572 0.16561557 0.11301482 -0.12467137 -0.4093147 -0.26597127 0.16094002 -0.20437084
0.051514033 -0.119258806 0.026024112 0.04234373 -0.2587108 -0.17269564 0.053234737 0.14723209
0.004689884 0.0030848957 0.10135489 -0.055835053 -0.083742 0.10436676 -0.032344807 0.06404999
00000000: ac4d 8dbe 0b70 81bb cad1 2cbe dcc7 62be
00000010: 22e3 773d 7699 9dbe d370 f53d 49ca 733b
00000020: 6352 93bd e364 7ebe 9239 e9bd 0158 e3bd
00000030: 0538 50bd d4b5 353e 39fe 2cbe 015b a4bd
00000040: fe4e 6ebd f450 0b3e 7c0d e4bc 0489 683d
00000050: 8560 37bd 0704 a4be 0566 ee3c 8041 bfbe
00000060: 3543 cbbc adf6 48be ad5a d5bd 8029 70bd
00000070: f868 ecbe 243f 63be 72e9 833d 6187 81be
00000080: e42a 08be 5261 253d 1c79 18be 0444 26bd
00000090: 838f 77be 6c63 5dbe c770 58bd 9843 b0be
000000a0: 48fb 4dbe b5b3 803d bacf dfbc a1a2 0b3e
000000b0: 12c1 babd 8313 803c 38c8 de3d b684 07be
000000c0: e073 033e 1fca dc3d 7ff7 c93d 6d81 c8bc
000000d0: f854 843e bca8 1abe a87f adbd b3f0 8ebd
000000e0: 9a26 d9bd 0f60 debd eb11 ac3d 2d7b a8bc
000000f0: 6880 25be ff73 2b3d 5992 07be 3ba1 513d
00000100: f743 2f3e b4ce 283e 483a 84bd db44 79ba
00000110: 63fd 2c3e 950a 37bd f34a 453e 4d7a 35be
00000120: 1757 7fbc 0dcc 393e 08b0 eebc deba 603d
00000130: 46a9 6fbc 0418 5abe 8f0c b63d a369 f5bd
00000140: 6ad6 783e a86a 253e 231f 1abc 4fbc 94bd
00000150: dfcc 0c3e 40cb 003e 6e06 e6be 09bf e53d
00000160: dae8 e63c 6567 f2bd 54b5 2d3c 9f16 043e
00000170: 7b9a babd b1ff 10be f00e 6f3e 368b c7bd
00000180: 0007 54be cd84 a73d 25d1 de3c fb44 aebd
00000190: 786d e13d 8507 713a a1dd 543c 38ef 17be
000001a0: 46fc b8bd 6e3c a0bd 97f5 d63d 7f26 78be
000001b0: 8c51 85be 946c 4fbd 0c98 c7bc 254d 563e
000001c0: 350b 3e3d 2312 1abd e886 8fbd 2166 73bd
000001d0: ff05 9a3d f2b4 4cbd b362 0d3d 4cc5 013e
000001e0: bf85 4dbe dcde 4fbe 9caa babe 779e 54be
000001f0: b103 023e c311 1cbe e995 48be 7dbd 38be
00000200: c963 c8bd 4556 0fbd 37b3 c0be 69f8 b73e
00000210: a4cb 953e c5b1 8abd d4d1 e9bc 7a34 4f3d
00000220: a77f 7fbd 96be 16bd 264e 83bd 1b9f a13e
00000230: 8866 15be a143 4a3e 6fca 5dbe 9bbe 513e
00000240: 2356 06be a093 87bd 7f0c 58be e61a e4bc
00000250: 0fa0 83bd 257a d7bc 32de 133d e49b 653d
00000260: 0b9f 1b3e 6b0f 173d d33c d8bc 6e13 a53d
00000270: 3001 d4bd cd9f 29be 4be8 53be 4f29 e3bd
00000280: 810a d8bd a368 a03d f5de a239 5a74 213d
00000290: a753 09be 8a3d 3cbd edb6 c9bd 0e05 11be
000002a0: 49ef 363e 791f 0dbe 742f b4bd 6019 85be
000002b0: a79e e8bd be33 7bbe 50a8 5b3e 5796 1cbe
000002c0: 3688 413e 6565 a2bd cf15 11be 3490 20be
000002d0: b046 453e 3431 883d 18e9 df3c dce5 41be
000002e0: a469 aebe a6f8 70bc 25a8 613e 2eb7 323d
000002f0: 032b 3c3d 73c2 64be b18b a3bd efad ed3c
00000300: 0bf8 e5bd c632 34bc 30eb 48be 630b 083e
00000310: 6951 8dbd ef67 6d3e bbd8 26be c4ba d43d
00000320: abc1 443d 39d0 6bbc 3dfa 07be 205a f0bd
00000330: c8f4 9f3e d19a babd e81f 613d 55d8 073e
00000340: 4aa0 8c3c 6773 323e 7e14 1b3e 1cae d43d
00000350: a606 6b3e 4a6a 31be e53a d2be b624 a4be
00000360: 202d 1e3e e627 f8bd 3922 adbe 2e19 af3c
00000370: ebaa 933d 910c 52be 4547 bebd cc36 3bbe
00000380: 42ad 623a b008 0b3e 0969 6cbd 8ce0 1bbc
00000390: 304b 1fbe b263 6bbc 28ca 6c3e ae96 d5bd
000003a0: 96e0 ae3e 2197 293e 5074 e73d b453 ffbd
000003b0: b291 d1be 632d 88be 76cd 243e 9746 51be
000003c0: 6100 533d f63d f4bd 8530 d53c 9e70 2d3d
000003d0: be75 84be 20d7 30be ab0c 5a3d 02c4 163e
000003e0: 99ad 993b f62b 4a3b 2793 cf3d 4cb3 64bd
000003f0: ed80 abbd 3dbe d53d fd7b 04bd a42c 833d

layers.1.bias f4 [128]
0.008757877 0.012194451 -0.006522258 -0.0018932861 0.0058028568 -0.0014118481 0.0018216294 0.007997807
-0.015204563 0.0073038274 0.00083278527 -0.022236189 -0.003979197 -0.0076679373 0.002560198 0.0035151376
-0.012726818 0.023938622 -0.02344396 -0.021437895 -0.0025501582 -0.0014394674 0.016523987 -0.010851388
0.012072487 0.0036603422 0.013074402 -0.018123891 0.0046579456 -0.015108166 -0.004660388 0.00075905287
-0.002178236 6.730164e-05 0.00939702 -0.010565398 0.011616506 0.0019926704 0.013531115 0.0063258517
-0.0073857093 0.008846932 0.01397064 -0.0031920613 0.013510799 0.008646353 -0.004088357 -0.0091503775
-0.019698467 0.00041217564 0.004715255 -0.006753149 0.003949864 -0.01799054 -0.0036131435 -0.008987043
0.004952361 -0.011961853 0.012187414 -0.02534188 0.0081325285 0.024256308 0.0030443114 0.012702614
-0.005565604 0.020766381 -0.002399781 -0.006982264 -0.009757941 -0.007025993 -0.021196546 0.009350642
0.008765232 -0.0063410616 0.02073323 0.0028946092 0.006273543 -0.015197628 0.0054067834 -0.019129725
0.01818076 5.1502506e-05 -0.0032601026 0.014007187 0.010975212 -0.014359082 -0.029529605 0.024046857
0.02544446 -0.0026609115 0.017029604 -0.017174702 -0.01570721 -0.008030346 -0.02200055 0.012776372
0.005486411 -0.010657765 0.012641522 -0.0028803248 -0.0006013385 0.008122288 0.004294611 -0.0034815692
0.023647424 0.0029754564 0.0009277605 0.004181302 0.011281898 0.0025988524 0.002768335 0.013081432
-0.013468017 -0.010364224 0.012697908 -0.028819187 -0.02785355 0.007045341 -0.015364756 -0.012499602
0.0014865214 -0.0011358517 0.008585523 -0.0077173156 0.0012546146 0.0011887767 -0.0019867637 0.0004753835
00000000: 337d 0f3c 3ccb 473c aab8 d5bb 2428 f8ba
00000010: e425 be3b c30d b9ba bdc3 ee3a 3c09 033c
00000020: 8f1c 79bc f254 ef3b 464f 5a3a ab28 b6bc
00000030: ec63 82bb 5243 fbbb ffc8 273b 395e 663b
00000040: 2584 50bc ee1a c43c 8c0d c0bc 869e afbc
00000050: 8e20 27bb 83ac bcba 505d 873c 05ca 31bc
00000060: aecb 453c 5ae2 6f3b 0436 563c 8e78 94bc
00000070: aea1 983b 3e88 77bc 2bb6 98bb 2dfb 463a
00000080: bcc0 0ebb 4b24 8d38 f5f5 193c 7e1a 2dbc
00000090: 2853 3e3c 7697 023b 9cb1 5d3c 1749 cf3b
000000a0: d203 f2bb b9f2 103c 1ce5 643c e731 51bb
000000b0: 665c 5d3c 6fa9 0d3c a0f7 85bb 77eb 15bc
000000c0: ae5e a1bc 4719 d839 6d82 9a3b 8549 ddbb
000000d0: dc6d 813b e660 93bc 7dca 6cbb 643e 13bc
000000e0: 6a47 a23b a6fb 43bc b8ad 473c c699 cfbc
000000f0: 4c3e 053c 2ab5 c63c 1283 473b a01e 503c
00000100: ac5f b6bb 421e aa3c a545 1dbb 7acb e4bb
00000110: c5df 1fbc 4d3a e6bb 61a4 adbc 6f33 193c
00000120: 0c9c 0f3c aec8 cfbb bcd8 a93c 7cb3 3d3b
00000130: 4b92 cd3b 79ff 78bc 632b b13b f1b5 9cbc
00000140: d1ef 943c 6504 5838 72a7 55bb 677e 653c
00000150: 60d1 333c 5b42 6bbc 12e8 f1bc eafd c43c
00000160: e670 d03c b062 2ebb ab81 8b3c f6b1 8cbc
00000170: 68ac 80bc b691 03bc 7f3a b4bc fd53 513c
00000180: 5ac7 b33b e89d 2ebc 631e 4f3c d5c3 3cbb
00000190: 25a3 1dba 5813 053c cfb9 8c3b 0a2b 64bb
000001a0: 3eb8 c13c e0ff 423b f434 733a 4e03 893b
000001b0: b6d7 383c 8251 2a3b f46c 353b 8153 563c
000001c0: f5a8 5cbc b5ce 29bc e30a 503c 3716 ecbc
000001d0: 212d e4bc 9bdc e63b 75bc 7bbc 21cb 4cbc
000001e0: 62d7 c23a dce0 94ba 4baa 0c3c 89e1 fcbb
000001f0: e171 a43a bad0 9b3a 5d34 02bb e53c f939

layers.1.fc_neigh.weight f4 [128, 128]
0.2008347 -0.25826484 0.18837751 -0.008080692 0.2418571 0.35361865 -0.003751311 -0.008146122
-0.23548244 0.07609759 0.28120235 0.06593729 -0.21292527 0.055247627 -0.10024042 0.1517653
0.044951018 -0.06600019 0.08961698 -0.106403925 -0.2370749 0.027948203 0.07435266 0.14545444
-0.16975434 0.119405925 0.18781397 -0.103943005 -0.3350242 -0.06840438 -0.2708146 0.2688342
-0.13718913 0.06700382 -0.14634113 -0.14731981 0.26265606 0.079491526 0.14923881 -0.18662348
0.24512298 0.3159361 -0.24113584 0.2756738 -0.18992655 0.11042028 -0.051328167 0.11773272
-0.24519879 0.04916966 -0.32934496 -0.24253282 0.23740894 -0.011359315 0.009577994 -0.19970697
-0.09807369 -0.020163191 0.2034515 0.18260045 -0.014220305 0.2749355 -0.024892913 0.10745947
-0.06715303 0.09027077 0.16842733 -0.07944879 -0.26603433 0.12351684 0.08943346 0.258497
0.07527433 -0.25738278 -0.057760272 -0.09983021 -0.30330288 -0.3694549 0.29780707 0.10975051
0.056122582 -0.117599644 -0.10252003 0.101870134 0.033637825 0.2685018 -0.1554793 0.31251258
0.077370614 0.05521336 0.005959964 -0.27844033 -0.3082099 -0.1551655 -0.10766961 0.16633345
-0.17510606 0.15955092 -0.013295268 -0.080695435 -0.036466256 -0.3210775 0.07078172 0.34972137
0.10360523 0.12242479 -0.16695349 0.067269295 0.062505454 -0.21934773 0.2829048 0.1867709
-0.15594497 -0.21917233 0.05455096 -0.1586124 -0.18715094 0.09552121 -0.05723994 0.16877322
0.16288264 0.25559017 -0.01040192 0.19648878 -0.22416946 0.26206458 -0.18889527 -0.26342443
-0.042803314 0.071429126 -0.09013555 0.10253889 0.20191614 -0.10349331 0.22864912 0.17556915
-0.26128742 0.33517972 -0.061595242 -0.04377373 -0.10800449 -0.30295044 -0.18087228 -0.18323629
0.051625133 -0.0137559045 0.033090804 -0.19771403 -0.34211284 0.12071048 -0.31747124 0.15010266
-0.24022245 -0.0827761 0.1589496 0.041702326 -0.22670884 -0.10975261 0.07248173 -0.13632874
0.13480394 -0.16357818 0.29233962 -0.012884727 0.1427046 -0.13259491 -0.258862 0.054982707
-0.2946556 -0.15868504 -0.3174854 0.29666668 0.03182289 -0.22960962 -0.28196788 0.29050767
-0.035264812 -0.13307759 0.035866383 -0.0016958219 -0.21366628 0.2607524 0.16981767 0.03115779
-0.29134673 0.08569385 -0.2028908 0.051448416 -0.32207426 -0.09385485 0.047261775 0.17598286
-0.1467779 -0.086178586 -0.014207748 0.05767846 0.30257538 0.17486237 0.22317491 -0.2777798
-0.08833344 -0.058260366 0.062891096 -0.03569496 -0.0006910124 0.086487845 0.2565331 0.27392897
-0.21240138 -0.26926994 0.18628639 0.040104188 0.25912565 -0.22322379 -0.016267093 -0.07509602
0.23909006 0.12763494 -0.117166325 0.08834221 0.1594983 0.27744937 -0.09866931 0.22366405
-0.043909576 -0.03861408 0.3058428 0.19587171 -0.18373781 -0.062499017 0.095709756 0.16939843
0.091052435 -0.24249509 0.23304139 -0.038070757 0.14334482 0.18040664 0.22311874 -0.22969362
-0.06407849 0.27941868 0.2790734 -0.035964005 0.1909019 0.33616817 -0.30238244 -0.25661352
-0.049990185 0.20867805 -0.2312688 0.06043368 -0.18246274 0.030572593 0.22717598 0.17258644
00000000: 9da7 4d3e 4a3b 84be 09e6 403e e164 04bc
00000010: 63a9 773e 810d b53e 8ed8 75bb 5077 05bc
00000020: 4f22 71be 0ed9 9b3d c1f9 8f3e 210a 873d
00000030: 1509 5abe 564b 623d d94a cdbd 5d68 1b3e
00000040: 8f1e 383d 1c2b 87bd 1b89 b73d 4dea d9bd
00000050: c3c3 72be a1f3 e43c 3546 983d 02f2 143e
00000060: 15d4 2dbe 188b f43d 4e52 403e 12e0 d4bd
00000070: 4b88 abbe 9817 8cbd 36a8 8abe a3a4 893e
00000080: 4f7b 0cbe 4c39 893d 73da 15be 01db 16be
00000090: db7a 863e 74cc a23d 0fd2 183e 3a1a 3fbe
000000a0: 8501 7b3e 60c2 a13e 50ec 76be 1e25 8d3e
000000b0: 1b7c 42be 0724 e23d 7c3d 52bd da1d f13d
000000c0: 6415 7bbe 2066 493d e79f a8be 865a 78be
000000d0: 541b 733e 6c1c 3abc 05ed 1c3c fc7f 4cbe
000000e0: dcda c8bd 472d a5bc 9755 503e 9dfb 3a3e
000000f0: 48fc 68bc 59c4 8c3e 39ec cbbc b613 dc3d
00000100: 8787 89bd e2df b83d 3778 2c3e 0cb6 a2bd
00000110: a735 88be 66f6 fc3d e428 b73d b859 843e
00000120: 6e29 9a3d adc7 83be 0996 6cbd c873 ccbd
00000130: 844a 9bbe 3129 bdbe 2b7a 983e e0c4 e03d
00000140: cbe0 653d 15d8 f0bd 06f6 d1bd 4aa1 d03d
00000150: d1c7 093d 1179 893e f735 1fbe a601 a03e
00000160: 7c74 9e3d 6727 623d cd4b c33b bb8f 8ebe
00000170: b0cd 9dbe b4e3 1ebe e281 dcbd 5153 2a3e
00000180: 014f 33be 5161 233e 65d4 59bc a643 a5bd
00000190: a45d 15bd 4564 a4be 02f6 903d ae0e b33e
000001a0: fb2e d43d d9b9 fa3d dbf5 2abe 7cc4 893d
000001b0: dc02 803d b19c 60be e6d8 903e df40 3f3e
000001c0: 0ab0 1fbe b66e 60be d470 5f3d 4a6b 22be
000001d0: 7fa4 3fbe a0a0 c33d 6d74 6abd e3d2 2c3e
000001e0: b5ca 263e b7dc 823e d16c 2abc 5b34 493e
000001f0: ae8c 65be 542d 863e c36d 41be 91df 86be
00000200: 8752 2fbd 6f49 923d fd98 b8bd e9ff d13d
00000210: 1bc3 4e3e 4df4 d3bd ff22 6a3e 66c8 333e
00000220: 77c7 85be ad9c ab3e 4b4b 7cbd 154c 33bd
00000230: 7531 ddbd 521c 9bbe 9536 39be 4ba2 3bbe
00000240: e074 533d 7260 61bc 398a 073d 8c75 4abe
00000250: 6a29 afbe 0e37 f73d 978b a2be 83b4 193e
00000260: e0fc 75be 8486 a9bd afc3 223e 0fd0 2a3d
00000270: 5d26 68be fac5 e0bd 4d71 943d c399 0bbe
00000280: 0b0a 0a3e 0a81 27be 8aad 953e 761a 53bc
00000290: 2821 123e f6c6 07be 8f89 84be 8c35 613d
000002a0: 19dd 96be 557e 22be 728d a2be b2e4 973e
000002b0: b858 023d c91e 6bbe 185e 90be 6cbd 943e
000002c0: d671 10bd 7e45 08be a1e8 123d 5746 deba
000002d0: 55cb 5abe 5781 853e afe4 2d3e 9f3e ff3c
000002e0: 662b 95be 4280 af3d 9bc2 4fbe 93bb 523d
000002f0: ebe6 a4be f936 c0bd 9095 413d da34 343e
00000300: f24c 16be 667e b0bd 9dc7 68bc 4040 6c3d
00000310: 29eb 9a3e 1f0f 333e f787 643e 2739 8ebe
00000320: 2ae8 b4bd 6ca2 6ebd 0ccd 803d e134 12bd
00000330: 0f25 35ba 8a20 b13d 4e58 833e 6b40 8c3e
00000340: bf7f 59be c0dd 89be dcc1 3e3e 4a44 243d
00000350: 1eac 843e c794 64be 9142 85bc f1cb 99bd
00000360: 06d4 743e bcb2 023e e6f4 efbd c3ec b43d
00000370: 8653 233e d80d 8e3e 2313 cabd 3008 653e
00000380: 87da 33bd cc29 1ebd 6d97 9c3e 9892 483e
00000390: c425 3cbe f8fe 7fbd 7a03 c43d c876 2d3e
000003a0: b379 ba3d a250 78be 67a2 6e3e 15f0 1bbd
000003b0: fcc8 123e 85bc 383e 3d79 643e ce34 6bbe
000003c0: 953b 83bd f70f 8f3e b5e2 8e3e fe4e 13bd
000003d0: ca7b 433e 3c1e ac3e dfd1 9abe d962 83be
000003e0: 82c2 4cbd b3af 553e bad1 6cbe 4e89 773d
000003f0: 83d7 3abe 6073 fa3c d2a0 683e 80ba 303e
