pre_data/pubmed_model_128GCN.pt (torch, 324435 bytes, 4 tensors)

layers.0.weight f4 [500, 128]
0.07667187 0.042869378 0.17609046 -0.3521623 -0.23230895 0.38419443 -0.044895224 -0.012358186
0.05282987 -0.40548605 0.099939175 0.15816619 0.026410598 -0.043753088 0.12755892 -0.13845672
-0.10349632 0.121740445 -0.008818725 0.006368069 -0.16889532 -0.035082508 -0.36459625 -0.091826946
0.02780439 0.2487792 0.11738353 -0.20529805 -0.28162673 -0.2898032 -0.11095516 0.16777954
-0.045862265 0.14347632 -0.12003082 0.091170594 -0.021549543 -0.14528117 -0.15226912 0.139262
-0.21602185 -0.033061206 -0.014867058 -0.21960689 0.030147439 -0.60815656 -0.21469174 -0.13370082
-0.113248155 0.0018618727 -0.17534499 -0.11704825 0.25432983 0.016480898 0.01871202 -0.16116525
0.12555148 0.10401632 0.06072138 -0.35991666 0.02322733 -0.044380493 -0.29389113 -0.009807208
-0.0022221594 -0.03466425 -0.24544083 0.12737198 -0.043379225 -0.2798606 -0.17084171 -0.18773957
-0.36483297 -0.25314376 -0.40384614 0.112420425 -0.10636982 0.06240937 -0.05585326 -0.008276255
-0.26682544 -0.2149751 -0.13599102 -0.009966971 -0.1774273 -0.23328114 -0.06801736 -0.040151954
-0.21330838 -0.0115501955 -0.20907128 0.21268213 -0.2395834 0.015471135 -0.15696844 -0.21222912
-0.26292294 -0.0167249 0.15470056 0.0655665 -0.11093196 0.083525494 -0.16827041 0.14225428
-0.11209665 -0.20204598 -0.28513563 0.025516 -0.21138898 0.098987 0.03317858 -0.12882423
-0.07772152 -0.019496584 -0.14435248 0.012829298 -0.008287436 0.12716065 -0.24665627 -0.012902945
-0.26171488 -0.28196567 -0.16805895 0.17844816 0.047866896 -0.36604086 0.20536795 -0.110900514
-0.079206795 -0.06827187 0.17664729 0.008514706 0.21329027 0.041079722 0.020945208 -0.05937534
0.06941917 0.13853334 -0.13621745 -0.14131877 -0.14939518 0.101175785 -0.13091403 0.21452813
-0.043437865 -0.22431509 -0.060307723 -0.02685861 0.104955465 0.020879244 -0.04474776 0.037648942
0.012536376 0.11240543 -0.034293465 -0.10206001 -0.09061577 0.12083307 -0.08836757 -0.081125125
-0.07569719 0.15131974 -0.078132525 -0.118481085 -0.18203388 0.20868278 0.1589007 -0.13485588
-0.12572628 -0.13589276 -0.044272717 0.20903507 -0.14412923 -0.00137683 -0.13387392 0.14067447
0.13139409 -0.20809397 0.074652225 -0.13113874 -0.19781972 0.23624158 -0.046093117 -0.112967744
-0.2409801 -0.031696316 -0.023943897 0.01731511 -0.19423756 -0.21042372 -0.13190469 0.19513226
0.17359214 0.10437931 -0.010165607 0.039122336 0.07611922 -0.00045561983 -0.05475843 -0.16386609
0.098766506 -0.18446682 -0.10509088 -0.14508924 0.2794592 -0.025725244 0.0911191 0.059148554
0.05643239 0.02013173 0.109047264 0.011066636 0.042415757 -0.06215359 -0.061899994 0.22820236
-0.015887171 -0.02457553 -0.028897263 0.1795245 0.22827362 -0.0126619525 -0.068687215 -0.10968575
-0.024796188 0.13952371 0.012095185 -0.09829785 0.032045677 -0.0040956996 0.063228436 -0.009952959
-0.023686193 0.06590354 0.0016764232 -0.118167564 -0.235769 -0.102364555 -0.10671537 0.032124385
0.08831013 -0.24658696 -0.14243975 -0.14740399 -0.09765631 -0.11869442 0.07119622 0.030310199
-0.090237945 0.16423352 0.04121086 -0.0077396617 -0.0072734905 0.027190847 -0.14600135 -0.11176097
00000000: 2406 9d3d cd97 2f3d 0f51 343e 9e4e b4be
00000010: 66e2 6dbe 22b5 c43e 0ee4 37bd fd79 4abc
00000020: 2264 583d de9b cfbe e9ac cc3d 51f6 213e
00000030: 0a5b d83c 7036 33bd ce9e 023e 99c7 0dbe
00000040: e1f5 d3bd 0e53 f93d 6a7c 10bc 3cab d03b
00000050: e5f2 2cbe adb2 0fbd 5cac babe c40f bcbd
00000060: 08c6 e33c f9bf 7e3e c766 f03d a739 52be
00000070: 6131 90be 1661 94be 753c e3bd 66ce 2b3e
00000080: 12da 3bbd 75eb 123e b8d2 f5bd a6b7 ba3d
00000090: ab88 b0bc 96c4 14be 70ec 1bbe b39a 0e3e
000000a0: d534 5dbe 306b 07bd f694 73bc a1e0 60be
000000b0: c3f7 f63c 26b0 1bbf 27d8 5bbe dee8 08be
000000c0: a6ee e7bd 150a f43a a38d 33be feb6 efbd
000000d0: 8537 823e f302 873c f349 993c 8108 25be
000000e0: 9190 003e 8206 d53d fbb6 783d ff46 b8be
000000f0: 3e47 be3c 52c8 35bd e678 96be 69ae 20bc
00000100: a6a1 11bb 1afc 0dbd d754 7bbe cd6d 023e
00000110: 6aae 31bd e349 8fbe 21f1 2ebe cd3e 40be
00000120: 63cb babe 0f9c 81be ecc4 cebe ae3c e63d
00000130: 6cd8 d9bd f8a0 7f3d 63c6 64bd 2199 07bc
00000140: 589d 88be 6f22 5cbe 3b41 0bbe 824c 23bc
00000150: 81af 35be 40e1 6ebe b04c 8bbd 6076 24bd
00000160: 836d 5abe 083d 3dbc c816 56be 58c9 593e
00000170: 5a55 75be a57a 7d3c 56bc 20be 9752 59be
00000180: d69d 86be a802 89bc d369 1e3e bb47 863d
00000190: 4c30 e3bd 6a0f ab3d 144f 2cbe 1bab 113e
000001a0: ee92 e5bd 24e5 4ebe 4cfd 91be ee06 d13c
000001b0: 5a76 58be b2b9 ca3d 43e6 073d 80ea 03be
000001c0: 762c 9fbd 4db7 9fbc 23d1 13be fa31 523c
000001d0: 07c8 07bc 6736 023e 7693 7cbe e066 53bc
000001e0: 7eff 85be ce5d 90be a517 2cbe 1dbb 363e
000001f0: 1410 443d b569 bbbe fa4b 523e cf1f e3bd
00000200: 2c37 a2bd 1fd2 8bbd 07e3 343e 4481 0b3c
00000210: c468 5a3e 3643 283d 4995 ab3c 8e33 73bd
00000220: a32b 8e3d afdb 0d3e 967c 0bbe deb5 10be
00000230: 0dfb 18be 4035 cf3d 540e 06be 43ad 5b3e
00000240: e7eb 31bd dbb2 65be 3b05 77bd 9606 dcbc
00000250: e4f2 d63d f30a ab3c 6d49 37bd c735 1a3d
00000260: 5f65 4d3c d134 e63d 4e77 0cbd d704 d1bd
00000270: c394 b9bd 5477 f73d 0efa b4bd ee24 a6bd
00000280: 2107 9bbd 90f3 1a3e f203 a0bd 36a6 f2bd
00000290: 1767 3abe f0b0 553e ddb6 223e a917 0abe
000002a0: 64be 00be 7927 0bbe 4f57 35bd 4a0d 563e
000002b0: 9d96 13be c076 b4ba 3f16 09be f80c 103e
000002c0: 2c8c 063e 9616 55be 44e3 983d 3c49 06be
000002d0: 4191 4abe 50e9 713e 23cc 3cbd a25b e7bd
000002e0: 7dc3 76be ffd3 01bd fe25 c4bc 6bd8 8d3c
000002f0: 36e6 46be 5179 57be 0612 07be c0d0 473e
00000300: 23c2 313e d2c4 d53d a58d 26bc be3e 203d
00000310: 65e4 9b3d 42e0 eeb9 604a 60bd 83cc 27be
00000320: 1846 ca3d dfe4 3cbe e339 d7bd 4692 14be
00000330: 4715 8f3e bfbd d2bc a79c ba3d c145 723d
00000340: a625 673d 4ceb a43c 2c54 df3d d650 353c
00000350: 25bc 2d3d c394 7ebd d98a 7dbd e1ad 693e
00000360: d025 82bc 9f52 c9bc f4b9 ecbc 45d5 373e
00000370: 8fc0 693e 1474 4fbc e2ab 8cbd eca2 e0bd
00000380: 6021 cbbc 4edf 0e3e e22a 463c 6250 c9bd
00000390: 5442 033d 3835 86bb e97d 813d bc11 23bc
000003a0: 8c09 c2bc 6ff8 863d 6ebb db3a d601 f2bd
000003b0: 6e6d 71be 82a4 d1bd 978d dabd dc94 033d
000003c0: f1db b43d 4b81 7cbe badb 11be 12f1 16be
000003d0: 0800 c8bd 0f16 f3bd 53cf 913d 184d f83c
000003e0: acce b8bd d52c 283e b8cc 283d fd9c fdbb
000003f0: 7656 eebb 57bf de3c 6181 15be efe2 e4bd

layers.0.bias f4 [128]
0.00072489516 0.007461454 0.0040950044 0.0020816932 0.0054080635 0.010165979 0.0056783743 0.008217701
0.0070413263 0.00011383161 0.008166296 -0.0032790548 0.008838185 0.0011096598 0.00792121 -0.0011632547
0.010678029 0.008592721 0.0137825925 0.004953572 0.008544328 0.013663937 -0.0012036321 0.00863019
0.013357916 0.0060308278 0.009501633 0.006260677 0.007796009 0.007604236 0.003432464 0.0146717625
0.0127863195 0.003119966 0.0005319904 0.007960692 -0.0028205167 0.0021092542 0.008901923 0.0077834795
-0.0036863287 -0.00060132967 0.011693976 0.003573134 0.011287233 0.011994633 0.010117368 0.002356682
0.0037403707 0.01173041 0.00026021563 0.002669007 0.008801713 -0.00067706406 0.008414129 0.005720553
0.011054571 0.008488646 0.005291245 0.004183566 0.0068461252 0.007173095 0.0050917016 0.007756556
0.008369449 0.011497457 -0.0019653756 0.012921199 0.0071183066 0.009642402 0.0045788535 0.0010699381
0.017651176 0.0003534478 0.0072556078 0.007823628 0.0019223792 0.012055215 0.0052893516 -0.017042238
0.013361124 0.0049962313 0.0066853687 0.00811665 0.0081516225 0.005785551 0.009056909 0.0022765896
0.0053998153 0.0048387707 0.017638218 0.0061770547 0.015538336 0.013638254 0.0049261353 0.013161368
0.013399477 0.0014761608 0.014042795 0.0053504957 0.0028120019 0.002743908 0.00874009 0.008812753
0.0069168974 0.013182279 -0.0038538037 0.00081618875 0.0056014294 0.009667792 0.005136312 0.0017741241
0.009425238 0.008500858 0.0110395 0.0029438194 0.0021470548 0.010821488 0.011132865 0.016718961
0.006939806 0.0043885387 0.008837224 0.009703196 0.0082279965 0.0016856542 0.004596918 0.0021722175
00000000: e406 3e3a 367f f43b 632f 863b 046d 083b
00000010: 2036 b13b 358f 263c a811 ba3b 89a3 063c
00000020: edba e63b e1b8 ee38 eecb 053c 69e5 56bb
00000030: 09ce 103c 0172 913a f6c7 013c 5a78 98ba
00000040: e6f2 2e3c 7cc8 0c3c 62d0 613c 9351 a23b
00000050: 82fd 0b3c b5de 5f3c 31c3 9dba a465 0d3c
00000060: 29db 5a3c 409e c53b bdac 1b3c 5d26 cd3b
00000070: aa75 ff3b f42c f93b 31f3 603b d561 703c
00000080: b67d 513c 5878 4c3b 4575 0b3a 906d 023c
00000090: 6bd8 38bb 6a3b 0a3b 5fd9 113c 8f0c ff3b
000000a0: 5596 71bb 8da2 1dba 1798 3f3c 3e2b 6a3b
000000b0: 16ee 383c 2385 443c 51c3 253c 9072 1a3b
000000c0: 0221 753b e830 403c 8d6d 8839 82ea 2e3b
000000d0: 0f35 103c 007d 31ba 6adb 093c 7a73 bb3b
000000e0: 3b1e 353c f613 0b3c 2e62 ad3b 4c16 893b
000000f0: 7655 e03b 480c eb3b 4ad8 a63b b52a fe3b
00000100: 0320 093c d45f 3c3c 88cd 00bb 70b3 533c
00000110: af40 e93b 2afb 1d3c 350a 963b 2a3d 8c3a
00000120: 3399 903c f64e b939 73c0 ed3b ad2e 003c
00000130: 58f8 fb3a 3d83 453c 4c52 ad3b 2a9c 8bbc
00000140: 9ee8 5a3c 6db7 a33b f010 db3b b3fb 043c
00000150: 628e 053c b894 bd3b 6e63 143c d632 153b
00000160: eff0 b03b 8d8e 9e3b 067e 903c e468 ca3b
00000170: 8194 7e3c fc72 5f3c 6b6b a13b c7a2 573c
00000180: 7b89 5b3c bd7b c13a c013 663c 3653 af3b
00000190: 9049 383b 23d3 333b 9832 0f3c 5d63 103c
000001a0: 24a7 e23b 7cfa 573c 1990 7cbb 80f5 553a
000001b0: 328c b73b a965 1e3c 824e a83b ba89 e83a
000001c0: 506c 1a3c 2f47 0b3c 05df 343c 18ed 403b
000001d0: 9ab5 0c3b 9c4c 313c 9f66 363c 34f6 883c
000001e0: 5067 e33b bbcd 8f3b 01ca 103c 27fa 1e3c
000001f0: b8ce 063c 2bf1 dc3a bea1 963b c35b 0e3b

layers.1.weight f4 [128, 128]
-0.093868524 -0.045304593 -0.18540587 0.07140493 0.08758501 0.19042923 0.07578804 0.06610567
0.08650295 -0.040679593 0.1098724 0.014552762 0.0034147731 0.21408574 -0.14771795 -0.18438038
0.04695057 0.017097535 0.203143 -0.21429877 0.024476057 -0.27076814 -0.06935738 -0.009229846
0.26364973 0.02552769 -0.2255543 -0.052954845 -0.08243953 -0.20752536 0.106395684 -0.009877506
0.041618533 -0.11869074 0.006854895 0.09577032 -0.019007932 -0.11413736 0.024654867 -0.25186056
0.010466204 0.12591125 -0.057596453 0.16846693 0.0013152623 0.14816085 0.20151213 0.05634977
-0.015565799 0.21286976 0.17969964 0.12106907 0.07582989 0.05341652 0.09076269 -0.23477346
0.07373641 -0.12670383 0.23544335 -0.13772972 0.24136272 -0.045467213 -0.098701894 0.0026392203
-0.12179113 0.07166589 0.012365924 0.11232267 0.15982835 -0.19194052 -0.05792701 -0.049733445
0.08068189 0.13781384 0.04449132 0.15375066 -0.04166688 -0.14187229 0.12216158 0.02790859
0.046629384 0.10964802 -0.09218419 -0.03442357 0.057839613 -0.030820988 -0.033669386 0.066923924
0.12250313 -0.11528076 -0.2584622 -0.1841279 -0.26078835 0.12818667 0.03976855 0.11938417
-0.12578003 0.100436695 0.19049218 0.027381996 0.13458303 0.1330037 0.19228567 -0.114813656
-0.07888369 -0.01624503 -0.017120598 -0.2576328 -0.06721215 -0.13424796 -0.11459762 0.020128261
-0.052690312 -0.25773236 -0.10651824 -0.11702658 0.07494086 0.22194456 0.03323612 0.119381726
-0.24658099 -0.07568013 -0.22357187 -0.06461548 0.05672192 0.030497912 0.07792956 -0.12387411
-0.09444822 -0.018931681 -0.13933946 0.0027293165 0.030510344 -0.010311819 -0.028068896 0.12264966
-0.06778716 0.26529494 -0.01349277 0.07326083 -0.10365914 0.01808037 -0.19295183 -0.16493823
-0.08727672 -0.08592934 -0.2057151 -0.26333222 -0.23673183 0.014834691 -0.09600697 -0.09939598
0.087457396 0.053671975 -0.08723539 -0.23035333 -0.20791182 -0.121256106 0.27127522 -0.012723138
-0.12865627 0.21598876 -0.012964439 0.086092986 0.09267681 -0.047260348 -0.16522124 -0.04108393
0.07531535 -0.038332365 0.20725168 -0.07840563 -0.16070005 -0.08094296 0.064253844 0.1621047
0.08152554 -0.12429344 -0.05893044 0.017679166 0.17545202 0.1018337 0.030813832 -0.26933977
0.018082142 -0.03902815 0.0055995216 0.019808793 0.19469929 -0.08603384 0.061730202 -0.0965282
-0.0034976786 0.0756925 -0.030594697 -0.04995257 -0.20873576 0.26062858 0.05371128 0.056503855
-0.0035766554 -0.05992302 -0.13668975 0.18606845 0.25058877 0.029225262 -0.059012417 0.04923399
-0.0033395542 0.24847977 0.21428294 -0.006704998 0.06549878 0.027762353 -0.058420714 -0.09499074
0.08293843 0.008937011 -0.1376933 0.14442736 -0.16554514 0.26255405 -0.2303198 -0.07723754
-0.08032191 0.17532684 -0.10754404 -0.40325797 -0.05273469 0.12877668 0.017356597 -0.14569974
0.23808226 -0.050549448 0.06788629 0.011500799 -0.12408226 -0.22031668 0.01101575 0.09602853
0.06809919 -0.16992447 0.21218555 -0.026804017 -0.10137579 -0.12045365 -0.123554625 0.09184824
0.10119384 0.201948 0.109646834 -0.16856544 -0.066413485 -0.16188793 -0.0067154747 -0.05190267
00000000: 243e c0bd 4f91 39bd 09db 3dbe bf3c 923d
00000010: c55f b33d e1ff 423e c336 9b3d 6962 873d
00000020: 7528 b13d a59f 26bd c804 e13d b56e 6e3c
00000030: 63ca 5f3b 4b39 5b3e 6043 17be 36ce 3cbe
00000040: 3e4f 403d 2110 8c3c b804 503e 2371 5bbe
00000050: 0382 c83c 1fa2 8abe 3e0b 8ebd c838 17bc
00000060: 19fd 863e 721f d13c b5f7 66be 2ee7 58bd
00000070: 0ed6 a8bd 8781 54be fbe5 d93d 43d5 21bc
00000080: 3278 2a3d 2114 f3bd 079f e03b 3b23 c43d
00000090: 86b6 9bbc d9c0 e9bd 01f9 c93c def3 80be
000000a0: 717a 2b3c e1ee 003e 42ea 6bbd 9882 2c3e
000000b0: e164 ac3a 7ab7 173e 3259 4e3e 04cf 663d
000000c0: b107 7fbc 88fa 593e 2f03 383e 10f3 f73d
000000d0: b44c 9b3d 48cb 5a3d cae1 b93d 7468 70be
000000e0: 1d03 973d a6be 01be 1018 713e 0509 0dbe
000000f0: ca27 773e d43b 3abd 3824 cabd c5f6 2c3b
00000100: a16d f9bd 91c5 923d 729a 4a3c 6e09 e63d
00000110: 0baa 233e 0e8c 44be df44 6dbd 4cb5 4bbd
00000120: 8c3c a53d 121f 0d3e 883c 363d d070 1d3e
00000130: e4aa 2abd f846 11be da2f fa3d 8ea0 e43c
00000140: 74fe 3e3d 248f e03d 11cb bcbd bbff 0cbd
00000150: 3be9 6c3d 4c7c fcbc e9e8 09bd 690f 893d
00000160: ece2 fa3d 5218 ecbd 2855 84be 068c 3cbe
00000170: 0d86 85be 5e43 033e 59e4 223d b07f f43d
00000180: 7bcc 00be c1b1 cd3d 6210 433e 3550 e03c
00000190: 22d0 093e 1f32 083e 89e6 443e 6c23 ebbd
000001a0: c68d a1bd 4c14 85bc 7f40 8cbc 72e8 83be
000001b0: 86a6 89bd 4c78 09be 28b2 eabd 06e4 a43c
000001c0: ccd1 57bd 7ff5 83be 3c26 dabd a2ab efbd
000001d0: 987a 993d 6f45 633e 9922 083d 687e f43d
000001e0: ba7f 7cbe 2ffe 9abd 06f0 64be 1f55 84bd
000001f0: 3e55 683d c2d6 f93c 8899 9f3d b6b1 fdbd
00000200: 126e c1bd 9d16 9bbc 01af 0ebe 55de 323b
00000210: d4f0 f93c e7f2 28bc bef0 e5bc bf2f fb3d
00000220: ffd3 8abd bdd4 873e c710 5dbc c609 963d
00000230: 3e4b d4bd 491d 943c 2a95 45be 91e5 28be
00000240: 23be b2bd b9fb afbd fba6 52be 7bd3 86be
00000250: d469 72be 340d 733c 4d9f c4bd 1f90 cbbd
00000260: dd1c b33d 25d7 5b3d 78a8 b2bd bee1 6bbe
00000270: d6e6 54be 1f55 f8bd 96e4 8a3e b574 50bc
00000280: 78be 03be 282c 5d3e cc68 54bc 8551 b03d
00000290: 57cd bd3d 1194 41bd c22f 29be 9f47 28bd
000002a0: ef3e 9a3d 6602 1dbd c939 543e 2293 a0bd
000002b0: 8e8e 24be 6cc5 a5bd 8597 833d c6fe 253e
000002c0: ddf6 a63d 8f8d febd 0c61 71bd e6d3 903c
000002d0: b2a9 333e 308e d03d 4a6d fc3c e7e6 89be
000002e0: 0021 943c fbdb 1fbd 317c b73b 0d46 a23c
000002f0: 405f 473e 8332 b0bd cfd8 7c3d 94b0 c5bd
00000300: 4f39 65bb ab04 9b3d bba1 fabc 119b 4cbd
00000310: d4be 55be 1c71 853e 5c00 5c3d 9670 673d
00000320: 5266 6abb d771 75bd 66f8 0bbe ba88 3e3e
00000330: 2c4d 803e d169 ef3c 01b7 71bd 95a9 493d
00000340: 6cdc 5abb 7b71 7e3e fd6c 5b3e 9ab5 dbbb
00000350: 3924 863d e06d e33c 8f4a 6fbd 818a c2bd
00000360: a0db a93d 8a6c 123c 79ff 0cbe c4e4 133e
00000370: aa84 29be 7c6d 863e f4d8 6bbe b72e 9ebd
00000380: d07f a4bd e188 333e 0d40 dcbd d477 cebe
00000390: 5500 58bd 09de 033e 6c2f 8e3c 5032 15be
000003a0: d6cb 733e f00c 4fbd f807 8b3d d96d 3c3c
000003b0: d71e febd b29a 61be 677b 343c 9baa c43d
000003c0: 9777 8b3d ae00 2ebe 2b47 593e 1994 dbbc
000003d0: 1c9e cfbd 67b0 f6bd 350a fdbd ee1a bc3d
000003e0: b73e cf3d 75cb 4e3e 858e e03d 6b9c 2cbe
000003f0: cb03 88bd f3c5 25be 7c0d dcbb e597 54bd

layers.1.bias f4 [128]
0.0156805 -0.01633056 -0.0037268156 0.0018758721 -0.014023662 -0.0061810124 -0.010545182 -0.0049199588
-0.013683485 0.007434451 -0.0031143888 0.005088308 -0.004125989 -0.011658823 0.0062561873 0.004341998
-0.017174354 -0.014239902 -0.012524587 0.01681669 -0.008988701 0.0031491858 -0.014922875 -0.018146582
0.0052865483 0.0117054265 0.0071501043 0.009431195 -0.006858639 -0.013387703 0.006123573 0.0070870463
0.0038709356 0.001860017 0.0079777865 -0.014314919 0.012779926 0.0022235413 0.010583289 0.014861092
0.0102975145 -0.0031693769 0.0085104145 -0.015590537 -0.012456241 0.0033550132 -0.004381942 0.0059330184
-0.0071737734 -0.009552828 0.0060194675 -0.011393704 0.008021033 0.0024382316 -0.012646524 0.014057478
-0.0060902005 0.02066317 -0.015718732 0.006126221 0.0047531156 0.0066988566 0.01365149 -0.0067387973
-0.0018560997 0.009637175 0.0143158445 0.0044526397 -0.0105086155 0.0044511766 0.013768713 0.0104115475
0.0014554176 -0.0030984 -0.011728546 0.008516268 0.007810708 0.0129370745 -0.007893372 0.011900027
0.021004483 0.0013260252 -0.0015569911 0.010216022 0.008697852 0.0012850414 -0.008930293 -0.00883491
-0.0056075933 0.004328348 0.016597426 0.00838728 0.005488738 0.011648691 0.0010625791 -0.010207015
-0.010413562 0.010870487 0.0019311402 0.015552684 0.0006233264 0.0034300033 -0.0035337806 -0.0051246253
-0.005004037 -0.001741605 0.021468487 0.012549345 -0.0011346634 -0.0018236076 0.0056596594 0.0062959017
0.0013687665 0.0154521465 -0.0007823371 0.0113546755 -0.0104489885 -0.015123642 -0.0012311849 -0.0015371675
5.407213e-05 0.012905014 0.013610178 -0.006485182 -0.01825499 0.007217226 -0.015433771 0.014338034
00000000: 6474 803c abc7 85bc 973d 74bb d3df f53a
00000010: 80c3 65bc 178a cabb b3c5 2cbc 9b37 a1bb
00000020: b230 60bc b29c f33b c61a 4cbb d2bb a63b
00000030: 4e33 87bb a604 3fbc b400 cd3b 5247 8e3b
00000040: 3bb1 8cbc 7a4e 69bc ed33 4dbc 28c3 893c
00000050: 5845 13bc 9262 4e3b 137f 74bc 24a8 94bc
00000060: c83a ad3b 1ec8 3f3c 6c4b ea3b 4d85 1a3c
00000070: 6fbe e0bb 1958 5bbc 41a8 c83b 743a e83b
00000080: 86af 7d3b d0cb f33a 43b5 023c 1f89 6abc
00000090: e562 513c d5b8 113b 8865 2d3c f07b 733c
000000a0: e8b6 283c 52b5 4fbb 446f 0b3c 746f 7fbc
000000b0: 4315 4cbc c8df 5b3b 6596 8fbb c469 c23b
000000c0: f911 ebbb 7783 1cbc f43e c53b a9ac 3abc
000000d0: a76a 033c bdca 1f3b 5e33 4fbc 5651 663c
000000e0: 4e90 c7bb cf45 a93c 92c4 80bc 77be c83b
000000f0: 06c0 9b3b 1582 db3b 80aa 5f3c 21d1 dcbb
00000100: 5f48 f3ba 3ee5 1d3c 018d 6a3c 73e7 913b
00000110: 542c 2cbc 2ddb 913b 2b96 613c 3295 2a3c
00000120: b6c3 be3a 870e 4bbb 1629 40bc d187 0b3c
00000130: f8f0 ff3b 06f6 533c 3453 01bc 55f8 423c
00000140: 9811 ac3c 06ce ad3a f413 ccba 1a61 273c
00000150: 6f81 0e3c d66e a83a 5d50 12bc 4cc0 10bc
00000160: e7bf b7bb d1d4 8d3b 53f7 873c cd6a 093c
00000170: dfda b33b 27da 3e3c 3d46 8b3a 533b 27bc
00000180: a59d 2abc 211a 323c 501e fd3a afd0 7e3c
00000190: ba66 233a e8c9 603b 0097 67bb 79ec a7bb
000001a0: e8f8 a3bb 9146 e4ba aede af3c c59b 4d3c
000001b0: fcb8 94ba 1e06 efba aa74 b93b da4d ce3b
000001c0: 2f68 b33a 002b 7d3c c115 4dba f608 3a3c
000001d0: 3c32 2bbc 27c9 77bc b65f a1ba c87a c9ba
000001e0: 82cb 6238 8d6f 533c 39fd 5e3c a681 d4bb
000001f0: 7d8b 95bc 7b7e ec3b eddd 7cbc 13ea 6a3c
